RollerBall/Assets/ML-Agents/RollerBall.onnx (onnx, 72954 bytes, 9 tensors)

50 f4 [6]
000000 d3 9d 1b 40 28 d5 1a 40 15 17 16 40 7d 11 0d 40
       2.4315078 2.41926 2.3451588 2.2041924
000010 77 7f f1 3f e2 b3 de 3f
       1.8867024 1.7398646

action_model._continuous_distribution.log_sigma f4 [1, 2]
000000 1f b4 ac bb 31 72 54 3c
       -0.0052704955 0.0129666785

action_model._continuous_distribution.mu.bias f4 [2]
000000 fe 05 19 3d 7d f6 46 bc
       0.03735923 -0.012143728

action_model._continuous_distribution.mu.weight f4 [2, 128]
000000 f1 06 8e bc c4 07 58 bd ef 21 8f bd af 2f 85 bd
       -0.017337294 -0.05274178 -0.06988894 -0.065032355
000010 6e cf 28 3b a3 6d b7 bc 96 c4 f2 bc 16 95 c6 3d
       0.0025758403 -0.022391146 -0.029634755 0.09696405
000020 f8 b1 8c 3c 70 0c d1 bc 5c 4c a7 bd 41 fe 1f 3c
       0.017174706 -0.025518626 -0.08168861 0.009765209
000030 25 03 49 bd 07 8d b0 3d a8 53 06 bd ed f2 96 3d
       -0.049075264 0.08620649 -0.032794625 0.07370553
000040 a0 4a 2c 3d 0c 00 62 3c 0b b1 4d bd 98 93 65 3d
       0.042063355 0.0137939565 -0.05021767 0.05604896
000050 95 bd f5 b9 94 67 63 3d 16 98 03 bd f2 cf b7 bd
       -0.0004687129 0.0555187 -0.032127462 -0.08975209
000060 b9 08 a5 3d 94 89 c4 bc 07 99 ad bc 4f ff 49 bc
       0.08058304 -0.023991384 -0.021191133 -0.012328937
000070 c1 c6 eb bc 06 7b 66 3d f7 5f 0f bd 0e 03 e5 3c
       -0.028781297 0.056269668 -0.03500363 0.027955558
000080 f2 45 8c 3d 49 42 07 bc 6e f4 32 3c 7e 4d eb 3b
       0.068492785 -0.00825555 0.010922534 0.0071808686
000090 8e 09 e1 bd 94 3c a4 bc a2 74 ab 3c 64 48 bc bd
       -0.109881505 -0.020048417 0.020929638 -0.09193495
0000a0 c1 64 88 3c fb 79 37 3a f4 f2 7c bd 30 eb 97 bc
       0.016649606 0.00069990725 -0.061755136 -0.018544763
0000b0 0e 36 47 3d db 7b 04 bd 92 45 db 3d d3 da 0b bd
       0.048635535 -0.03234468 0.10706629 -0.034144234
0000c0 63 b0 ce 3c db c9 ee bb ba 95 79 bd 70 3e 62 bb
       0.025230592 -0.0072872466 -0.060933806 -0.003452208
0000d0 f0 f9 39 3d 06 87 6a bd 01 99 0c 3d 2d 0d a5 3d
       0.045404375 -0.057257675 0.034325603 0.08059154
0000e0 52 c4 1c 3d 4d 12 a5 3c e5 55 ea bc 01 f3 22 3d
       0.038273163 0.020150328 -0.02860541 0.039782528
0000f0 cd a5 cf 3d f3 85 6e bd 9b 35 93 3d a6 9c 34 bd
       0.10139046 -0.058233213 0.07187959 -0.044094704
000100 2c 3c 3d bb f6 b5 2c bc 67 5b 87 bd 47 40 3c bd
       -0.0028874977 -0.01054143 -0.066092305 -0.045959737
000110 5d c3 f4 bd 3e 67 0d 3c 30 46 36 3d 6a ac 0b 3e
       -0.11951325 0.008630572 0.04450053 0.1363999
000120 ef 05 8e 3d a6 51 04 3c 96 ea 0f 3c d7 15 47 ba
       0.069347255 0.008076107 0.008783957 -0.0007594502
000130 27 c0 c6 3d c0 12 f4 3b e5 6f 12 3d 62 00 22 bd
       0.09704619 0.0074485242 0.035751242 -0.039551146
000140 e1 23 40 bd af 40 50 3d 98 3d 2b 3d f5 48 01 3c
       -0.046909217 0.050842937 0.041806787 0.0078909295
000150 47 a3 e8 bc dc 65 11 3d c0 68 f6 bc 19 b0 9c 3c
       -0.02839817 0.03549753 -0.030079246 0.019126939
000160 7d 85 30 3d 1f 11 82 bc d8 30 53 bc 85 50 a3 3c
       0.043096054 -0.015877305 -0.012890063 0.019935856
000170 31 47 aa bd 2b 72 10 3d 93 6f 01 3d ac e7 d0 3c
       -0.0831436 0.03526513 0.031600546 0.025501095
000180 8d 54 48 3d c9 37 d9 3b 31 25 1a bd db 9e 18 bc
       0.04890876 0.0066289646 -0.037633125 -0.009315218
000190 4e 93 65 bc e3 c0 28 bd 99 21 b9 3d 7f cf 18 bc
       -0.014012171 -0.041199576 0.09039611 -0.009326815
0001a0 fb e4 25 bd c5 0d 13 3e d5 59 2b bd d4 ad 78 3d
       -0.040501576 0.14360721 -0.041833717 0.06071265
0001b0 dc ef 53 3d cf c1 3e 3d 10 d8 81 3d 71 88 91 bc
       0.05174242 0.04657155 0.06340039 -0.017765256
0001c0 5e 55 21 bd 87 ba 59 bd 21 94 99 bd d8 c1 a9 bd
       -0.039388053 -0.053156402 -0.074989565 -0.08288926
0001d0 78 6f f8 3c 6b e2 23 3d 46 82 58 3c 89 a6 46 bd
       0.03032659 0.04001085 0.013214653 -0.048498664
0001e0 6e 9f 94 bd 18 6e 84 3c 28 88 b9 bb 32 45 21 bc
       -0.07256971 0.016165778 -0.005661983 -0.009843158
0001f0 6f 23 79 3d 0d aa 66 3d 63 15 5f bc 4c 50 60 3c
       0.060824808 0.056314517 -0.013615939 0.013691019
000200 24 60 67 3d 1e a2 89 bb 30 f4 5f 3d f8 96 58 bc
       0.05648817 -0.004200234 0.054676235 -0.0132195875
000210 8e 5e 12 3d 11 e5 c0 bd 5a f5 8a 3d e9 19 9b bd
       0.035734706 -0.09418691 0.06785078 -0.07573301
000220 7b dc b0 bd 3a f9 3d 3d f3 3c 1c bc c7 7f 36 bd
       -0.08635803 0.04638026 -0.009536016 -0.04455545
000230 e6 83 ea bd 0e 7c 6e 3d d3 29 93 3b df 47 05 bd
       -0.11450939 0.058223777 0.00449107 -0.032539245
000240 5d d2 20 3d 6a 94 75 3d ae e6 b4 b9 03 e5 a4 3d
       0.039263118 0.05995599 -0.00034504145 0.08051493
000250 fa 0a a1 3d fd 7e f3 3c 87 e7 e1 3c 5f f9 bb bc
       0.07863422 0.029723639 0.027576221 -0.022946058
000260 75 cf 04 bc 85 12 8e bd da 49 ef bc b6 c8 e8 3c
       -0.008106102 -0.06937126 -0.02921002 0.028416019
000270 06 15 3d 3d 73 d8 ce bb f0 ae dc bd e0 29 32 3c
       0.046162628 -0.006312424 -0.10775554 0.010874242
000280 dc 69 a7 bc 4b d6 1e 3d 56 8c d4 bd 3c 66 a6 bd
       -0.02043622 0.038778584 -0.103783295 -0.081249684
000290 8e 00 5a 3c 76 1b ee 3c 21 ca bd bd ae 92 aa 3c
       0.013305796 0.029065829 -0.09267069 0.020821895
0002a0 01 2f 98 bd 3b 06 2c 3b 61 9a 90 3c fb 90 b8 3d
       -0.0743084 0.002624883 0.017651739 0.09012028
0002b0 61 13 b1 3d c1 67 13 3d af 01 a3 bc 86 4f b2 bc
       0.08646274 0.03598762 -0.019898264 -0.021766435
0002c0 b1 c0 05 3d 7b eb a1 3d e5 82 03 3d c7 55 27 bb
       0.032654468 0.079062425 0.032107253 -0.0025533305
0002d0 a8 a4 b8 bd 9f da af bd e2 cb a9 3d 5e f8 98 3d
       -0.09015781 -0.085866205 0.08290841 0.07469247
0002e0 6a 04 64 3d ca 1d a6 bd c4 2f ce 3c a3 10 47 3d
       0.055668272 -0.081111506 0.02516926 0.04859985
0002f0 0e 9a 82 3d 06 65 2a 3d 05 f3 33 bd 86 c2 9f 3d
       0.0637704 0.04160025 -0.043932933 0.07800774
000300 68 78 b3 bc 38 63 13 bc 30 89 16 bd 4c 28 ee 3c
       -0.021908 -0.008995824 -0.036751926 0.02907195
000310 84 08 44 bd b5 72 56 3d f4 12 26 3c ac 33 ce 3c
       -0.047859684 0.052355487 0.010136355 0.025171123
000320 72 4c 3d 3d d2 52 85 3c 43 fd dc bc e9 86 e7 bd
       0.046215482 0.016274843 -0.026976233 -0.11305029
000330 fc e3 c0 bd 46 1e 17 3d bf ba 16 3d 15 c0 1f be
       -0.094184846 0.036894105 0.03679919 -0.15600617
000340 4e 76 f2 bd f8 a8 4e bb 93 63 33 bd 22 2d 23 bd
       -0.11838971 -0.0031533819 -0.043796133 -0.039837964
000350 27 fd 64 bc 56 67 a8 3d d5 ce cf bc 36 21 63 3d
       -0.013976372 0.08222835 -0.02536718 0.055451594
000360 2d 39 2d bd d1 a4 01 3d da 1a a3 bd 49 34 3a bd
       -0.042290855 0.03165132 -0.07964106 -0.04546002
000370 98 c7 4c 3c 5f 06 93 bd 5c 5a 21 bd e6 48 8e bd
       0.012498759 -0.071789496 -0.039392814 -0.06947498
000380 f0 dd b6 3b ce ac 12 3d c1 56 a9 3d f9 39 b7 bd
       0.005580656 0.03580933 0.082685 -0.08946604
000390 1d 14 36 3d 97 2c b5 3d 78 4b 55 39 81 42 d5 3b
       0.044452775 0.088463955 0.00020341377 0.006508172
0003a0 fb 68 88 3c 11 36 24 bd a9 b4 38 3d a7 a8 65 3d
       0.016651621 -0.040090624 0.045094166 0.056069043
0003b0 5a 5f 94 3b 64 c5 77 bd d6 28 98 3d 0a a7 a3 bd
       0.0045279684 -0.06049098 0.07429664 -0.079908445
0003c0 83 13 da bc fd 45 60 bd 2a 00 76 bc a8 28 3a bc
       -0.026620632 -0.054754246 -0.015014688 -0.011362232
0003d0 58 c4 5e 3d 0e 3a 72 bc 62 7b d4 bd 33 cb 9f bd
       0.054386467 -0.014784349 -0.10375096 -0.07802429
0003e0 d4 ec 53 3d 6f ab a1 3d 4c 6a f4 bd 96 ee 92 3d
       0.05173953 0.078940265 -0.11934337 0.07174413
0003f0 ca 0f 45 3b 67 48 db bd 1a 86 e4 3d 92 4d 0c 3d
       0.0030069225 -0.10707169 0.1115839 0.034253664

network_body._body_endoder.seq_layers.0.bias f4 [128]
000000 ae 12 a7 bd 84 f1 c7 bc 16 56 63 bb 7b f9 81 3d
       -0.0815786 -0.024407156 -0.0034688762 0.06346413
000010 66 1a 21 3d 9b cc 84 3d c2 c6 ca 3c d3 b8 b4 bb
       0.039331816 0.06484338 0.024752978 -0.005515197
000020 bb 4b 8e 3c e6 34 7b 3d f9 75 c1 3d a9 04 a8 3d
       0.017370095 0.061329745 0.094463296 0.08204014
000030 cf 74 19 3d 76 0f a3 bb 35 81 04 3d 2c df 63 3c
       0.037464913 -0.0049762083 0.032349784 0.013908189
000040 da b1 b8 3c 59 f6 6e 3d aa 38 fe bc 4f 91 26 3d
       0.022545744 0.058340404 -0.031032879 0.04066592
000050 2f af a3 3c d1 68 64 3d 61 ef 8c 3c e7 5d 8f 3c
       0.019980995 0.055764023 0.017203989 0.01750083
000060 19 26 62 3d 59 4a 33 3d f3 e5 9a bd e3 55 bc 3c
       0.055212114 0.043772075 -0.075633906 0.022990173
000070 6f 86 aa 3a ff e6 8c 3b 12 85 0f 3d cc 90 29 3d
       0.0013010035 0.004299998 0.035039015 0.041397855
000080 6d f3 ae 3d 21 73 b8 3d ee b8 8d 3d ec 81 49 3c
       0.085425235 0.09006334 0.06920038 0.012299042
000090 97 62 3e 3c c6 dc 7a bd 0a 2b 75 3d 78 37 78 bd
       0.011620185 -0.061245702 0.0598555 -0.060599774
0000a0 89 23 d0 bd 67 d1 11 3d bf 5c 99 bd 05 d5 94 3c
       -0.10163028 0.035600092 -0.07488393 0.018167982
0000b0 4b df 01 be 74 3e ac 3c e4 fb 0e 3e 8e 5b 02 bb
       -0.12682836 0.021025874 0.13963276 -0.0019890997
0000c0 26 e1 b8 3c c4 50 56 3c d3 52 82 bd 17 01 e5 3d
       0.022568297 0.013080779 -0.06363454 0.111818485
0000d0 ae fd 8f 3b 41 d7 cc bc 90 8f f5 3c fa 2c a1 bc
       0.0043942546 -0.025004985 0.029975682 -0.019674767
0000e0 22 ee 08 3b b1 80 52 3d 3d ff 7b 3d bd 8b d2 bd
       0.0020893891 0.05139226 0.06152271 -0.10280559
0000f0 02 28 fa bc cc e8 83 3a f5 fe 7e 3c 9c f6 1a 3d
       -0.030536655 0.0010063886 0.015563716 0.03783284
000100 59 3e 87 3b df 8e 52 3d 30 db d0 bd 23 32 34 bd
       0.0041273055 0.051405784 -0.10198057 -0.043993127
000110 0c a3 ab 3d b3 06 28 3c a6 c3 8e bb 89 47 e1 bc
       0.08380708 0.0102555035 -0.004356819 -0.027499931
000120 a0 a3 26 3d 37 f8 17 bc 35 37 26 bd 48 eb 79 bd
       0.04068339 -0.009275488 -0.040579993 -0.061015397
000130 67 b6 09 be b7 0e a8 bc 3e 11 33 3d 14 31 1b bb
       -0.13448487 -0.02051483 0.043717615 -0.0023680376
000140 18 7e 0f bc e6 c7 10 bb 7f c9 b3 bc ff 0c c6 bc
       -0.00875809 -0.0022091805 -0.021946667 -0.024176119
000150 38 7c bc bb f6 9d 42 3d 69 2e df bc 66 43 30 bc
       -0.0057521127 0.047513925 -0.02724381 -0.010758257
000160 5d 14 3e 3d b9 f4 7a ba fe 9a 86 39 bb 1a 83 3d
       0.04640614 -0.00095732097 0.0002567395 0.06401583
000170 89 ea 8d 3d b9 e7 a4 3d 65 35 2d bd 3b b9 23 3b
       0.069295 0.0805201 -0.04228725 0.0024982232
000180 0e 80 04 3d 01 b4 a5 bc 0e d5 83 3d df 09 aa 3c
       0.032348685 -0.020227434 0.06437121 0.02075666
000190 0c 22 c7 ba 29 52 66 3c de b2 97 3b 13 52 75 3b
       -0.0015192642 0.014057674 0.004629477 0.0037432953
0001a0 f2 0d 33 ba b2 20 0a 3d 51 fb 97 3d b8 67 4e bd
       -0.0006830386 0.033722587 0.07420982 -0.050391883
0001b0 d2 f3 26 bc 11 18 89 3c f3 22 4a 3d 2e 92 05 bd
       -0.010189967 0.016735109 0.049349736 -0.03261011
0001c0 a8 63 ba bc 1a f0 5e 3d f1 63 30 3d 1f ec 1e 3d
       -0.022752598 0.054428197 0.04306406 0.0387994
0001d0 e3 dd 9c 3d e3 52 f1 bb cd 5f bf 3d 78 aa 35 3c
       0.07659509 -0.007364617 0.093444444 0.011088006
0001e0 d2 bd 9c 3d ff 81 06 3d 7a 70 a3 3d e8 52 9f 3c
       0.07653393 0.032838818 0.079804376 0.019448712
0001f0 89 d3 bc 3c 0a 28 c4 3c 91 8f f9 bc bc 37 b6 3c
       0.023050087 0.023944873 -0.030463966 0.022243373

network_body._body_endoder.seq_layers.0.weight f4 [128, 6]
000000 01 dd e1 3b f1 ee 2e be 14 1f cb 3d 37 72 8d 3e
       0.006892801 -0.17083336 0.09918037 0.27626202
000010 04 ea fa be 36 55 bf 3e 36 e2 b3 be 01 a7 a1 3c
       -0.49006665 0.37369698 -0.35133523 0.019732954
000020 40 30 d2 be 1b ec 07 bf d5 bc 06 bf b6 d6 57 be
       -0.41052437 -0.53094643 -0.52631885 -0.21078
000030 b4 81 2f bf 6f d9 d1 3d 56 ff 26 3d 46 e5 fb 3d
       -0.68557286 0.1024655 0.04077085 0.1229959
000040 e4 c7 33 3f f2 c1 09 3d 1d 69 59 3f 35 a1 1f bf
       0.70226884 0.033632226 0.84926015 -0.6235536
000050 6a f0 d4 3e 78 cb 78 bd b4 30 ba 3e 9d bd 99 3e
       0.4158967 -0.060740918 0.36365283 0.30027476
000060 c1 73 d2 3e f4 44 ce 3e 8a 83 b9 bc c0 3d c3 be
       0.41103938 0.40286982 -0.02264573 -0.3813305
000070 66 d7 d0 3e 26 18 d0 be 56 9e 36 bf b6 3d 38 bf
       0.40789336 -0.40643424 -0.7133535 -0.71969163
000080 81 99 5c 3d ee 25 03 3e ea 34 00 bf 94 ae 21 3e
       0.05385733 0.12807438 -0.5008074 0.15789253
000090 ff ce e7 3e 0d 3b 82 bd 1e de 1b 3f 45 c7 eb be
       0.45275113 -0.06358919 0.608858 -0.46050468
0000a0 7d cf 36 bf 85 5a 2a bf bf 73 2f 3e 04 6a c5 3d
       -0.7141035 -0.6654437 0.17133997 0.096393615
0000b0 77 bf ee 3c a4 37 e2 3e 18 d1 f8 be 14 25 0e bf
       0.029144032 0.44183075 -0.48597026 -0.55525327
0000c0 ff 8f 9f 3e d8 cd f1 3e 97 15 db be cd 77 83 bd
       0.31164548 0.4722736 -0.4278991 -0.064193346
0000d0 bc 06 88 3e 75 80 e2 be bb 75 13 3f 64 48 da be
       0.26567638 -0.4423863 0.5760152 -0.42633355
0000e0 a4 c2 39 be e1 93 78 3e 62 44 53 be db 1f 48 3f
       -0.18140656 0.24275161 -0.20631555 0.7817361
0000f0 0c 98 4c 3f 0a 22 5a 3d 00 36 d3 3d b0 f4 6f 3e
       0.79919505 0.05325512 0.10313034 0.23433185
000100 8e ce 64 bd 76 af b9 3c 4b bc d5 3e 0f 2b b0 3e
       -0.05586105 0.022666674 0.4174522 0.3440785
000110 f1 e5 02 bf ea 7c ba be 36 ed f7 bd 07 5b d4 be
       -0.5113211 -0.36423427 -0.12105791 -0.41475698
000120 36 81 33 3e f6 26 45 3e fd 31 1c 3e 8b 15 44 be
       0.17529759 0.19253144 0.15253444 -0.19148843
000130 7b 05 90 be 75 b8 b4 bc c2 b5 34 be b8 fc b8 3e
       -0.2812918 -0.022060612 -0.1764746 0.3613031
000140 bb d7 68 bf 93 ca fe be ad 98 cf 3d 92 74 e1 3e
       -0.9095418 -0.49763927 0.101365425 0.4403425
000150 33 62 c8 3e b3 9b d0 3e c7 75 2a 3e 88 1a 88 3d
       0.3913742 0.4074379 0.16646491 0.066456854
000160 89 05 08 3e c7 88 26 3f c8 32 ad 3e 80 6a 65 bd
       0.13283361 0.65052456 0.33827806 -0.05600977
000170 64 a9 6c 3e 19 d5 8b be a9 5a 0a be f2 e8 a9 3e
       0.23111492 -0.27311018 -0.13511147 0.33185536
000180 d7 ad 51 3f 13 af ca bd 65 f7 b1 3e f5 07 f5 bd
       0.81905884 -0.09896674 0.3475906 -0.11964408
000190 34 63 5c 3e b2 58 a2 be 67 64 9e be 3f ed b8 be
       0.21522218 -0.31708294 -0.30935976 -0.36118504
0001a0 d1 34 a2 be 76 0d d8 bd 02 7d 2d 3f dc c6 a9 3d
       -0.3168092 -0.105494425 0.6776887 0.082898825
0001b0 ae 05 09 be fe 59 12 3d bd c3 ae be ff b6 93 be
       -0.13381073 0.035730354 -0.3413371 -0.28850552
0001c0 62 a7 de 3c d6 d1 b1 3e 07 14 00 be 8e 87 52 3f
       0.027179424 0.34730405 -0.1250764 0.8223809
0001d0 eb bf 10 3f e9 e9 3b bf 0c eb ae be 1e 26 20 bf
       0.56542844 -0.73403794 -0.34163702 -0.6255816
0001e0 a7 4f 9a bf 0a 38 8a 3e ee 4f 44 3f 46 d9 76 bf
       -1.2055558 0.2699588 0.76684463 -0.9642528
0001f0 28 20 52 be 7b 43 b2 3e 3c 12 05 bf 12 2d 7c be
       -0.20520079 0.3481711 -0.5198095 -0.24626568
000200 16 5f ae be f0 ee 1c 3e f6 5b 0c 3f 8c d2 ce 3e
       -0.3405692 0.15325522 0.5482782 0.4039501
000210 82 cc ea 3e eb 74 1f 3f af 89 5b be 61 9a 14 bf
       0.45859152 0.6228778 -0.21439241 -0.58048064
000220 6b aa 3c 3f 64 9b a8 3e 8e cf 3b 3e 4a 08 7f 3e
       0.7369754 0.32931054 0.18340895 0.24905506
000230 82 46 8c be ad 1b 2d 3d 71 0f 03 bf cd e8 04 3e
       -0.27397543 0.04226272 -0.51195437 0.12979431
000240 a0 00 ad be fd 36 f8 be 72 6d f9 3e a8 dc fa 3e
       -0.3378954 -0.48479453 0.48716313 0.48996472
000250 03 d1 23 3d 44 c8 25 bf 90 e4 98 be 8f 7e f1 be
       0.03999425 -0.64758706 -0.2986188 -0.4716687
000260 f7 7c 01 3f a4 01 f1 3e 49 0a 46 3d 36 df ac be
       0.50581306 0.47071564 0.048349652 -0.33764046
000270 39 99 a6 3e 89 df ed be 17 1e 0d bf ad 37 07 3e
       0.32538775 -0.46459606 -0.5512404 0.13204832
000280 f7 0b 4a bf b9 5c 66 3d 63 52 09 bf 05 cd 6c 3e
       -0.78924507 0.05624077 -0.5364134 0.23125084
000290 5d f4 13 be 9c 9a f9 3e 0c aa 7e 3f a1 33 07 be
       -0.14448686 0.4875077 0.9947822 -0.13203289
0002a0 90 96 53 3d da 35 a1 3d 99 8d 58 3f ea ce 21 3e
       0.05165726 0.078715995 0.8459106 0.15801588
0002b0 56 13 71 3e b4 0d a6 bc 3f f5 52 3f 8f cb 9c be
       0.23542532 -0.020270206 0.82405466 -0.30624053
0002c0 24 fd 04 3e 32 2f 2b bf 84 4a 62 3e bc 0f 56 bf
       0.1298719 -0.6686889 0.22098738 -0.8361776
0002d0 dd 13 63 be 99 b4 a1 bd 49 ff 00 3f e3 d4 bd bd
       -0.22175546 -0.078957744 0.50389534 -0.092691205
0002e0 ff f9 28 3f a6 99 3a 3e 72 45 69 be 8e 47 d6 be
       0.66006464 0.18222675 -0.22780398 -0.41851467
0002f0 68 34 9a bd db 1c b7 be ea 08 62 3e dd be 4d 3f
       -0.07529527 -0.35764202 0.22073713 0.8036936
000300 a9 91 c0 3e 07 f8 b1 be 86 b2 8b be 68 01 04 3f
       0.3761113 -0.34759542 -0.2728464 0.51564646
000310 40 9c 99 be 6a 20 1b 3f c7 b0 47 3f 79 68 68 be
       -0.30002022 0.60596335 0.78004116 -0.22696103
000320 aa bd 20 be 87 81 84 3e ef c1 0f be 05 e0 c1 3d
       -0.15697351 0.25880072 -0.14038824 0.094665565
000330 d4 ba 13 3f 6f dd 36 bb 17 b9 5c be f0 69 f1 3e
       0.5770695 -0.002790298 -0.21554981 0.47151136
000340 2b 86 13 bf c0 34 04 bf 4b 4a 02 3f 63 40 26 3f
       -0.576266 -0.5164299 0.5089461 0.64941996
000350 43 85 63 3e 30 66 bb 3e 70 fa a0 3d 0f 43 72 be
       0.22218804 0.366014 0.07860267 -0.23658393
000360 97 76 8e bf e9 50 34 bf 0b 70 95 be a7 f6 ae be
       -1.1129941 -0.7043596 -0.29187045 -0.34172556
000370 75 30 7c 3e 32 9e e2 3d 5e 6d 8a bd 1a 1d 7f 3e
       0.2462786 0.110653296 -0.067591414 0.24913445
000380 2d 40 52 3f 45 27 01 3f db 2b 39 bf cf fd 2b 3e
       0.82129174 0.50450546 -0.72332543 0.16796039
000390 db ca c0 be 53 84 76 bf fe 29 2f 3f 8e ed ab bd
       -0.37654766 -0.9629566 0.6842345 -0.08394919
0003a0 bc 89 25 3f 85 7d f9 3d 6b 26 8b 3e 81 77 9f 3e
       0.6466329 0.12182144 0.27177748 0.31145862
0003b0 ec 3e 20 be dc b3 21 3d 47 45 83 be 09 c3 3f 3e
       -0.15649003 0.039478168 -0.25638792 0.18726744
0003c0 dc a0 73 3e c0 b0 7d 3d e2 e1 8b be d8 85 bf bd
       0.23791832 0.06193614 -0.27320772 -0.093517005
0003d0 fe d5 dc be fc ac 9f bd 6d 47 81 be c5 03 9a 3e
       -0.43132013 -0.07796666 -0.25249806 0.30081
0003e0 07 92 e4 3e d4 3b 31 bf 75 3f b7 be ba d5 31 bf
       0.4464266 -0.69231915 -0.357906 -0.69466746
0003f0 ec 1f 2d be 05 11 06 be d4 64 61 3e 51 8b 9d 3d
       -0.16906708 -0.1309243 0.22011119 0.07692588

network_body._body_endoder.seq_layers.2.bias f4 [128]
000000 f3 b8 a9 3c 87 2d e6 ba b5 fe 8d bb 94 0f 61 bc
       0.020718073 -0.0017561176 -0.004333342 -0.013736624
000010 91 73 70 bd 97 b2 69 3d 02 b5 b6 bc ee 8f af 3d
       -0.058703963 0.057055082 -0.022303108 0.08572374
000020 87 ed 88 3d 07 b6 56 bd e7 29 f3 bb a0 27 90 3c
       0.0668593 -0.05241969 -0.0074207666 0.01759702
000030 ae e8 40 3d 0d 69 9c 3d 2d 6d d2 bc 8b 3d b4 3d
       0.0470969 0.07637224 -0.025686825 0.08800801
000040 97 1c a9 3c 8a db 99 3c ac 32 89 bc b9 39 4e 3d
       0.020643516 0.018781442 -0.016747795 0.050348017
000050 ee 54 0a 3d 66 27 c1 3d fb 27 d2 bc b6 9f 4e 3c
       0.0337724 0.09431343 -0.02565383 0.01261132
000060 72 ad 84 3d 7d 55 15 3d 70 a9 ac bc db dd 1e bd
       0.064783946 0.03645848 -0.021076888 -0.038785797
000070 52 cd 72 3c 20 5a 90 3d a2 cc 91 3d c3 0a 35 3c
       0.01481946 0.0704844 0.07119109 0.011049929
000080 e2 f8 88 3d c2 bf ad bc 58 95 66 3d 8f 88 7a 3d
       0.06688096 -0.021209601 0.05629477 0.06116539
000090 bb 24 0d 3c 2c 92 8d bc 4c 96 89 3d 5f 35 0b 3d
       0.008614714 -0.017281614 0.0671812 0.033986446
0000a0 9a 33 71 3d c7 96 c4 3c 17 f5 01 3c 8d b6 70 3c
       0.0588871 0.023997677 0.007931969 0.014691961
0000b0 eb 27 9b 3d 7e 32 2b bd 92 dd c1 3d da ae 53 bc
       0.07575973 -0.0417962 0.09466089 -0.012920106
0000c0 57 18 51 bc bd 1f 15 3b 14 b4 9e 3b 72 12 fd bc
       -0.012762151 0.0022754513 0.0048432443 -0.030892584
0000d0 47 65 be 3d 95 76 08 3d 7c f9 1b 3d 2b 1f 8f 3d
       0.09296661 0.033316214 0.038079724 0.06988367
0000e0 17 17 0b 3d bc 6e 46 3d 76 cb d9 ba 3c 0a fc 3c
       0.033957567 0.04844545 -0.0016616422 0.030766599
0000f0 bf 1d af 3d a7 d8 99 b9 82 e1 a1 3d ed c4 9b 3c
       0.085505955 -0.00029343853 0.0790434 0.0190148
000100 3e ac 49 bc b5 04 ba bc 59 c3 5e 3b 12 11 c5 bc
       -0.012309132 -0.022707323 0.0033990948 -0.024055991
000110 84 75 ad 3c 2f 92 56 3a 65 96 0e 3d ad c1 d5 3d
       0.0211742 0.0008185235 0.034811396 0.10437331
000120 ee 83 62 3d e3 28 27 bd bf 41 8a 3c 39 32 c9 3d
       0.0553016 -0.040810477 0.016877053 0.09824032
000130 91 93 bd 3d 04 64 0a bc c5 6c 1f 3d e6 0c cf 3d
       0.09256662 -0.008446697 0.03892209 0.10109882
000140 9a 14 62 3d 97 2a 2a 3d c4 16 80 3d ed 13 08 3c
       0.05519543 0.041544523 0.06254342 0.008305532
000150 c1 57 95 bc 91 65 c4 3c 00 f3 c4 ba 46 44 56 bc
       -0.01823032 0.023974212 -0.0015026033 -0.013077801
000160 4e 6f 6a 3d f3 8f 6e bc 73 78 01 3d 2b 36 18 3d
       0.057235055 -0.014560687 0.03160901 0.037161034
000170 73 a6 7e 3c 2e 5d 2a 3d b9 a6 4a 3d 77 55 7d 3d
       0.015542614 0.04159277 0.049475405 0.061849084
000180 7e 28 50 3d b2 e4 29 bd 3a e2 4e ba 18 1a 1a 3d
       0.050819866 -0.041477866 -0.0007891987 0.03762254
000190 64 6a 1a bd 0d 4d 8f 3c e8 d6 9a 3d e6 34 63 bd
       -0.03769912 0.017492795 0.07560521 -0.05547037
0001a0 12 b1 a4 bc 46 e2 07 3e 8c 9a bb bc e4 9d 77 3d
       -0.020103965 0.1326991 -0.022900842 0.06045331
0001b0 62 2e 30 3d 93 61 1c 3d bf 4c 43 3d 83 6f 65 3d
       0.043012984 0.03817899 0.047680613 0.05601455
0001c0 cb bc b7 bb 6c 8b a7 3c 97 01 85 ba ff 1d 29 bc
       -0.0056072227 0.020452224 -0.0010147569 -0.010322093
0001d0 4c 12 97 3d 5c 22 8b 3d 6a 46 9f 3d 34 f8 1d 3d
       0.07376537 0.06793663 0.07777102 0.038566783
0001e0 8b d1 05 3b 29 9d 1a 3d 46 f4 a8 3d 41 b6 74 bc
       0.0020419087 0.037747536 0.082497165 -0.014936031
0001f0 41 d5 d3 3c f4 e8 91 3d f1 3d ca 3c 1c c2 25 3c
       0.025858523 0.071245104 0.02468774 0.01011708

network_body._body_endoder.seq_layers.2.weight f4 [128, 128]
000000 c6 c7 93 3d f6 78 09 3d a5 a5 e7 3d 4a 1a a7 3a
       0.07215838 0.033562623 0.11310891 0.0012748924
000010 c3 1c 21 3e 89 fb 0c bd ec d5 83 3d e0 cf 04 3c
       0.15733628 -0.03441957 0.06437287 0.008106202
000020 54 b4 27 bd 67 bc 8a bd 4c 99 50 bd 4b c0 b8 bd
       -0.04094346 -0.06774216 -0.050927445 -0.09021052
000030 f8 53 a5 3d cf a3 bf bc ba 06 0c 3e e0 03 e3 3c
       0.080726564 -0.02339354 0.13674441 0.027711809
000040 f5 78 17 3d 4c a0 2a 3b f3 6d 81 3d a8 0f d3 3d
       0.036980588 0.0026035486 0.06319799 0.103057206
000050 15 d1 de 3d 1f 11 7c 3c 32 49 0c 3d 80 d7 07 3d
       0.10879723 0.015384941 0.034249492 0.0331645
000060 19 5c 95 3c 46 e3 84 bd 20 f8 00 bd 7f 60 18 3e
       0.018232392 -0.064886615 -0.03148663 0.1488056
000070 c5 0a 2f 3d f4 5e 5a 3d 0e 90 cd 3d 24 2f 2b 3d
       0.04273488 0.05331321 0.10037242 0.041793004
000080 b8 7f 71 3d 41 c9 30 be 48 b0 2f bb ef 7c 01 3c
       0.058959693 -0.17264272 -0.0026807953 0.007903322
000090 d0 12 8b 3c ef 1a c6 3d e6 6f c6 bd 30 d9 de 3c
       0.016976744 0.09673106 -0.09689312 0.027203172
0000a0 d7 d5 21 bd 75 40 a0 bb 21 c9 2d 3d 9d b2 7a 3c
       -0.039510574 -0.0048904964 0.04242814 0.015301374
0000b0 c8 7a e5 bc 31 0b 0a bd 39 f8 d6 bc 5e 34 18 3c
       -0.028012648 -0.03370208 -0.026241409 0.009289829
0000c0 12 e6 7b 3d 65 9d f7 3b 4d 55 db 3d 83 65 30 3d
       0.06149871 0.0075566047 0.10709629 0.04306556
0000d0 27 4e 33 be fa 77 ec 3d 98 11 9d bd 9e 55 8d bd
       -0.17510282 0.11546321 -0.07669371 -0.06901096
0000e0 fb 25 1a 3d 6c 6e fd bd ae bb b1 3d 3f 84 e0 bc
       0.037633877 -0.12374577 0.08678375 -0.02740681
0000f0 db 74 b3 bd 7b 63 c0 bd 66 ff b6 3d 18 51 d4 bd
       -0.08762523 -0.093939744 0.08935432 -0.1036703
000100 fb ac 10 3e 78 2a b2 bd 1f c5 b9 bc 68 48 35 3d
       0.14128487 -0.086995065 -0.022677002 0.044258505
000110 d7 47 d0 3d af d1 8c be 4c 7b 30 be 66 50 9f bd
       0.10169952 -0.27503726 -0.17234534 -0.07779007
000120 2d 11 ea 3c fb f2 08 3e e5 2f ce 3d 0a 90 c5 3c
       0.028572643 0.1337394 0.10067729 0.024116535
000130 e6 ec a0 bd 93 e3 c0 3c 01 b9 72 3e ad af 01 bd
       -0.07857685 0.023546016 0.23703386 -0.031661678
000140 44 6e d0 3d 95 3f 15 3e 89 82 b2 bb bb ba 90 bd
       0.101772815 0.14575036 -0.00544769 -0.07066866
000150 d8 e1 b8 3d 2d ea 03 3e 7f 24 7a bc 0d 61 39 bd
       0.09027451 0.128823 -0.01526749 -0.04525857
000160 36 e6 31 3d 5f cc 07 ba fb a9 88 3b e6 f8 4d bd
       0.043432437 -0.0005180295 0.004170654 -0.050286196
000170 01 78 26 bd 29 93 bd bd 00 f7 82 bd 05 77 14 3e
       -0.04064179 -0.09256584 -0.06394768 0.14498527
000180 e3 32 ad bd 0a f6 97 bd dc cb 1d be eb 09 95 3d
       -0.084569715 -0.07419975 -0.15409797 0.07277282
000190 1c da 7c bd b9 2a 75 3d 01 db dc 3d 65 75 00 be
       -0.061731443 0.059855197 0.10783959 -0.12544782
0001a0 6f 00 90 3d 46 95 bd 3c 17 0f c6 3d 06 1b 5d 3d
       0.07031333 0.023142468 0.09670847 0.05398085
0001b0 db 1f e2 3c 75 41 e0 3d 3a 5d 2a bd 6f 8a 03 bd
       0.02760308 0.10949985 -0.041592814 -0.032114442
0001c0 bf 28 44 3d 88 f2 ae bd 56 ca ee 3c 8d 91 13 3d
       0.04789042 -0.08542353 0.029149216 0.03602748
0001d0 9c c9 ab bd c9 72 41 bc e4 1a 86 bd b6 ef b5 bd
       -0.08388063 -0.011807152 -0.06548098 -0.08883612
0001e0 7d 18 1e be ce ac b2 3d ec fc 8e 3d c6 2f 05 3e
       -0.15439029 0.08724366 0.06981835 0.13006505
0001f0 5c ef 2b 3e d7 02 1c 3d 38 68 47 be 37 23 13 3d
       0.16790527 0.038088646 -0.1947335 0.035922255
000200 bb e3 92 bd b5 ea d6 3d 36 f4 84 3d aa 7e fc 3d
       -0.071723424 0.104939856 0.06491892 0.12328847
000210 eb 23 d3 3d 2d 17 59 3d b4 27 17 3e c7 78 82 3d
       0.10309585 0.053000618 0.1476124 0.06370693
000220 5e ab 40 be 3b 7e aa bd d9 e6 b2 bb 16 18 fa bd
       -0.18815371 -0.08324858 -0.005459648 -0.12211625
000230 87 ae 24 3e 7c 66 5b bd 72 c1 2e 3c 5a f8 ac 3d
       0.16082202 -0.053564534 0.010666238 0.08445807
000240 14 55 56 bd db 59 44 bd d8 16 da 3c 7b 8c 72 3d
       -0.05232723 -0.047937255 0.02662222 0.059216004
000250 ab 41 37 3e 81 d5 92 3d 42 50 bb 3d 44 82 2b be
       0.17896144 0.07169629 0.09146167 -0.16748911
000260 3b 50 19 3e d9 69 cf 3d 17 f6 3d bd 80 10 8f 3e
       0.14972012 0.10127611 -0.046377268 0.27942276
000270 f9 53 4c 3e e5 ab a7 3c 00 61 46 bd 69 57 b7 3d
       0.19953908 0.020467708 -0.04843235 0.08952219
000280 2a ec ac 3c b2 f0 42 bc aa 1b 26 be 3e af c5 bb
       0.021108706 -0.011898207 -0.1622149 -0.0060328534
000290 72 6a b0 bd 40 2e 02 3e e3 31 14 bc 67 02 34 be
       -0.08614053 0.12712955 -0.009045097 -0.17579041
0002a0 fb 9a f7 bd 0f c4 da bc 2d 39 c1 3d 5a a0 86 3d
       -0.12090107 -0.026704816 0.094347335 0.065735534
0002b0 a7 88 06 be 55 e3 18 bc fc 32 5b be 07 28 ac 3b
       -0.13138066 -0.009331544 -0.21406168 0.005253795
0002c0 32 b0 c1 3d 4a 33 99 bd 8e 23 53 3d b8 51 94 bd
       0.09457435 -0.07480486 0.05154758 -0.07242149
0002d0 5c 9e 1a 3e 5b f7 29 3d 9a f2 db 3c 36 36 35 bd
       0.15099472 0.041495662 0.02684908 -0.044241153
0002e0 c4 09 24 3e 8a 55 18 3d 78 6d 6f 3d de d2 1a 3d
       0.1601935 0.03719095 0.058454007 0.037798755
0002f0 02 f1 92 bd d8 3d 99 3d 33 8e 64 3d 45 f6 bc bc
       -0.07174875 0.07482499 0.055799674 -0.02306665
000300 4a 25 97 3d ce 33 d4 bd ef 4c 4b be a9 6b 0d be
       0.07380159 -0.103614435 -0.19853567 -0.138106
000310 c6 19 d4 3d 8a 28 21 3d 6c 7b 7a 3c 6f 18 26 3d
       0.103564784 0.0393453 0.015288215 0.040550645
000320 1e d1 63 3d 4a b2 13 bc 6b f1 ac 3c 44 03 04 3d
       0.05561935 -0.009014675 0.02111121 0.032229677
000330 83 e3 4f 3d 17 68 9f bc 59 5c c2 bc 57 24 a1 3d
       0.05075408 -0.019458814 -0.023725675 0.078682594
000340 f4 96 64 bd 60 38 70 bd 77 49 0e be 5d 36 60 bd
       -0.055808023 -0.058647513 -0.13895212 -0.054739345
000350 93 09 ca 3c 04 6e 74 3d c9 06 d6 bc b4 c4 86 3b
       0.024662768 0.05967523 -0.026126282 0.0041128043
000360 a3 09 5f 3d f2 ab db 3c 22 b7 9d 3c 3d df 81 3d
       0.05445255 0.026815388 0.019252364 0.063414074
000370 2d 02 ab 3d 6e 3e 79 3d 35 ac 33 b9 53 1e ac 3c
       0.08350024 0.060850553 -0.00017134922 0.021010553
000380 49 99 4c 3c 6c 67 d5 3c 11 ba a1 bd 5c 34 6b 3c
       0.012487718 0.026050292 -0.078968175 0.014355745
000390 ee cd 21 3e b7 a8 99 3c 46 64 f2 3c 58 ff 77 3d
       0.15801212 0.018757207 0.02958883 0.06054625
0003a0 15 f8 89 3b 1a 39 48 bd d4 80 4e 3e 48 10 c1 3d
       0.004210482 -0.04888258 0.20166332 0.094269335
0003b0 8e 6d e6 3d 00 a9 1a 3e 33 dd ac 3d 0b 1e 02 bd
       0.11251365 0.15103531 0.08440628 -0.031766932
0003c0 9a d1 c2 bd 79 9c 8b be 91 a0 3d 3e 4b 87 b5 bd
       -0.095126346 -0.27267817 0.18518282 -0.08863696
0003d0 9b 50 bb 3c 04 7b c1 3d 3b 52 28 3b 2d 16 c4 3d
       0.022865584 0.094472915 0.0025683779 0.09574542
0003e0 d2 59 9e bc 36 59 36 3e be 38 f5 3c d4 49 19 bd
       -0.019329939 0.17807469 0.029934283 -0.037423924
0003f0 81 2c 68 3d f3 9f a0 3d 21 71 90 3d 15 60 79 3b
       0.056683067 0.07843008 0.070528276 0.0038051654

network_body.observation_encoder.processors.0.normalizer.running_mean f4 [6]
000000 8f 5c 00 3e 42 66 ed bd f8 94 39 be 26 99 27 3e
       0.12535308 -0.1159177 -0.18123233 0.16367015
000010 1e f5 b1 be 29 09 c3 3d
       -0.34757322 0.095232315
