RollerBall/Assets/LstmEx.onnx (onnx, 636400 bytes, 9 tensors)

network_body._body_endoder.seq_layers.0.weight f4 [128, 70]
-0.0013289177 -0.0030861266 -0.2657677 -0.26044506 0.034568246 -0.1541828 0.07814776 0.1586282
-0.20835425 0.018765027 -0.5526367 0.14900006 -0.080667384 0.13396247 -0.16940856 0.18516716
-0.056800503 0.15534078 0.20747618 -0.07428924 -0.31399933 -0.021886311 -0.31909388 0.1248933
-0.16071919 0.1650808 0.019609755 0.01350893 -0.004190558 0.08297295 -0.13640878 0.25615504
0.04701876 -0.08540959 -0.05148653 -0.19586156 0.017750354 -0.14616978 0.014743874 0.052929595
0.13814843 0.032427978 -0.1144176 -0.10506817 0.06312864 -0.03999347 -0.07823475 -0.09984915
-0.15863113 0.34009537 -0.13454755 0.032310028 0.029982071 0.11432596 0.23030819 -0.21709412
-0.014639739 -0.013487657 0.014787443 -0.18534717 0.0963565 -0.02272779 0.07539572 0.12236578
-0.20879911 0.06387341 0.2622406 0.028593307 0.15538222 -0.08858481 -0.04134154 -0.0077030803
0.09392908 -0.019482912 0.13657196 -0.14572783 -0.07214393 0.0095896125 -0.029367518 0.118196905
-0.37571815 0.14064886 -0.07166605 -0.21558835 -0.04412561 0.20021442 -0.073251694 0.15412125
0.21945566 0.0036470098 -0.030764975 0.17362897 -0.14790075 0.018034268 -0.2670956 0.19810657
-0.06402793 0.13729668 0.15021351 0.20202145 -0.15059339 -0.047332406 -0.13689096 -0.09957685
0.060220364 -0.32008478 0.20710132 0.11567014 -0.023608262 0.12057035 -0.11698886 -0.030457465
-0.13190441 -0.018593377 0.057362422 -0.09376265 0.16366771 -0.21189538 0.04970318 -0.08190912
0.106671594 -0.17256719 0.12776054 0.08699544 -0.005288266 -0.17769675 -0.07616039 0.17670922
-0.17263101 -0.21355791 0.1958946 -0.12400214 -0.061746992 0.06853169 -0.10576338 -0.030335952
0.05375536 0.13013044 0.2583072 -0.05058646 0.21353759 -0.40072697 -0.013861283 -0.07222786
-0.06374821 -0.16551474 -0.0003139322 0.15739962 0.18280254 -0.18277961 0.14780357 0.32758877
-0.19730726 0.013868974 0.07222962 -0.020351525 0.21429166 -0.06869158 -0.033613946 -0.13593785
0.055081647 0.058047526 0.1691572 0.014942301 0.2089046 -0.027878236 -0.007520331 0.08689984
-0.063013636 -0.21433961 0.19525869 -0.030740825 0.09556558 -0.103750005 0.047501735 0.36014128
-0.1750256 0.1126052 -0.21726832 0.0028224026 0.09414976 0.13513553 0.19271033 -0.08541391
-0.16562802 -0.07179157 -0.1273386 0.038897134 -0.03648404 -0.07738682 0.02247986 0.144513
-0.024970345 -0.06662682 -0.20248903 0.31236994 0.0452239 0.2128618 0.07374878 0.2863826
-0.12114328 -0.18895975 0.08531082 -0.036856893 0.04280142 0.0201967 -0.100776695 0.15977569
-0.047512878 0.1478332 -0.0005459056 0.16955043 0.22233053 0.3030047 -0.13069558 -0.066363305
0.19076361 -0.10590477 0.14388941 -0.08730055 0.24360414 -0.12931803 0.018913671 -0.1272174
0.026061656 -0.086846165 -0.16988885 -0.063719995 0.057701014 0.08638294 -0.041939273 -0.008281892
0.07038575 -0.23692982 -0.17960294 -0.12836817 -0.062201392 -0.060081437 -0.17461368 -0.07800617
0.027750662 -0.03492176 -0.0026338063 -0.08393854 0.030964952 0.03503331 0.16373722 0.19419235
0.10558877 -0.050447945 -0.0057418505 0.07592746 0.028125193 0.22253206 -0.035052598 0.09976445
00000000: 142f aeba 9d40 4abb b412 88be 0e59 85be
00000010: 6f97 0d3d 19e2 1dbe ef0b a03d 6e6f 223e
00000020: d15a 55be 1db9 993c 9979 0dbf 7993 183e
00000030: f134 a5bd 752d 093e 7079 2dbe 769c 3d3e
00000040: a5a7 68bd a711 1f3e a374 543e f524 98bd
00000050: 85c4 a0be ec4a b3bc 4660 a3be 0fc8 ff3d
00000060: 9293 24be f10a 293e a3a4 a03c 8f54 5d3c
00000070: f350 89bb b9ed a93d beae 0bbe c126 833e
00000080: be96 403d 39eb aebd 8ae3 52bd ef8f 48be
00000090: 3169 913c 88ad 15be 4a90 713c b4cc 583d
000000a0: c876 0d3e 33d3 043d c653 eabd fb2d d7bd
000000b0: 9749 813d 31d0 23bd 8a39 a0bd b67d ccbd
000000c0: 3370 22be fb20 ae3e d5c6 09be 8557 043d
000000d0: f69c f53c bb23 ea3d e9d5 6b3e ec4d 5ebe
000000e0: 84db 6fbc 55fb 5cbc 0847 723c a6cb 3dbe
000000f0: 8f56 c53d a12f babc 1269 9a3d e99a fa3d
00000100: 6fcf 55be 10d0 823d 6644 863e 833c ea3c
00000110: 841c 1f3e f46b b5bd bf55 29bd 1f6a fcbb
00000120: e45d c03d a19a 9fbc 85d9 0b3e ad39 15be
00000130: 32c0 93bd c01d 1d3c 2694 f0bc 3811 f23d
00000140: 215e c0be 4106 103e a6c5 92bd 31c3 5cbe
00000150: 0ebd 34bd 0205 4d3e fc04 96bd f6d1 1d3e
00000160: fcb8 603e ac02 6f3b d406 fcbc cbcb 313e
00000170: 4b73 17be 9abc 933c c1c0 88be 73dc 4a3e
00000180: 1321 83bd 8097 0c3e 92d1 193e b6de 4e3e
00000190: 2735 1abe a0df 41bd 252d 0cbe f3ee cbbd
000001a0: a1a9 763d 27e2 a3be 5e12 543e 77e4 ec3d
000001b0: 1d66 c1bc 96ed f63d db97 efbd ef81 f9bc
000001c0: f311 07be 2351 98bc dcf4 6a3d a206 c0bd
000001d0: 8298 273e 1afb 58be 9095 4b3d f8bf a7bd
000001e0: a376 da3d 74b5 30be a9d3 023e aa2a b23d
000001f0: 3149 adbb 23f6 35be fbf9 9bbd 43f3 343e
00000200: 2fc6 30be edae 5abe 9898 483e d5f4 fdbd
00000210: 6aea 7cbd 585a 8c3d 799a d8bd 1a83 f8bc
00000220: 952e 5c3d ea40 053e d740 843e bf33 4fbd
00000230: 99a9 5a3e 162c cdbe 6f1a 63bc 33ec 93bd
00000240: 6c8e 82bd b27c 29be 4497 a4b9 5e2d 213e
00000250: 9730 3b3e 942a 3bbe d259 173e b7b9 a73e
00000260: ea0a 4abe b13a 633c 1fed 933d 3eb8 a6bc
00000270: 466f 5b3e 2cae 8cbd c7ae 09bd 4b33 0bbe
00000280: 4b9d 613d 3ec3 6d3d 8c37 2d3e 8ed0 743c
00000290: 16eb 553e e660 e4bc 1c6d f6bb 8bf8 b13d
000002a0: 4b0d 81bd d87b 5bbe e5f1 473e 2fd4 fbbc
000002b0: e3b7 c33d e27a d4bd 2e91 423d 7064 b83e
000002c0: e939 33be 8e9d e63d 967b 5ebe 0ff8 383b
000002d0: 97d1 c03d f860 0a3e db55 453e 7ded aebd
000002e0: 649a 29be 7507 93bd 0d65 02be 9a52 1f3d
000002f0: 4a70 15bd fb7c 9ebd af27 b83c 37fb 133e
00000300: 9c8e ccbc a473 88bd 4959 4fbe f4ee 9f3e
00000310: b23c 393d 72f8 593e 9a09 973d bda0 923e
00000320: f819 f8bd aa7e 41be 70b7 ae3d 41f7 16bd
00000330: 8b50 2f3d 8d73 a53c 0364 cebd 3d9c 233e
00000340: dd9c 42bd 9661 173e 1b1b 0fba a19e 2d3e
00000350: 9daa 633e 6f23 9b3e 10d5 05be 7ce9 87bd
00000360: 8957 433e 9ae4 d8bd bf57 133e a1ca b2bd
00000370: 5d73 793e f26b 04be d8f0 9a3c 4745 02be
00000380: 417f d53c 67dc b1bd 58f7 2dbe a17f 82bd
00000390: e657 6c3d 8ae9 b03d 84c8 2bbd c6b0 07bc
000003a0: 6726 903d bb9d 72be d5e9 37be f272 03be
000003b0: e3c6 7ebd f417 76bd eecd 32be b3c1 9fbd
000003c0: 5b55 e33c 1f0a 0fbd f09b 2cbb f8e7 abbd
000003d0: 36aa fd3c 177f 0f3d bbaa 273e 5cda 463e
000003e0: ed3e d83d 81a2 4ebd 2226 bcbb db7f 9b3d
000003f0: ce66 e63c 72df 633e 5093 0fbd 4e51 cc3d

network_body._body_endoder.seq_layers.0.bias f4 [128]
0.033925712 0.022783412 0.03507071 -0.012449397 0.037579212 0.043707374 -0.00022313847 0.03612743
0.038999025 0.08912643 0.004864071 0.0069919927 -0.016721586 0.028954972 0.009707278 0.022806324
0.0057651517 0.0014546477 0.003077587 -0.015124747 -0.024894696 0.029390529 -0.0047521708 0.058405574
-0.00048817226 0.027622458 0.012957969 0.01162759 0.03592962 -0.016040947 0.01580882 0.006749128
-0.0018014634 -0.0031063203 0.037156664 0.020863982 0.014537866 0.014121261 0.022413122 0.039264977
0.028852431 0.010404835 -0.008714987 0.009207547 -0.004262875 0.027284613 0.034381032 -0.006074352
0.0055206465 0.038954485 0.030881846 0.019314282 0.018623848 -0.008393371 -0.0063129063 0.018603068
0.008885903 0.0539187 0.05225311 0.03295593 0.025871187 0.022232877 0.010360025 -0.011135776
0.03362717 -0.011599681 0.05357175 0.026276795 0.00894407 0.031409457 0.0060555297 -0.014549399
0.02528925 0.039021425 0.049840163 0.07283192 -0.009829542 0.009329854 -0.022049753 0.0025298544
0.011435281 0.008856162 0.0101252105 0.026917227 0.017561974 -0.030409902 0.056159616 0.034957208
-0.0060370597 -0.03393023 0.044565037 0.026658649 0.0408814 0.02504985 0.0028476075 0.013911455
0.04198267 0.02642703 0.029613957 -0.026327873 1.5714326e-05 0.012654138 0.02017452 -0.016238026
-0.032096397 0.020792263 0.025261765 0.01291726 0.009958597 0.035633814 0.01316977 0.014605289
0.016026527 0.038956326 0.009453108 0.058577076 0.015973479 0.0045909034 0.022932341 -0.00022148488
0.018731605 0.0038186435 0.01955214 0.039779156 -0.007936692 -0.026199277 0.017481258 -0.02979662
00000000: b0f5 0a3d 47a4 ba3c 4ea6 0f3d 8ef8 4bbc
00000010: a9ec 193d 8106 333d 47fa 69b9 5bfa 133d
00000020: 71bd 1f3d eb87 b63d c962 9f3b 161d e53b
00000030: b5fb 88bc fa32 ed3c 460b 1f3c 54d4 ba3c
00000040: 99e9 bc3b e1a9 be3a 58b1 493b c9cd 77bc
00000050: f6ef cbbc 68c4 f03c 19b8 9bbb af3a 6f3d
00000060: 5ff1 ffb9 7e48 e23c a94d 543c a681 3e3c
00000070: f02a 133d 4e68 83bc 8081 813c ca27 dd3b
00000080: 151f ecba 6893 4bbb 9631 183d f1ea aa3c
00000090: 3b30 6e3c dd5c 673c b99b b73c 50d4 203d
000000a0: ef5b ec3c 0b79 2a3c 4ec9 0ebc 40db 163c
000000b0: 96af 8bbb fb83 df3c 20d3 0c3d 5c0b c7bb
000000c0: 8ae6 b43b bd8e 1f3d edfb fc3c fc38 9e3c
000000d0: 0a91 983c 5984 09bc 7fdc cebb 7665 983c
000000e0: 2e96 113c dbd9 5c3d 5b07 563d ccfc 063d
000000f0: d0ef d33c b921 b63c 18bd 293c d472 36bc
00000100: a5bc 093d 970c 3ebc 0d6e 5b3d 6f42 d73c
00000110: 268a 123c 34a7 003d 776d c63b 9a60 6ebc
00000120: 672b cf3c eed4 1f3d 3325 4c3d e728 953d
00000130: 160c 21bc 3edc 183c afa1 b4bc eacb 253b
00000140: 0b5b 3b3c 7019 113c 36e4 253c 8481 dc3c
00000150: 21de 8f3c 301e f9bc a007 663d 4a2f 0f3d
00000160: 87d2 c5bb 6dfa 0abd d489 363d 3d63 da3c
00000170: 4173 273d 5835 cd3c ed9e 3a3b dfec 633c
00000180: 05f6 2b3d 807d d83c f898 f23c 8dad d7bc
00000190: 42d2 8337 4d53 4f3c 0945 a53c 9c05 85bc
000001a0: 8377 03bd 8954 aa3c c3f1 ce3c eaa2 533c
000001b0: 6229 233c c3f4 113d 05c6 573c 064b 6f3c
000001c0: 104a 833c ab90 1f3d 35e1 1a3c 84ee 6f3d
000001d0: d0da 823c 4a6f 963b 9bdc bb3c 653e 68b9
000001e0: 0673 993c 3542 7a3b cf2b a03c 78ef 223d
000001f0: e608 02bc de9f d6bc db34 8f3c 0b18 f4bc

network_body._body_endoder.seq_layers.2.weight f4 [128, 128]
0.23932569 0.13678096 -0.27007654 0.047990922 0.01581094 0.23146528 -0.02513428 -0.08947792
0.0160999 0.14502135 -0.017472858 -0.10060344 -0.044553302 -0.06742274 -0.11970897 0.054566894
0.18931054 0.078033604 0.024058044 -0.10458699 0.057994958 0.12514807 -0.10608531 0.11484043
-0.023744745 -0.0055139083 -0.015022573 0.20232105 -0.06791999 -0.09140863 0.003968997 -0.27950838
-0.1006807 -0.3371336 0.05292736 -0.009607721 -0.0548796 -0.06268346 0.08398083 0.026123222
-0.24496514 0.014408207 -0.103817515 -0.056879956 -0.15404993 0.038688894 0.055061214 -0.08515002
0.040461086 -0.0090278275 -0.09925887 -0.0075096632 0.059233196 -0.08324876 0.14625438 -0.08943366
0.08718008 -0.058245156 0.025067315 -0.019560566 0.05718004 0.015004998 0.1447202 0.15551162
-0.088018835 0.06018872 0.1455591 0.032687 0.036600344 -0.06430132 0.07989858 0.06107748
-0.09153171 -0.03170481 -0.05534238 0.07355455 -0.0733965 0.036900945 -0.06141743 -0.060780935
-0.11417797 -0.0840864 -0.023655046 0.15047476 0.07406089 -0.097648166 0.025890404 0.035716403
0.03330505 0.15966126 -0.042153627 0.04963733 0.058322746 0.009267675 -0.20098639 -0.026831727
0.15173955 -0.05717022 0.21842599 -0.045213137 -0.051063824 0.1368031 -0.16814166 -0.11404787
-0.011273947 0.29343072 0.067518 0.07448441 -0.08919552 -0.082811296 -0.03839579 -0.06066213
-0.037562262 0.0098957755 -0.12729992 -0.07398298 0.10421606 -0.008187902 -0.115943916 0.166881
-0.07830511 -0.112618536 -0.075209945 -0.01675315 0.07679595 0.0070195664 -0.025211023 -0.08784901
-0.11497587 0.003700636 0.15862736 -0.03165748 -0.11197301 -0.060758173 -0.04823048 -0.028686002
0.16911407 -0.078850135 0.1495628 -0.10346733 -0.19138 0.17291541 -0.09595598 -0.01859712
-0.10461684 0.114324994 0.00065105216 0.07253203 0.19335252 -0.053605575 -0.037518915 -0.06058338
-0.020988386 -0.024668625 0.06823521 -0.1553813 0.034488972 0.077557296 0.023391554 0.040169835
0.0065970607 0.10138936 0.19655932 0.17788173 0.15192825 -0.1139801 0.024822447 -0.0021510278
0.061858952 -0.032403786 0.0017599353 -0.055062443 -0.11134112 -0.015185037 0.02356535 0.019907312
-0.08765136 -0.057679936 0.017948283 0.04652842 -0.07625981 -0.057766218 0.057002638 0.069071986
-0.090686314 -0.029325094 0.21916823 -0.044065982 -0.065215655 -0.013037837 0.14550284 0.11704912
-0.035742145 -0.0028018705 -0.13332218 0.16637148 -0.10168574 0.104822055 0.10016503 -0.05168123
-0.13215479 -0.14186059 0.13473429 -0.022863412 -0.022508953 0.1259976 0.17816672 0.2059959
-0.059274897 0.12409068 0.26513267 0.023998125 0.11523014 0.14364809 -0.0056062606 0.008138983
-0.035895605 -0.062301528 -0.07039653 0.10841788 0.13366123 -0.111912474 -0.15849009 -0.17031679
-0.09098472 -0.34740773 0.081847735 -0.0776788 0.0269615 0.020972444 -0.020887224 -0.06092781
0.09476789 -0.08421354 -0.067439824 0.0203539 0.090387516 -0.03155354 -0.0069128987 0.18792048
-0.12885058 0.033355 0.025790107 -0.2548965 0.018040113 -0.11135083 0.010710965 0.09009169
0.063993454 0.14883095 0.14766444 0.06538201 -0.041413516 -0.09972456 -0.18265568 -0.015198049
00000000: cb11 753e 4f10 0c3e 7947 8abe 2192 443d
00000010: f285 813c 3c05 6d3e 68e6 cdbc 3340 b7bd
00000020: f0e3 833c 7a80 143e 3d23 8fbc 2d09 cebd
00000030: 867d 36bd ef14 8abd fa29 f5bd 8981 5f3d
00000040: 9fda 413e 15d0 9f3d 6015 c53c b431 d6bd
00000050: 1f8c 6d3d d126 003e 4143 d9bd 7631 eb3d
00000060: 5784 c2bc 04ae b4bb 3d21 76bc 402d 4f3e
00000070: a319 8bbd 7334 bbbd 5c0e 823b b91b 8fbe
00000080: af31 cebd c69c acbe 5cca 583d b469 1dbc
00000090: 6ec9 60bd 3060 80bd 24fe ab3d 5e00 d63c
000000a0: 24d8 7abe 6610 6c3c 479e d4bd f5fa 68bd
000000b0: 44bf 1dbe 3f78 1e3d de87 613d 2263 aebd
000000c0: 86ba 253d 74e9 13bc 3c48 cbbd 9f13 f6bb
000000d0: 829e 723d 537e aabd b5c3 153e ff28 b7bd
000000e0: 788b b23d 7992 6ebd f859 cd3c 7b3d a0bc
000000f0: 9e35 6a3d 86d7 753c 8831 143e 703e 1f3e
00000100: 3843 b4bd 7288 763d 720d 153e cee2 053d
00000110: 3eea 153d 69b0 83bd dea1 a33d 612c 7a3d
00000120: fa74 bbbd e7dc 01bd b1ae 62bd c5a3 963d
00000130: e750 96bd 7225 173d d890 7bbd 6ef5 78bd
00000140: 24d6 e9bd 7e35 acbd 3ac8 c1bc 0e16 1a3e
00000150: 3cad 973d c3fb c7bd 1d18 d43c 5d4b 123d
00000160: e06a 083d 3e7e 233e 48a9 2cbd 8350 4b3d
00000170: d5e3 6e3d 72d7 173c 60cf 4dbe 36ce dbbc
00000180: 9d61 1b3e 522b 6abd 10ab 5f3e 6931 39bd
00000190: 4d28 51bd 1d16 0c3e 542d 2cbe ee91 e9bd
000001a0: 5cb6 38bc 8d3c 963e e146 8a3d 488b 983d
000001b0: 24ac b6bd f898 a9bd e744 1dbd db78 78bd
000001c0: e3da 19bd e421 223c e95a 02be 6384 97bd
000001d0: 3b6f d53d 8d26 06bc 0174 edbd dae2 2a3e
000001e0: 6e5e a0bd 8ca4 e6bd ac07 9abd e73d 89bc
000001f0: 3247 9d3d 6404 e63b 5987 cebc 2fea b3bd
00000200: 7878 ebbd 5f86 723b 366f 223e 46ab 01bd
00000210: 1b52 e5bd 90dd 78bd 538d 45bd e8fe eabc
00000220: 3d2c 2d3e 2e7c a1bd fe26 193e aee6 d3bd
00000230: 1ef9 43be bd10 313e 9284 c4bd fd58 98bc
00000240: 5b41 d6bd 3923 ea3d 5fab 2a3a ac8b 943d
00000250: 34fe 453e 8591 5bbd 6fad 19bd 4726 78bd
00000260: d6ef abbc db15 cabc e7be 8b3d 471c 1fbe
00000270: 4f44 0d3d 5cd6 9e3d a59f bf3c 2089 243d
00000280: 282c d83b 3aa5 cf3d d946 493e a126 363e
00000290: 1493 1b3e 666e e9bd 7258 cb3c 42f8 0cbb
000002a0: d05f 7d3d d5b9 04bd a1ad e63a 2889 61bd
000002b0: d006 e4bd a9ca 78bc 1f0c c13c a914 a33c
000002c0: 8e82 b3bd cc41 6cbd 4708 933c 9694 3e3d
000002d0: 1a2e 9cbd 459c 6cbd 997b 693d 9d75 8d3d
000002e0: bfb9 b9bd 2e3b f0bc a36d 603e 887e 34bd
000002f0: c98f 85bd a79c 55bc b2fe 143e 73b7 ef3d
00000300: 5b66 12bd 969f 37bb 9c85 08be 495d 2a3e
00000310: 9d40 d0bd f2ac d63d 5323 cd3d b3af 53bd
00000320: 9653 07be e743 11be c9f7 093e 0d4c bbbc
00000330: b264 b8bc 8405 013e 5671 363e 97f0 523e
00000340: 3cca 72bd 4123 fe3d 78bf 873e b797 c43c
00000350: c8fd eb3d 7c18 133e b9b4 b7bb 5e59 053c
00000360: 4507 13bd e32f 7fbd 0e2c 90bd 320a de3d
00000370: 7dde 083e 5e32 e5bd 3a4b 22be 8667 2ebe
00000380: 3256 babd 6ddf b1be c99f a73d 1016 9fbd
00000390: 5dde dc3c 67ce ab3c af1b abbc 708f 79bd
000003a0: ab15 c23d 2678 acbd e41d 8abd 39bd a63c
000003b0: 171d b93d 493e 01bd 9985 e2bb 3a6e 403e
000003c0: 68f1 03be 419f 083d c645 d33c cb81 82be
000003d0: dcc8 933c e70b e4bd 0b7d 2f3c fe81 b83d
000003e0: 000f 833d 2467 183e 5935 173e 01e7 853d
000003f0: 38a1 29bd 643c ccbd 170a 3bbe 3d01 79bc

network_body._body_endoder.seq_layers.2.bias f4 [128]
-0.0017339602 0.019342318 -0.015035685 0.002875241 -0.018315682 0.011520457 0.04955844 0.046688687
0.052449446 0.012370958 0.027733801 0.050410505 0.006772752 0.0007337841 0.0015067083 0.0045602866
-0.00500404 0.062092956 0.016711488 0.028178152 0.026668277 0.07899217 0.027109772 0.030073602
0.006966895 0.03401038 0.0029977188 -0.07183429 0.032503873 0.0018602115 0.002918282 0.06378097
0.0020804591 0.052803293 -0.0008071181 0.024664491 -0.0019631782 -0.0039393045 0.040381912 0.029436659
0.054356758 0.042571638 0.026010193 0.028400248 0.038145125 -0.012197518 0.007523748 0.069248706
0.06552758 -0.029171452 0.032199703 0.029025812 0.014007939 0.01973407 -0.0030231876 0.07609845
0.022498112 0.019986976 0.030845493 0.020121733 -0.032702014 -0.006603756 -0.001571582 0.07384746
-0.030154802 -0.0027837458 0.028951732 0.028643059 -0.020409979 0.02608095 0.0069337855 0.0077269827
0.02156038 -0.021634493 0.034922082 -0.0034300473 0.033706054 0.024171151 0.028071865 0.011222496
-0.006738038 0.04741369 0.06055423 0.013175983 0.0022558023 -0.014936662 0.0432692 0.047328398
0.0003645548 0.0266494 0.023366982 0.029188734 0.021861207 -0.014112937 0.020741204 0.0046199034
0.01605515 0.0022278253 0.004918667 0.022209402 0.0073874677 0.039343596 0.02264982 0.028067145
0.04186108 -0.0054519265 -0.0066502485 0.04976716 0.03167799 0.02062532 0.027995104 0.0094803
0.02538489 0.032888465 0.046362113 0.0032691886 0.033728875 0.033607524 0.017744934 0.016547402
0.023383146 0.014676661 0.01895663 0.059365038 0.03276724 0.05140841 0.032878947 0.021250067
00000000: 0d46 e3ba c873 9e3c 3c58 76bc 8a6e 3c3b
00000010: c50a 96bc 4dc0 3c3c cafd 4a3d a33c 3f3d
00000020: 3bd5 563d 8faf 4a3c ff31 e33c 3f7b 4e3d
00000030: f6ed dd3b 6b5b 403a be7c c53a 756e 953b
00000040: eef8 a3bb 2f55 7e3d 88e6 883c ded5 e63c
00000050: 6e77 da3c a6c6 a13d 5015 de3c ea5c f63c
00000060: 8d4a e43b 784e 0b3d 6075 443b db1d 93bd
00000070: c822 053d 57d2 f33a a640 3f3b 999f 823d
00000080: 5058 083b 4448 583d c794 53ba 300d ca3c
00000090: aaa8 00bb 4815 81bb 8167 253d 2625 f13c
000000a0: 31a5 5e3d 995f 2e3d 5413 d53c a3a7 e83c
000000b0: 103e 1c3d 19d8 47bc c689 f63b 44d2 8d3d
000000c0: 5333 863d f8f8 eebc d6e3 033d 8ac7 ed3c
000000d0: 8e81 653c 58a9 a13c ac20 46bb 81d9 9b3d
000000e0: f64d b83c babb a33c b0af fc3c 55d6 a43c
000000f0: 8cf2 05bd 5264 d8bb 8bfd cdba 563d 973d
00000100: 3407 f7bc 816f 36bb 2f2c ed3c d9a4 ea3c
00000110: d432 a7bc b7a7 d53c cf34 e33b a132 fd3b
00000120: 659f b03c d23a b1bc 750a 0f3d a5ca 60bb
00000130: 5c0f 0a3d 9402 c63c f8f6 e53c 8fde 373c
00000140: c2ca dcbb db34 423d b607 783d 14e0 573c
00000150: 15d6 133b e7b8 74bc 0b3b 313d 6cdb 413d
00000160: b821 bf39 d84f da3c 1d6c bf3c 361d ef3c
00000170: 4616 b33c f339 67bc 75e9 a93c 8f62 973b
00000180: 1786 833c b500 123b c52c a13b 7ef0 b53c
00000190: 9212 f23b c026 213d 1e8c b93c 12ed e53c
000001a0: 8676 2b3d 13a6 b2bb 54ea d9bb a6d8 4b3d
000001b0: c8c0 013d 6ef6 a83c fd55 e53c 4353 1b3c
000001c0: f9f3 cf3c 0eb6 063d 33e6 3d3d e23f 563b
000001d0: 4a27 0a3d 0ba8 093d d35d 913c 6b8e 873c
000001e0: 038e bf3c 6176 703c ef4a 9b3c c128 733d
000001f0: f136 063d a091 523d 13ac 063d 9f14 ae3c

action_model._discrete_distribution.branches.0.weight f4 [5, 128]
0.023834683 0.07265515 -0.047325656 -0.112528816 0.10828049 0.08017898 0.12325944 0.052070893
0.13883497 0.05241809 -0.052930426 0.100710385 -0.1750481 -0.10853843 -0.022346817 -0.0012899908
-0.03483128 0.003982377 0.1263436 0.039212562 0.052089535 0.037292793 0.066722274 -0.101666935
0.11947975 0.087878846 0.012789402 -0.13138558 0.11177581 -0.0010262984 -0.00015770814 -0.0880458
-0.07418474 -0.031107785 0.036394924 0.030100267 0.039206382 -0.07091666 0.008395056 0.08944903
0.08317268 0.049175687 -0.12718879 -0.1126449 -0.04092453 0.11760815 -0.05488835 -0.015701532
0.088106394 -0.14113207 -0.05308447 0.1750437 0.013924936 -0.025030624 0.035872474 -0.0607616
0.08474997 0.07291971 -0.07545377 -0.025656577 0.032075275 -0.06533067 -0.009305494 -0.049868632
0.12375153 -0.05751039 0.04826209 0.11077048 0.09222303 -0.06491011 -0.048205514 0.046899136
0.059975687 0.121563025 -0.053913187 -0.011419869 0.17384896 -0.021168593 -0.006692409 -0.1305293
0.15974393 0.014207163 0.08740237 -0.0026664028 -0.12653281 0.08881615 0.10776877 -0.05473647
0.012069313 0.017178036 0.0105139855 -0.14846715 -0.11499303 0.063159876 -0.06591617 -0.047820237
-0.11619494 0.095757924 -0.10108384 -0.044218168 0.13010108 -0.1461202 0.0029323697 0.04614877
-0.06585279 -0.07269594 0.058575194 0.0058813966 0.11239431 -0.09171753 -0.17336968 0.07430121
-0.06955966 -0.03147295 0.106174484 0.03194896 -0.04065159 -0.040328324 -0.046556365 0.123698965
-0.01951493 0.0019080152 -0.029577196 -0.15951984 0.025978403 -0.017304441 0.020674352 -0.06721824
-0.116280824 0.06308329 0.016666507 0.08140594 -0.030058045 -0.16916798 0.036329437 0.022932105
0.104103886 -0.08181048 0.025576476 -0.14930095 0.030686213 0.12792836 -0.0916143 0.11354227
0.15094435 -0.023419145 0.029192653 0.09433378 -0.10358015 -0.19970652 0.084390946 0.21228816
-0.14331739 -0.010061842 -0.107071795 0.21093135 -0.0021881722 0.0020629033 -0.19014604 0.14299661
0.13412452 0.20696017 0.0028676726 0.10392966 -0.036613498 0.09698119 0.12594643 -0.05226089
-0.01125555 0.066631675 0.03438105 -0.08965676 -0.055375613 -0.1754121 -0.036640465 0.188137
-0.19865474 0.13912243 0.04063331 -0.06932629 0.009750523 -0.009512899 0.07773536 0.10157038
-0.19435789 0.10915433 0.010635434 -0.0178057 -0.09321815 -0.12278211 -0.10586455 0.10281157
-0.19061738 0.16953667 0.0776897 -0.068640195 -0.08557012 0.17870146 0.03719 -0.09334185
-0.1915935 -0.23346674 -0.029210646 0.027231822 -0.12623967 0.02896755 -0.11492969 0.024453605
-0.13713561 -0.07147137 -0.115358256 0.18354158 0.08921119 0.046705306 -0.14539072 -0.05495985
0.2177636 0.10539051 0.046307832 0.1186009 0.11660216 -0.12963483 -0.09889533 -0.059611756
0.21828845 -0.10569435 0.123014994 -0.07532903 -0.19497555 0.07477117 -0.0800467 -0.11720119
0.087459944 0.034999266 -0.019991951 -0.0834093 -0.06995368 0.2139784 0.09256551 -0.13526382
0.06558771 -0.18455733 -0.04378045 -0.07916546 0.23688999 -0.03576627 0.13822438 0.018330906
0.068200685 0.003429472 -0.026538664 0.2530471 0.028727258 0.1054062 -0.17570575 0.14106014
00000000: f440 c33c 39cc 943d 8cd8 41bd 8275 e6bd
00000010: 29c2 dd3d e134 a43d 726f fc3d 4a48 553d
00000020: c12a 0e3e 5ab4 563d 93cd 58bd 3f41 ce3d
00000030: cf3f 33be 6549 debd ac10 b7bc e914 a9ba
00000040: 3fab 0ebd 997e 823b 3760 013e 5a9d 203d
00000050: d65b 553d 54c0 183d b0a5 883d c136 d0bd
00000060: cdb1 f43d d3f9 b33d a48a 513c f189 06be
00000070: b7ea e43d dc84 86ba 755e 25b9 5b51 b4bd
00000080: 2bee 97bd c1d5 febc d812 153d d694 f63c
00000090: df96 203d c13c 91bd 6b8b 093c 0e31 b73d
000000a0: 7056 aa3d 726c 493d c73d 02be 5fb2 e6bd
000000b0: 7ba0 27bd 8bdc f03d 9bd2 60bd 80a0 80bc
000000c0: 2071 b43d ed84 10be 1a6f 59bd a83e 333e
000000d0: 6a25 643c 060d cdbc 04ef 123d 28e1 78bd
000000e0: 6491 ad3d ee56 953d 8287 9abd be2d d2bc
000000f0: 5d61 033d 16cc 85bd 1276 18bc 0d43 4cbd
00000100: 7171 fd3d 0490 6bbd 78ae 453d a2db e23d
00000110: 6edf bc3d 97ef 84bd 2573 45bd 4f19 403d
00000120: 11a9 753d 09f6 f83d 13d4 5cbd 671a 3bbc
00000130: 7605 323e c269 adbc ff4b dbbb 79a9 05be
00000140: ea93 233e 29c5 683c 0400 b33d d1be 2ebb
00000150: d191 01be 3ee5 b53d dfb5 dc3d 5933 60bd
00000160: 5ebe 453c f4b8 8c3c da42 2c3c c607 18be
00000170: 7781 ebbd f759 813d 0fff 86bd 27df 43bd
00000180: 9df7 edbd bb1c c43d 0b05 cfbd 1c1e 35bd
00000190: 3839 053e 89a0 15be 002d 403b 7e06 3d3d
000001a0: d4dd 86bd 9ce1 94bd 8bec 6f3d bbb8 c03b
000001b0: fd2e e63d 66d6 bbbd d287 31be 3c2b 983d
000001c0: 4c75 8ebd c8e9 00bd 0272 d93d eadc 023d
000001d0: 4882 26bd 502f 25bd e3b1 3ebd e255 fd3d
000001e0: c6dd 9fbc 5e16 fa3a e04b f2bc 2b59 23be
000001f0: a9d0 d43c 0bc2 8dbc 425d a93c b7a9 89bd
00000200: a424 eebd d031 813d 3388 883c 28b8 a63d
00000210: 4a3c f6bc 5f3a 2dbe 2dce 143d 1cdc bb3c
00000220: 6b34 d53d 418c a7bd c285 d13c 59e2 18be
00000230: a761 fb3c a7ff 023e 47a0 bbbd da88 e83d
00000240: 2891 1a3e 82d9 bfbc 6e25 ef3c 1232 c13d
00000250: d421 d4bd de7f 4cbe 29d5 ac3d 1162 593e
00000260: cbc1 12be 6dda 24bc 7548 dbbd 63fe 573e
00000270: 7067 0fbb c631 073b a5b5 42be b46d 123e
00000280: f057 093e 5eed 533e 90ef 3b3b 13d9 d43d
00000290: 09f8 15bd 139e c63d 1af8 003e 840f 56bd
000002a0: 3369 38bc 3076 883d 25d3 0c3d f79d b7bd
000002b0: 8ad1 62bd 3b9f 33be 5014 16bd fca6 403e
000002c0: 266c 4bbe 1c76 0e3e 1d6f 263d f1fa 8dbd
000002d0: a8c0 1f3c fedb 1bbc b733 9f3d 2204 d03d
000002e0: c105 47be 4e8c df3d 3e40 2e3c 42dd 91bc
000002f0: 28e9 bebd 3075 fbbd 83cf d8bd df8e d23d
00000300: 3431 43be 059b 2d3e c71b 9f3d 3b93 8cbd
00000310: 633f afbd 84fd 363e 8b54 183d 032a bfbd
00000320: 1631 44be e811 6fbe 2a4b efbc 4515 df3c
00000330: f944 01be 5b4d ed3c 4260 ebbd ed52 c83c
00000340: 476d 0cbe 955f 92bd f340 ecbd 53f2 3b3e
00000350: 5bb4 b63d 104e 3f3d 4ee1 14be 941d 61bd
00000360: 6cfd 5e3e fbd6 d73d 48ad 3d3d 07e5 f23d
00000370: 1dcd ee3d febe 04be a389 cabd 752b 74bd
00000380: 0287 5f3e 4876 d8bd 49ef fb3d 1b46 9abd
00000390: aca7 47be a121 993d 86ef a3bd 2d07 f0bd
000003a0: 331e b33d 645b 0f3d 29c6 a3bc 7fd2 aabd
000003b0: e043 8fbd 271d 5b3e fc92 bd3d 9982 0abe
000003c0: d952 863d 99fc 3cbe 2153 33bd 8021 a2bd
000003d0: 4a93 723e a77f 12bd b18a 0d3e b22a 963c
000003e0: cdac 8b3d fec0 603b 9d67 d9bc 648f 813e
000003f0: 6d55 eb3c 35df d73d 35ec 33be 1272 103e

action_model._discrete_distribution.branches.0.bias f4 [5]
-0.13799888 0.093970485 -0.1013538 -0.0009899904 0.014481056
00000000: 944f 0dbe 9973 c03d 9592 cfbd 91c2 81ba
00000010: f341 6d3c

95 f4 [1, 512, 128]
0.03360382 -0.02539055 0.1014369 0.050046757 -0.24350847 0.25980547 0.056988467 -0.0287963
-0.037832417 0.03614281 0.032370973 -0.14182936 0.08647459 -0.054812677 -0.04009914 -0.013833269
-0.08473343 -0.094166234 0.11543792 -0.012560666 0.24221225 0.11539843 0.08604866 -0.07713402
0.06987426 -0.007125522 0.17429423 0.05059511 0.25332296 -0.11411954 -0.16836917 0.041689552
0.16173303 -0.006741086 -0.052177362 -0.014516007 -0.048853338 -0.093126535 0.20639028 0.177143
-0.16406572 0.016306015 -0.109301075 0.23722778 0.16793182 0.21459144 0.038214415 -0.050474808
0.19833529 -0.14516291 -0.087763056 -0.21180159 0.042047054 -0.099396825 0.15160726 0.10085154
0.110284366 0.023014387 -0.073541865 -0.08980477 -0.0606242 -0.048253797 -0.05401017 0.007923865
-0.16854553 0.2129286 -0.0033199314 0.07876762 -0.028201364 0.20249172 0.17092836 0.01481127
-0.14323199 -0.14195164 -0.11119484 0.080390565 -0.117916204 0.10352318 0.24633528 0.0885545
0.08371606 -0.024031969 0.18461306 0.045460302 0.15526348 0.114307 0.14867635 -0.0076709124
0.24208745 0.044267792 0.02926948 -0.029210357 -0.067040384 -0.30080935 0.09624012 -0.039644442
0.25302744 -0.10151507 0.058412213 -0.13252649 0.034490332 0.05082466 -0.013958584 0.052801684
0.207078 0.13752638 -0.09818862 0.053964533 0.17221723 -0.11677549 -0.007341588 -0.076493494
0.10281501 -0.08099295 0.29619884 -0.019014975 -0.06848164 -0.0629826 -0.10513091 0.2408854
0.027018318 0.0720613 0.17329206 -0.08098787 0.05162721 0.29118 0.12736048 -0.1620177
-0.16586076 -0.23266211 0.01379812 0.008335976 -0.017398426 -0.09095738 0.16297433 0.056580167
-0.024343263 0.1384828 0.07770911 0.2580436 -0.035335902 0.1114247 0.02249849 0.013790061
-0.03520507 0.030464523 0.09392558 -0.057957277 0.22118795 0.21874551 0.21369599 -0.1513423
0.130406 0.1929637 0.060784277 -0.003970432 0.096725225 0.09657118 -0.20667623 0.20765999
0.079344116 0.112453975 -0.14495529 0.021227606 0.018110402 0.15944223 -0.11326591 0.017783167
0.020075792 0.098504625 0.1518599 -0.073703 0.17572178 0.055960536 0.04616501 0.11831425
0.09742463 -0.16416672 0.06028534 -0.16268922 -0.171792 0.13502121 0.04178225 -0.10351515
0.077776656 0.08419418 0.03434177 -0.09873334 0.12220057 -0.12125237 0.096966445 0.13316672
-0.01557162 0.15957756 -0.0728542 0.07590598 0.085066155 0.18758695 0.16705692 -0.05816264
0.014374054 -0.10479161 -0.22665921 -0.22289154 0.057808008 -0.046003487 0.061750263 -0.17245945
0.05766994 0.1731499 0.20409527 0.07991654 0.18501595 -0.01231882 0.13789725 -0.08058171
0.16421111 0.080903426 0.13766752 0.25774366 -0.05364696 -0.22681603 0.1618469 0.1464965
0.04615461 -0.13515514 -0.039523765 -0.18044518 0.08990725 -0.12381082 -0.096065395 0.019544542
0.18865009 -0.040372983 -0.17804776 0.020471815 -0.036320478 0.0106191235 0.20818536 -0.031023348
0.22560762 -0.04470636 0.20875573 0.010546842 -0.11391498 -0.21119644 0.089711525 0.060946785
-0.055859346 0.19570884 -0.07989522 0.19643204 -0.16163327 0.14225902 0.0784707 0.07386109
00000000: 29a4 093d d8ff cfbc 26be cf3d d4fd 4c3d
00000010: 495a 79be 3905 853e bd6c 693d 38e6 ebbc
00000020: 2af6 1abd 7c0a 143d 6d97 043d b73b 11be
00000030: 9719 b13d 4283 60bd ff3e 24bd efa4 62bc
00000040: b888 adbd 3ada c0bd b76a ec3d 40cb 4dbc
00000050: 7d06 783e 0356 ec3d 483a b03d 71f8 9dbd
00000060: 3c1a 8f3d 367d e9bb 307a 323e d13c 4f3d
00000070: 8cb3 813e 81b7 e9bd f868 2cbe aac2 2a3d
00000080: 589d 253e 54e4 dcbb eeb7 55bd 8cd4 6dbc
00000090: 701a 48bd 20b9 bebd f957 533e f964 353e
000000a0: d800 28be 3194 853c 3ed9 dfbd d7eb 723e
000000b0: 52f6 2b3e dcbd 5b3e b886 1c3d acbe 4ebd
000000c0: 6818 4b3e 96a5 14be 1ebd b3bd 84e2 58be
000000d0: 8839 2c3d 9090 cbbd ef3e 1b3e 418b ce3d
000000e0: c5dc e13d ab88 bc3c 1e9d 96bd 90eb b7bd
000000f0: 1551 78bd c6a5 45bd c539 5dbd 19d3 013c
00000100: 3397 2cbe f409 5a3e 3593 59bb eb50 a13d
00000110: 8c06 e7bc fd59 4f3e d807 2f3e f8aa 723c
00000120: 68ab 12be c55b 11be 1fba e3bd cfa3 a43d
00000130: 0d7e f1bd f603 d43d 513f 7c3e 105c b53d
00000140: 5373 ab3d b1de c4bc 350b 3d3e 9534 3a3d
00000150: 64fd 1e3e ca19 ea3d 9d3e 183e 475c fbbb
00000160: c6e5 773e 2552 353d 8cc6 ef3c 8f4a efbc
00000170: 784c 89bd af03 9abe 8a19 c53d 3662 22bd
00000180: d08c 813e 22e7 cfbd a541 6f3d 06b5 07be
00000190: bc45 0d3d 852d 503d 8bb2 64bc 9446 583d
000001a0: 410c 543e b7d3 0c3e 1d17 c9bd ea09 5d3d
000001b0: b759 303e fd27 efbd b491 f0bb 9fa8 9cbd
000001c0: ad90 d23d a2df a5bd 60a7 973e 4bc5 9bbc
000001d0: 1a40 8cbd 05fd 80bd e04e d7bd aaaa 763e
000001e0: 8555 dd3c e094 933d 7973 313e f8dc a5bd
000001f0: 0e77 533d 8c15 953e c96a 023e f8e7 25be
00000200: 67d7 29be fa3e 6ebe 8311 623c 9e93 083c
00000210: 2587 8ebc dd47 babd bee2 263e 9bc0 673d
00000220: 866b c7bc 6fce 0d3e f425 9f3d 4a1e 843e
00000230: 61bc 10bd a232 e43d c14e b83c b5ef 613c
00000240: 3133 10bd bc90 f93c 0e5c c03d 9c64 6dbd
00000250: 187f 623e d3fe 5f3e 1fd3 5a3e 7af9 1abe
00000260: 2789 053e 4798 453e eff8 783d 661a 82bb
00000270: e017 c63d 1cc7 c53d efa2 53be d2a4 543e
00000280: 2b7f a23d 454e e63d 296f 14be 84e5 ad3c
00000290: 445c 943c d344 233e f5f7 e7bd 01ae 913c
000002a0: fd75 a43c cbbc c93d 2981 1b3e 99f1 96bd
000002b0: 69f0 333e e036 653d 8617 3d3d be4e f23d
000002c0: 9086 c73d 521b 28be c3ed 763d 0198 26be
000002d0: 3eea 2fbe 0043 0a3e dd23 2b3d c0ff d3bd
000002e0: 5e49 9f3d 006e ac3d f5a9 0c3d b534 cabd
000002f0: 4b44 fa3d 2a53 f8bd 5896 c63d db5c 083e
00000300: 1c20 7fbc 4d68 233e 9534 95bd 9874 9b3d
00000310: 2a37 ae3d cb16 403e f810 2b3e f33b 6ebd
00000320: 2781 6b3c fc9c d6bd 5a19 68be ae3d 64be
00000330: 17c8 6c3d 276e 3cbd d8ed 7c3d 3699 30be
00000340: 5137 6c3d 354e 313e 5afe 503e 48ab a33d
00000350: d274 3d3e e0d4 49bc f034 0d3e 0608 a5bd
00000360: f526 283e b2b0 a53d b7f8 0c3e faf6 833e
00000370: eabc 5bbd 7642 68be 32bb 253e 2e03 163e
00000380: 9e0c 3d3d 1c66 0abe ace3 21bd 9fc6 38be
00000390: 4b21 b83d 8790 fdbd efbd c4bd e01b a03c
000003a0: 7d2d 413e 245e 25bd 2752 36be 82b4 a73c
000003b0: c8c4 14bd d5fb 2d3c 8b2e 553e ad24 febc
000003c0: af05 673e 041e 37bd 10c4 553e a9cc 2c3c
000003d0: 424c e9bd e143 58be adba b73d 56a3 793d
000003e0: c5cc 64bd e667 483e 1ba0 a3bd 7b25 493e
000003f0: 3183 25be 59ac 113e 3fb5 a03d 7c44 973d

96 f4 [1, 512, 128]
0.09441542 -0.15488905 -0.0666941 -0.042105533 -0.10882182 -0.05372845 -0.07922517 0.049686726
-0.08888658 -0.1315029 -0.08733777 9.962401e-05 -0.017998425 -0.0990647 0.11132158 0.06421164
0.12796581 -0.025038222 -0.048215028 -0.01881704 0.103844084 0.05715494 0.075628705 0.00031774837
-0.06698707 -0.0186419 -0.03781906 -0.108918056 -0.08615627 0.04198834 0.08376423 0.0032286944
0.02647682 -0.0003119876 -0.20601839 0.06799952 -0.11618441 0.106874466 -0.009718355 0.02902163
0.06058722 0.12828235 -0.02101448 0.021752823 -0.036424942 -0.10270366 -0.06404557 -0.0640737
-0.045504887 0.18539266 -0.04296018 -0.07497877 -0.097367816 -0.11025361 -0.16194989 0.08928073
-0.16628765 0.014637692 -0.13140349 -0.12237384 0.09344734 0.06842006 0.07715841 -0.10220083
-0.15767074 0.12089456 -0.15949525 0.035121925 0.03430478 -0.013128079 -0.042865258 -0.14444405
0.019184886 -0.022050913 -0.058706246 0.2009209 -0.032392733 -0.12142788 -0.049356014 -0.038430344
-0.13895665 0.15669315 0.038238555 0.17029846 -0.16693678 0.040574864 0.09374863 0.06692472
0.03740559 0.11638825 0.059552774 0.06785487 -0.11512058 0.0373243 -0.06276443 -0.14684848
0.019723937 -0.009476451 0.12584987 -0.044587567 0.020290006 0.09270264 0.014101335 0.042482432
-0.088532306 0.027567467 -0.019301703 -0.003923126 -0.009084161 0.005928393 0.032256793 0.07377073
0.004232182 0.10342428 0.024953038 0.01837429 0.11739902 -0.09984369 0.0096353665 -0.18130754
-0.014174244 -0.037164796 0.06311905 0.12968719 0.13823155 -0.09338211 0.034779474 -0.095297225
0.105705224 0.03138302 -0.13564499 0.16783519 0.1542042 -0.03046357 0.07627449 -0.17299265
-0.013443549 -0.06980892 0.08669969 -0.06582245 -0.09422214 -0.11149138 -0.028563213 -0.013688684
0.13465549 0.022897854 0.09672661 -0.020569079 -0.102917835 0.07952926 0.10536017 0.13471939
-0.047191326 -0.09135239 0.12168504 0.18399718 0.12398227 -0.02912098 -0.07223799 0.09512032
0.11175116 -0.035662886 0.021585459 0.14671127 0.08848605 0.110725015 -0.11787238 -0.03069384
0.041197997 0.04928914 0.035402972 0.10197473 0.16092539 -0.13989538 -0.027224077 -0.16356017
0.09695491 0.10514363 0.15442076 0.18130995 0.09363811 0.056879383 0.12705155 -0.08205041
-0.23000972 0.09060164 0.17788325 0.13731238 0.06344679 0.07103888 -0.077988945 0.059365887
-0.055119194 0.06842302 0.07506084 -0.044108097 0.008798465 -0.116855584 -0.107043184 -0.09486882
-0.027381321 0.09690931 -0.032869983 -0.10690143 -0.1276371 -0.14565285 0.08282874 0.04694411
0.1945802 -0.07317328 -0.097176805 0.0878907 0.069396116 0.19733803 -0.07526204 -0.09254859
0.10056327 0.13424996 0.0775599 -0.018610166 0.081848145 0.13881984 -0.14264028 -0.1609207
0.026766447 0.15238158 -0.18769006 -0.10381217 -0.07872702 -0.044686574 0.04791056 -0.21051322
0.05101556 0.10167894 0.099159144 0.13084638 -0.07794517 -0.05824242 0.16748351 0.07965955
0.17523614 -0.1007233 -0.13100047 -0.046587568 0.03780051 -0.13699616 -0.06440639 -0.06887103
-0.13960987 -0.022731025 0.16430289 0.00509064 0.037084624 0.08016627 0.062145244 -0.03599749
00000000: df5c c13d 3c9b 1ebe eb96 88bd da76 2cbd
00000010: f9dd debd 5d12 5cbd ce40 a2bd 4f84 4b3d
00000020: 2b0a b6bd b2a8 06be 25de b2bd 3ced d038
00000030: 6f71 93bc 6fe2 cabd 92fc e33d 6481 833d
00000040: 7809 033e f51c cdbc 1f7d 45bd 3126 9abc
00000050: 35ac d43d 4c1b 6a3d 39e3 9a3d 7797 a639
00000060: 8430 89bd e6b6 98bc 29e8 1abd 6e10 dfbd
00000070: b372 b0bd f7fb 2b3d 958c ab3d 8198 533b
00000080: ebe5 d83c 4492 a3b9 7cf6 52be 5543 8b3d
00000090: 18f2 edbd 00e1 da3d bc39 1fbc c5be ed3c
000000a0: 4e2a 783d 735c 033e 8f26 acbc fa32 b23c
000000b0: 5232 15bd 4c56 d2bd 532a 83bd 1239 83bd
000000c0: 5563 3abd 93d7 3d3e 04f7 2fbd 788e 99bd
000000d0: c768 c7bd a5cc e1bd 31d6 25be d1d8 b63d
000000e0: 4f47 2abe eed2 6f3c a38e 06be 239f fabd
000000f0: 5261 bf3d d11f 8c3d 3a05 9e3d ab4e d1bd
00000100: 7074 21be 9197 f73d b952 23be 02dc 0f3d
00000110: 2b83 0c3d 2717 57bc 7b93 2fbd 24e9 13be
00000120: 9f29 9d3c 1ea4 b4bc f675 70bd 35be 4d3e
00000130: 3eae 04bd 2eaf f8bd 8829 4abd 2369 1dbd
00000140: a74a 0ebe 2b74 203e 08a0 1c3d b862 2e3e
00000150: 7af1 2abe d431 263d 48ff bf3d d40f 893d
00000160: 9b36 193d f65c ee3d 9ced 733d 7ef7 8a3d
00000170: 57c4 ebbd 5de1 183d a38a 80bd 735f 16be
00000180: 1894 a13c 1e43 1bbc cade 003e 74a1 36bd
00000190: 3a37 a63c e2da bd3d 4909 673c 0f02 2e3d
000001a0: 6d50 b5bd 2bd5 e13c 9b1e 9ebc 918d 80bb
000001b0: bcd5 14bc f742 c23b b31f 043d 1c15 973d
000001c0: 1eae 8a3b 1cd0 d33d 506a cc3c ae85 963c
000001d0: e66e f03d d97a ccbd a8dd 1d3c afa8 39be
000001e0: 173b 68bc 1d3a 18bd 8f44 813d b8cc 043e
000001f0: 928c 0d3e 1f3f bfbd ec74 0e3d 312b c3bd
00000200: fb7b d83d 7b8b 003d 85e6 0abe fddc 2b3e
00000210: b5e7 1d3e bd8e f9bc cd35 9c3d fc24 31be
00000220: 5542 5cbc fbf7 8ebd 9b8f b13d eccd 86bd
00000230: 8af7 c0bd 9855 e4bd 66fd e9bc 8146 60bc
00000240: 21e3 093e 4894 bb3c 9a18 c63d 7c80 a8bc
00000250: 96c6 d2bd 3de0 a23d 13c7 d73d e1f3 093e
00000260: b14b 41bd f616 bbbd 0236 f93d c269 3c3e
00000270: 6bea fd3d 1f8f eebc 83f1 93bd 71ce c23d
00000280: cbdd e43d 3f13 12bd fdd3 b03c 7b3b 163e
00000290: 2d38 b53d ccc3 e23d 1367 f1bd a671 fbbc
000002a0: 3bbf 283d 69e3 493d b502 113d 21d8 d03d
000002b0: a0c9 243e bc40 0fbe 0705 dfbc 517c 27be
000002c0: 4c90 c63d 8b55 d73d 7a20 1e3e 51a9 393e
000002d0: 56c5 bf3d 5bfa 683d cd19 023e 0c0a a8bd
000002e0: ab87 6bbe 5a8d b93d 0727 363e 9e9b 0c3e
000002f0: 64f0 813d d57c 913d abb8 9fbd a529 733d
00000300: aac4 61bd 5e21 8c3d 7fb9 993d b1aa 34bd
00000310: 7027 103c fb51 efbd 7539 dbbd 954a c2bd
00000320: cb4e e0bc 6378 c63d ada2 06bd 23ef dabd
00000330: 4db3 02be 0526 15be 1da2 a93d 7848 403d
00000340: 0840 473e dfdb 95bd a204 c7bd 0a00 b43d
00000350: 8d1f 8e3d fb12 4a3e fc22 9abd 1d8a bdbd
00000360: 1ef4 cd3d d278 093e bad7 9e3d 5974 98bc
00000370: 00a0 a73d ca26 0e3e 4b10 12be 65c8 24be
00000380: 4f45 db3c eb09 1c3e d331 40be 7a9b d4bd
00000390: a23b a1bd 4509 37bd dd3d 443d c790 57be
000003a0: b1f5 503d 0c3d d03d f313 cb3d 98fc 053e
000003b0: b8a1 9fbd 9b8f 6ebd cc80 2b3e 8c24 a33d
000003c0: 1a71 333e 0448 cebd fd24 06be 9bd2 3ebd
000003d0: b5d4 1a3d b948 0cbe 7fe7 83bd 410c 8dbd
000003e0: e4f5 0ebe 6a36 babc 043f 283e 62cf a63b
000003f0: 0ce6 173d 372e a43d 038c 7e3d 1b72 13bd

97 f4 [1, 1024]
0.053425062 0.052165993 0.029321218 0.058172666 0.11323559 0.072533965 0.03434497 0.05795289
0.11720349 0.11842157 -0.018868841 0.057192214 0.099358924 0.08044782 0.040863432 0.09029545
0.054429166 0.108163066 0.054197825 0.03140371 0.03390571 0.09182356 0.16669951 0.0941326
-0.029287415 0.033141 0.0710263 0.018724505 0.0350085 0.018748395 0.024471512 0.016854815
0.16930082 0.06860513 -0.04991173 0.1374882 0.05961141 -0.022632366 0.07632653 0.06761941
0.01969766 -0.08971104 0.084921494 0.024949756 0.08285291 0.09588011 0.12822427 -0.05273406
0.022174777 -0.060001846 0.036801357 0.051903673 -0.010851558 0.089239426 -0.014952584 0.12066102
0.008385373 0.0318136 0.07126823 0.047315933 -0.019382285 0.018503396 0.026069775 0.074857205
-0.015025218 0.09119616 0.041526414 0.020552795 0.04186915 0.06101951 0.053271595 -0.0040777633
0.084554404 0.08675269 0.04856881 0.002084611 0.07477321 0.013635443 0.071497336 -0.027523328
0.030171556 0.042836603 0.1234187 0.05556912 -0.008142658 0.019829797 0.041293792 0.09920743
0.07280116 0.081854224 0.08308505 0.09709254 -0.037258033 0.06290044 0.09868309 0.010798997
0.027626852 0.062648125 0.068790495 0.060464963 -0.021962168 -0.02015002 0.021916606 0.03745005
-0.04416084 0.013521399 0.097035326 0.027921973 0.061912905 -0.0037367344 0.0971502 0.11829602
0.076479435 0.09514166 0.0342392 0.049587693 0.10343983 0.054362264 0.060269367 0.00513486
0.11893999 0.056461364 0.1295164 0.08859012 0.042637806 0.024349106 0.083602205 0.045784008
0.12390698 -0.02405097 0.011715461 0.073886916 0.009568511 0.018594349 0.010393184 -0.058069084
0.018007401 0.13283567 -0.01924976 0.038890798 0.031687826 0.057585 0.047906112 0.09468236
0.10785977 0.108400956 0.039484672 0.044624507 0.035416283 0.09421937 0.08028383 0.10022491
0.032622896 0.016112898 0.07697871 0.09269011 0.00374745 0.058120422 0.06730056 0.011391116
0.17149204 0.10356417 0.061705444 0.120809875 0.08099763 -0.002665778 0.017407414 0.10465943
0.09698401 0.020974157 -0.025550032 0.03293978 -0.020445468 0.025350936 0.08525025 -0.00014972566
0.006729294 0.024678878 0.06741392 0.06369253 -0.04492476 0.07126661 0.07127095 0.023010338
0.06262531 -0.020549381 0.05526547 0.007396227 0.008063655 0.024768012 0.03400025 0.0540907
0.05081367 0.069691986 0.008418764 0.08082258 0.040090173 0.10779185 0.013492256 0.1347638
0.09105079 0.09999472 0.07782101 0.034782924 0.018319322 -0.009517647 0.112656 0.03507908
0.03700352 0.056165397 0.09936338 0.054437693 -0.00010956142 0.010662526 0.05726393 0.05613671
0.06450259 0.07852833 0.04829584 0.046932276 0.014978552 0.01646743 0.049170207 0.103555426
0.02550212 0.031221613 0.04800349 0.043209977 0.03559191 0.03463299 0.029094653 0.045820944
0.046866428 0.027584182 0.036155082 0.08391036 0.06648133 0.026165491 0.059158944 0.036884263
0.14721717 0.057147443 0.03558726 0.034664582 0.048171427 0.07063262 0.03903286 0.025633868
-0.017518524 -0.01075679 0.046019923 0.020465923 0.031950887 0.048737403 0.065327786 0.078535
00000000: 3dd4 5a3d 02ac 553d 0d33 f03c 7646 6e3d
00000010: 10e8 e73d b08c 943d 50ad 0c3d 0260 6d3d
00000020: 6208 f03d 0287 f23d d492 9abc 6242 6a3d
00000030: b17c cb3d d4c1 a43d 6a60 273d d2ec b83d
00000040: 1ef1 5e3d 9984 dd3d 8afe 5d3d 2da1 003d
00000050: b7e0 0a3d fe0d bc3d 47b3 2a3e 98c8 c03d
00000060: 29ec efbc dbbe 073d 3d76 913d 2264 993c
00000070: 1365 0f3d 3c96 993c 7b78 c83c 1c13 8a3c
00000080: 325d 2d3e d980 8c3d 3e70 4cbd b5c9 0c3e
00000090: 182b 743d 8367 b9bc 1551 9c3d 0c7c 8a3d
000000a0: fd5c a13c 6cba b7bd 52eb ad3d 6e63 cc3c
000000b0: c9ae a93d cb5c c43d 394d 033e abff 57bd
000000c0: e1a7 b53c 7fc4 75bd 05bd 163d f298 543d
000000d0: bcca 31bc 29c3 b63d affb 74bc 201d f73d
000000e0: ce62 093c fa4e 023d 14f5 913d 5ace 413d
000000f0: 99c7 9ebc 6f94 973c 4890 d53c bc4e 993d
00000100: 552c 76bc 0dc5 ba3d 9a17 2a3d 565e a83c
00000110: fc7e 2b3d 98ef 793d 5133 5a3d c29e 85bb
00000120: dc2a ad3d 65ab b13d 17f0 463d f89d 083b
00000130: b222 993d 3167 5f3c 326d 923d 9a78 e1bc
00000140: 572a f73c 6f75 2f3d f2c2 fc3d 729c 633d
00000150: c868 05bc 1972 a23c ae23 293d 442d cb3d
00000160: c618 953d 30a3 a73d 7f28 aa3d 74d8 c63d
00000170: e19b 18bd f2d1 803d 5c1a ca3d 47ee 303c
00000180: b551 e23c a94d 803d 08e2 8c3d 1caa 773d
00000190: 01ea b3bc a811 a5bc 748a b33c 3965 193d
000001a0: ffe1 34bd dc88 5d3c 75ba c63d 9fbc e43c
000001b0: 6398 7d3d 00e4 74bb aff6 c63d 2f45 f23d
000001c0: 40a1 9c3d a1d9 c23d 673e 0c3d 771c 4b3d
000001d0: 43d8 d33d f7aa 5e3d 03dd 763d 5442 a83b
000001e0: cf96 f33d 0844 673d f29f 043e bd6e b53d
000001f0: fba4 2e3d c777 c73c a237 ab3d 0388 3b3d
00000200: f1c2 fd3d 8a06 c5bc 34f2 3f3c 0652 973d
00000210: 3ec5 1c3c 2d53 983c 2c48 2a3c d9d9 6dbd
00000220: 4284 933c 1306 083e acb1 9dbc f54b 1f3d
00000230: 18cb 013d 40de 6b3d 3339 443d d3e8 c13d
00000240: 95e5 dc3d 5201 de3d aeba 213d 30c8 363d
00000250: aa10 113d 16f6 c03d d96b a43d b842 cd3d
00000260: 969f 053d 32ff 833c 04a7 9d3d 50d4 bd3d
00000270: c797 753b ae0f 6e3d e0d4 893d cea1 3a3c
00000280: 9c9b 2f3e 7419 d43d d9be 7c3d 2b6b f73d
00000290: 16e2 a53d 55b4 2ebb fe99 8e3c af57 d63d
000002a0: 8d9f c63d ffd1 ab3c 4d4e d1bc ddeb 063d
000002b0: 417d a7bc c4ac cf3c af97 ae3d adff 1cb9
000002c0: 6981 dc3b 5c2b ca3c 4f10 8a3d 3b71 823d
000002d0: 0603 38bd 3af4 913d 81f6 913d 2d80 bc3c
000002e0: b341 803d 2d57 a8bc 0c5e 623d 0d5c f23b
000002f0: 6c1d 043c 49e6 ca3c d943 0b3d 368e 5d3d
00000300: ff21 503d acba 8e3d dbee 093c 4f86 a53d
00000310: 9835 243d f9c1 dc3d a00e 5d3c 86ff 093e
00000320: d678 ba3d 08ca cc3d 9f60 9f3d 8a78 0e3d
00000330: 6712 963c e8ef 1bbc 30b8 e63d 15af 0f3d
00000340: 0191 173d b00d 663d 077f cb3d 0ffa 5e3d
00000350: 57c4 e5b8 e0b1 2e3c 958d 6a3d 9bef 653d
00000360: ef19 843d 76d3 a03d dcd1 453d 0f3c 403d
00000370: 9a68 753c b4e6 863c b366 493d de14 d43d
00000380: d2e9 d03c 78c4 ff3c 4f9f 443d f2fc 303d
00000390: d3c8 113d 52db 0d3d e957 ee3c beae 3b3d
000003a0: 03f7 3f3d 39f8 e13c 5a17 143d 32d9 ab3d
000003b0: 5d27 883d 0359 d63c a650 723d f413 173d
000003c0: 19c0 163e 7013 6a3d f2c3 113d 73fc 0d3d
000003d0: 674f 453d d6a7 903d ece0 1f3d 1efe d13c
000003e0: 0283 8fbc 3f3d 30bc 637f 3c3d 27a8 a73c
000003f0: efde 023d dfa0 473d 93ca 853d f5d6 a03d
