RollerBall/Assets/RaycastObservationEx.onnx (onnx, 82463 bytes, 8 tensors)

network_body.observation_encoder.processors.0.normalizer.running_mean f4 [21]
0	0x3e369bdd	0.17832895
1	0x3f5255d4	0.82162213
2	0x3f5e214c	0.86769557
3	0x3e3d1bda	0.18467656
4	0x3f50b5d5	0.81527454
5	0x3f5c76f5	0.86119014
6	0x3de61334	0.112341315
7	0x3f633a5e	0.88760936
8	0x3f6a94be	0.9163321
9	0x3e1be715	0.1522487
10	0x3f5902ff	0.84770197
11	0x3f623cf6	0.8837427
12	0x3da54663	0.08070066
13	0x3f6b5400	0.9192505
14	0x3f713e0f	0.9423532
15	0x3de8b1f7	0.11362069
16	0x3f62e687	0.88633007
17	0x3f6a94a3	0.9163305
18	0x3d6c38ed	0.057671476
19	0x3f713934	0.9422791
20	0x3f75a29d	0.95951253

network_body._body_endoder.seq_layers.0.weight f4 [128, 21]
0	0x3e0582a1	0.13038112
1	0xbe155205	-0.14582069
2	0x3bfd689f	0.007733419
3	0x3e5f2cc9	0.21794428
4	0xbe616561	-0.22011329
5	0x3e3aec5e	0.1825423
6	0xbe156d2d	-0.14592429
7	0xbeb7b693	-0.3588148
8	0xbdb414a9	-0.08793003
9	0xbdaa60ab	-0.08319219
10	0x3e45e463	0.19325404
11	0xbdf728da	-0.12068339
12	0xbe2d4468	-0.16920626
13	0xbd59a0d5	-0.053131897
14	0x3d8b9273	0.06815042
15	0xbe123350	-0.14277387
16	0x3e18bc55	0.14915593
17	0x3e069761	0.13143684
18	0xbe6be1c3	-0.2303534
19	0xbdf6079f	-0.12013172
20	0x3dcf1e08	0.1011315
21	0xbdfa903b	-0.12234541
22	0xbe16d4f3	-0.14729671
23	0x3cd999fe	0.026562687
24	0x3e8ec0be	0.27881426
25	0x3dd6f252	0.10495438
26	0x3e570223	0.20996909
27	0x3e1bb665	0.15206297
28	0x3db3fc91	0.087884076
29	0x3e2b2e84	0.16716963
30	0xbe75f10b	-0.24017732
31	0xbedb8aa6	-0.42879218
32	0x3e881a90	0.26582766
33	0x3ebc5fcb	0.36791834
34	0x3d7417b5	0.05959292
35	0xbe3cfbd5	-0.18455441
36	0x3de07051	0.10958923
37	0xbd97c4cc	-0.07410583
38	0xbf008e79	-0.50217396
39	0x3e17ded3	0.14831094
40	0xbeb3c687	-0.35112402
41	0xbedd1c11	-0.43185475
42	0x3da69be3	0.08135202
43	0x3ef4f0d7	0.47839996
44	0x3d2d3e77	0.0422959
45	0xbe038ab5	-0.12845881
46	0x3e698ee9	0.22808422
47	0x3e1a1a72	0.1504915
48	0xbe96046f	-0.29300258
49	0xbec82c58	-0.39096332
50	0x3d962813	0.07331862
51	0xbc246451	-0.010033683
52	0xbdfda458	-0.12384862
53	0x3eca3dd8	0.39500308
54	0x3d48246b	0.048862856
55	0xbef1af29	-0.4720395
56	0xbe020fc2	-0.12701324
57	0x3ec384f7	0.38187382
58	0xbe284bf4	-0.16435224
59	0xbea3ac2b	-0.3196729
60	0x3e26c5ca	0.16286388
61	0xbe7014d9	-0.23445453
62	0xbec0d008	-0.37658715
63	0x3eb983ff	0.36233518
64	0xbe95c772	-0.29253727
65	0xbd2d511e	-0.042313688
66	0xbdc010ba	-0.0937819
67	0x3cd14a10	0.025548011
68	0x3d6956be	0.05696749
69	0x3e62ee71	0.2216127
70	0x3ebfad08	0.374367
71	0xbdba2ee1	-0.09090973
72	0x3e3adc54	0.18248111
73	0x3cea487c	0.028599016
74	0x3e8577c3	0.26067933
75	0x3e1ca77e	0.15298268
76	0x3e29680f	0.16543601
77	0x3ec57854	0.38568366
78	0xbe0f73cb	-0.14009015
79	0x3cebaa48	0.02876772
80	0x3ef8233f	0.4846439
81	0x3db0b263	0.086277746
82	0xbe37b2f6	-0.17939362
83	0x3f2796d7	0.6546454
84	0xbe6d7e79	-0.23192777
85	0x3ea4b9c7	0.32172987
86	0x3e0ebe51	0.13939787
87	0x3e30c8cc	0.17264098
88	0x3e93dd68	0.28879857
89	0x3d7558a2	0.05989898
90	0xbe1dbe01	-0.15404512
91	0x3d19dd23	0.037564408
92	0x3c93776f	0.018001286
93	0x3e612580	0.21986961
94	0x3d1d7f77	0.038451638
95	0x3e81c326	0.253442
96	0xbe1fa6ee	-0.15591022
97	0xbe08ef68	-0.13372576
98	0x3ed9b681	0.42522052
99	0xbe009c24	-0.12559563
100	0xbe457204	-0.19281775
101	0x3edfcadc	0.43709457
102	0xbe64c8de	-0.2234225
103	0x3df53516	0.11973016
104	0x3e558c56	0.20854315
105	0x3a0a155e	0.0005267466
106	0x3e2b07f0	0.16702247
107	0x3db8e9de	0.090289816
108	0x3d40bdda	0.047056057
109	0x3e4a5b7e	0.19761464
110	0x3e2846c3	0.16433243
111	0xbe1baa12	-0.15201595
112	0xbd25b4b0	-0.04045552
113	0xbb3dedeb	-0.0028980921
114	0x3e72ede6	0.23723564
115	0xbeb7fc27	-0.35934564
116	0x3e38a69d	0.18032308
117	0x3e880cd9	0.26572302
118	0xbf080d28	-0.53145075
119	0x3da3eb92	0.08003916
120	0x3e9bca50	0.3042779
121	0xbe3a5533	-0.18196563
122	0xbe3814e1	-0.17976715
123	0xbeaff2ec	-0.34365022
124	0x3c61696d	0.013758046
125	0xbe3e60e7	-0.18591653
126	0x3e276580	0.16347313
127	0xbecca097	-0.3996627
128	0xbda9894d	-0.08278141
129	0x3eceeac0	0.40413475
130	0x3d83ef2c	0.06442103
131	0xbdc2c3cf	-0.09510004
132	0x3d97b39b	0.07407304
133	0xbe090ae1	-0.13383056
134	0x3df8ddd1	0.12151683
135	0xbce5afcc	-0.028037928
136	0x3e93988e	0.28827327
137	0xbdcf5acb	-0.10124739
138	0x3e4795ec	0.19490784
139	0x3db30168	0.087405026
140	0x3e35e6a2	0.1776376
141	0xbdce85f0	-0.1008414
142	0x3f246446	0.64215505
143	0xbe93750b	-0.28800234
144	0x3e1cac00	0.15299988
145	0xbc61a851	-0.01377304
146	0x3d95ef71	0.073210604
147	0xbe600918	-0.21878469
148	0xbec2c43e	-0.38040346
149	0xbe7f3563	-0.24922709
150	0x3de6e24c	0.112736315
151	0xbe4a813d	-0.19775863
152	0xbed91f64	-0.42406762
153	0xbe901528	-0.2814114
154	0xbd143413	-0.036182474
155	0xbdeee430	-0.11664617
156	0x3d128574	0.035771802
157	0xbdc28bee	-0.09499346
158	0xbd23fc9a	-0.04003582
159	0x3e49ce44	0.1970759
160	0xbe45cdfb	-0.19316857
161	0xbf04f72e	-0.51939666
162	0xbdbe0e72	-0.09280099
163	0x3e8d7b5a	0.27633172
164	0xbea11345	-0.31460014
165	0xbd85b2f0	-0.0652827
166	0x3e5ff361	0.21870185
167	0x3e29318a	0.16522804
168	0xbe891b16	-0.26778477
169	0x3df5c106	0.11999707
170	0x3eba3a13	0.36372432
171	0x3dc46845	0.095902
172	0x3c3ff9f8	0.011717312
173	0x3e0b9b32	0.13633421
174	0xbe1e12c0	-0.1543684
175	0x3e65ed34	0.22453767
176	0x3e43b410	0.19111657
177	0xbe945c71	-0.28976777
178	0x3eac97d2	0.3370958
179	0x3e78bcf5	0.24290831
180	0xbf05a2e8	-0.522017
181	0x3e4268a7	0.18985234
182	0x3ced2f48	0.02895321
183	0x3df53e83	0.11974814
184	0xbe1163f4	-0.14198285
185	0x3e5d2476	0.2159594
186	0x3e44af94	0.19207603
187	0x3c9ede4d	0.01939311
188	0xbd6e0092	-0.058106013
189	0x3d56fddb	0.05248819
190	0xbe0b73a5	-0.13618334
191	0xbeb32516	-0.34989232
192	0xbe1e4848	-0.1545726
193	0x3d559ce1	0.052151565
194	0xbe6a4160	-0.22876501
195	0x3ca18bac	0.019719921
196	0xbeaf7c38	-0.3427446
197	0xbe274cfd	-0.16337962
198	0xbdb23f90	-0.0870353
199	0xbde6394f	-0.112413995
200	0x3e460798	0.19338834
201	0xbe5cb84c	-0.21554679
202	0xbeff1edb	-0.49828228
203	0x3db90df6	0.09035866
204	0xbe78f5ac	-0.24312466
205	0x3dd4725d	0.103733756
206	0xbde6eb62	-0.112753645
207	0x3e0971ef	0.13422368
208	0xbe36f66a	-0.17867437
209	0xbbd3e195	-0.0064661005
210	0x3c08b9fb	0.008345122
211	0x3e67c570	0.2263391
212	0xbe0adead	-0.13561507
213	0x3e45faef	0.19334005
214	0xbd89cbc3	-0.067283176
215	0x3ec5b3d4	0.3861376
216	0xbe2442ae	-0.16041061
217	0x3e2a31b8	0.16620529
218	0x3e630f7c	0.22173876
219	0x3dc752f1	0.09732617
220	0x3cc995f5	0.024607638
221	0xbeaac84a	-0.33355933
222	0xbed0005d	-0.40625277
223	0x3dbe6313	0.09296241
224	0xbd854d46	-0.06508879
225	0x3dda0134	0.10644761
226	0x3ebfbf24	0.37450516
227	0xbda2dd94	-0.07952419
228	0xbba95722	-0.0051678577
229	0xbe13c62e	-0.14431068
230	0x3e11fa36	0.14255604
231	0xbe48f0a5	-0.19623049
232	0xbea867fa	-0.32891828
233	0xbd79a4e8	-0.060948282
234	0x3ed985fe	0.4248504
235	0x3dc3143b	0.09525343
236	0xbec6b7e6	-0.38812178
237	0x3e95ef48	0.2928412
238	0x3afb8ff8	0.0019192686
239	0xbe7f03da	-0.24903813
240	0xbd4d4e49	-0.050123487
241	0xbe4af1df	-0.19818829
242	0xbe659b4b	-0.22422521
243	0x3e9d83d2	0.30764633
244	0xbe6171c4	-0.22016054
245	0x3ea78141	0.327158
246	0xbb894928	-0.004189629
247	0x3d35b9ff	0.044366833
248	0x3e594c20	0.21220446
249	0x3de8ed86	0.11373429
250	0x3d118f61	0.035537127
251	0x3da65a60	0.081227064
252	0xbccdbbf0	-0.02511403
253	0xbe6036b0	-0.21895862
254	0x3d80a235	0.062809385
255	0x3e26b226	0.16278896

network_body._body_endoder.seq_layers.0.bias f4 [128]
0	0x3cd34261	0.025788488
1	0x3c6c5671	0.014424906
2	0x3d01aae4	0.031657115
3	0x3ce51836	0.027965646
4	0x3c653873	0.013990509
5	0x3c757e83	0.014983776
6	0x3cf0cc57	0.029394312
7	0x3bccf811	0.0062551578
8	0x3d78714a	0.060654916
9	0x3d187182	0.037217624
10	0x3d0fafc0	0.035079718
11	0x3ca12fef	0.019676177
12	0xbbc213bd	-0.005922763
13	0x3d17ab47	0.037028577
14	0x3d1394af	0.036030468
15	0xbbb08ace	-0.0053876406
16	0x3bd757e6	0.0065717576
17	0x3c94be15	0.018157044
18	0x3d06c53e	0.03290295
19	0x3cc0f98c	0.023556493
20	0x3d97be1d	0.07409308
21	0x3c454b29	0.012041845
22	0x3d011d0d	0.031521846
23	0x3d76a66f	0.060217317
24	0x3d1794f1	0.037007276
25	0x3d0b2d3a	0.03397868
26	0x3b89761b	0.0041949875
27	0x3d3df6dc	0.046378
28	0x3b60ed23	0.0034321032
29	0x3bcee41b	0.0063138134
30	0x3bf9466b	0.0076072714
31	0x3ccb695d	0.024830515
32	0x3d1b8ba3	0.037974965
33	0x3c1177d6	0.008878669
34	0x3d16dc89	0.036831412
35	0xbd300c5d	-0.04298054
36	0x3c5ca982	0.013468148
37	0x3c80b3a0	0.015710652
38	0x3cb14164	0.021637626
39	0x3d5b9c51	0.05361587
40	0x3ce51cc0	0.02796781
41	0x3d11c7f4	0.03559108
42	0x3ca18bf7	0.01972006
43	0x3bb9c07d	0.0056686983
44	0x3cdc5db7	0.026900155
45	0x3d0a1ff3	0.033721875
46	0x3cf68a2c	0.030095182
47	0x3d778e22	0.060438283
48	0x3d21428c	0.039370105
49	0x3cc76183	0.02433849
50	0x3b80d131	0.0039311876
51	0x3c29e12d	0.0103686275
52	0x3c234d60	0.009967178
53	0x3d1849bb	0.03717969
54	0x3cd27612	0.025691066
55	0x3c9edc01	0.019392015
56	0x3cbf77fa	0.023372639
57	0xbc98a59a	-0.018633652
58	0xbc32b73b	-0.010907943
59	0x3c263890	0.0101453215
60	0x3c463fe2	0.012100192
61	0x3d0e1f07	0.03469756
62	0x3d1d7ede	0.038451068
63	0x3d7ad14e	0.061234765
64	0x3cc5711d	0.024101788
65	0x3cd03609	0.025416391
66	0x3c11406a	0.008865455
67	0x3c51d823	0.012807879
68	0x3c869c73	0.016432023
69	0xbc581824	-0.013189349
70	0x3d288b30	0.041148365
71	0xbbe72e96	-0.007055114
72	0x3cf11cba	0.029432643
73	0x3c283fcc	0.010269117
74	0x3d0a37ac	0.0337445
75	0x3d838903	0.06422617
76	0x3bc21e8a	0.0059240507
77	0x3c847b47	0.016172064
78	0xbc9c270d	-0.01906159
79	0x3b9b4259	0.004738134
80	0xbcb42916	-0.021992248
81	0x3ce6c108	0.028168216
82	0x3cd9f15b	0.026604345
83	0x3d021b50	0.03176433
84	0x3b8c6049	0.004283939
85	0x3d41ae67	0.047285464
86	0x3c822261	0.015885534
87	0x3cb55a9d	0.022137934
88	0x3d13dfc6	0.03610208
89	0xbca09a1d	-0.019604737
90	0x3d4993be	0.049213164
91	0x3c5ea22c	0.0135884695
92	0x3ccdc393	0.025117671
93	0x3c7b388d	0.015333307
94	0xbc314ac0	-0.010821044
95	0x3d0bb37c	0.034106717
96	0x3ce429de	0.027851995
97	0x3ce302d6	0.027711313
98	0x3cb82ef1	0.02248332
99	0x3d4bb769	0.04973546
100	0xbc0c8c4e	-0.008578373
101	0x3cd9654e	0.026537564
102	0x3c836b7c	0.016042463
103	0xbc0f85d0	-0.008759931
104	0xbc32fb17	-0.010924122
105	0x3cd3c161	0.025849046
106	0x3d05d10c	0.032670066
107	0xbc26a29a	-0.010170603
108	0x3cd00787	0.025394214
109	0xbbbcb419	-0.005758774
110	0xbcbaa12f	-0.022781936
111	0x3cbde93a	0.0231825
112	0x3d1362c4	0.035982862
113	0xbcf088c8	-0.029362097
114	0x3bac803e	0.005264311
115	0xbbf34b14	-0.0074247215
116	0x3d029ead	0.031889606
117	0x3d4d0e5a	0.050062515
118	0x3be10ab3	0.0068677305
119	0xbbc5626b	-0.006023695
120	0x3c8ec474	0.01742766
121	0x3d27ad88	0.040936977
122	0xb825359a	-3.9388986e-05
123	0x3cfe9098	0.031074807
124	0x3d2d9773	0.04238076
125	0x3c9afd88	0.018919721
126	0xbb596bcc	-0.0033175824
127	0x3bbdf424	0.005796926

network_body._body_endoder.seq_layers.2.weight f4 [128, 128]
0	0xbd909afb	-0.0706081
1	0x3d67ce51	0.056593243
2	0xbda17c56	-0.07885043
3	0x3cfb3cd1	0.030668648
4	0xbe409c03	-0.18809514
5	0x3d50c439	0.050968383
6	0xbda7f5a3	-0.08201148
7	0x3d34adf5	0.04411121
8	0x3d6b5652	0.05745537
9	0xbccde0c5	-0.025131593
10	0xbe01aff6	-0.1266478
11	0xbdd0cf42	-0.10195781
12	0xbc1bad3a	-0.00950175
13	0x3c158681	0.0091263065
14	0xbd810efa	-0.06301685
15	0x3e3bc3a4	0.1833635
16	0x3c840752	0.016116772
17	0x3d465a8e	0.048426203
18	0x3b393a5d	0.0028263547
19	0xbe20b0be	-0.15692422
20	0x3c0b7bef	0.008513435
21	0xbdc4cc63	-0.09609296
22	0x3de4c0b0	0.11169565
23	0x3cbfba48	0.023404256
24	0x3ca4ff1e	0.02014118
25	0x3d199d98	0.03750381
26	0x3db2db8a	0.0873328
27	0x3defa810	0.11701977
28	0xbdace43d	-0.084419705
29	0x3dd6632e	0.10468136
30	0xbd2389da	-0.039926387
31	0xbddb47e3	-0.10707071
32	0x3a833cef	0.0010012666
33	0x3df6090f	0.120134465
34	0xbe23a99d	-0.15982671
35	0xbc7bdf3d	-0.015373048
36	0xbe0a8f6b	-0.13531272
37	0xbd4d6a85	-0.050150413
38	0x3cc2d4dd	0.023783142
39	0x3c8c3d4d	0.017119074
40	0xbdf96da0	-0.121791124
41	0xbdf875f6	-0.12131874
42	0xbda0fe1e	-0.07860969
43	0xbe3a92a1	-0.18219997
44	0x3cb321cf	0.021866707
45	0xbcca5562	-0.024698917
46	0xbe3b5798	-0.18295133
47	0xbddc5a9d	-0.107594706
48	0x3d24e4bb	0.040257197
49	0xbb6d74f5	-0.0036233042
50	0xbdb79150	-0.08963263
51	0x3ca2cff8	0.019874558
52	0x3e0e41d4	0.13892299
53	0x3d2cbac6	0.04217031
54	0x3cc8407f	0.024444817
55	0xbc6e8a49	-0.014559337
56	0xbd97846a	-0.07398303
57	0xbc58a391	-0.013222591
58	0xbe30a48b	-0.17250268
59	0xbc8a5807	-0.016887678
60	0x3df6b78b	0.12046727
61	0x3de1e3ba	0.110297635
62	0x3ddd8817	0.10816973
63	0xbd9fede2	-0.078090444
64	0xbe906e87	-0.28209326
65	0xbdeafca1	-0.114739664
66	0xbd82dac0	-0.063893795
67	0xbe681d54	-0.22667438
68	0x3dd826ea	0.10554297
69	0x3d70e5e2	0.058812983
70	0x3c79e4ae	0.015252275
71	0xbe0f720b	-0.14008348
72	0xbd815b3b	-0.06316229
73	0x3c90c702	0.01767302
74	0xbe2837c1	-0.16427518
75	0x3e05f31a	0.13081017
76	0x3cf95c68	0.03043957
77	0xbda88980	-0.08229351
78	0x3ce736b9	0.028224336
79	0x3d974a9a	0.07387276
80	0xbd4bdb18	-0.04976949
81	0x3d1693cb	0.03676204
82	0xbc6c8ab4	-0.014437366
83	0x3e0645bf	0.13112544
84	0x3d422993	0.04740293
85	0xbdf0fb3f	-0.117666714
86	0x3d38f9de	0.045160167
87	0xbdad8f0e	-0.08474551
88	0x3daeb243	0.085300945
89	0x3ddfc622	0.10926463
90	0xba184d7c	-0.0005809886
91	0x3bdd4c6a	0.006753494
92	0x3cf3f3f1	0.029779406
93	0x3e0e56f1	0.13900353
94	0x3e2341d3	0.15943079
95	0x3c81367f	0.015773056
96	0xbdc99e50	-0.09844649
97	0x3d140a8b	0.036142867
98	0x3d8ab2cc	0.06772384
99	0xbdd70105	-0.10498241
100	0x3d0830c0	0.033249617
101	0x3cc6ae62	0.024253074
102	0x3d39a84b	0.045326512
103	0x3dd9898c	0.10621938
104	0x3d3f0323	0.04663385
105	0x3e04897c	0.12943071
106	0x3dc9eeca	0.098599985
107	0x3d53caf0	0.05170721
108	0x3da63ad0	0.08116686
109	0xbd151f0b	-0.036406558
110	0xbdf4df9a	-0.11956711
111	0xbdf26a19	-0.11836643
112	0x3c2fc377	0.010727755
113	0xbd5fe61a	-0.0546628
114	0x3e310bb2	0.17289618
115	0x3e0d8bfc	0.13822931
116	0xbe052858	-0.13003671
117	0x3d811b0f	0.06303989
118	0xbd52492a	-0.051339306
119	0x3cbfc5fa	0.023409832
120	0x3ddd3f73	0.108031176
121	0xbdde2da9	-0.10848553
122	0xbc70a1d3	-0.014687019
123	0x3e2cc38b	0.16871469
124	0xbd60c0e0	-0.05487144
125	0xbd8eb9a8	-0.06969005
126	0xbaff43ce	-0.0019475163
127	0x3c552f97	0.013011835
128	0xbdba4cc4	-0.09096673
129	0xbc12de08	-0.008964069
130	0x3d9e6abd	0.077352025
131	0x3d1fd4f9	0.039021466
132	0x3e648cd0	0.2231934
133	0x3bd15b39	0.0063890484
134	0x3d1bf66c	0.038076803
135	0xbde1b525	-0.11020879
136	0xbd57a05f	-0.052643176
137	0x3cddea74	0.027089335
138	0xbd863cf1	-0.065545924
139	0xbdfefaf9	-0.12450213
140	0x3ca34535	0.019930461
141	0xbb63c2fe	-0.0034753676
142	0x3df83529	0.121195145
143	0x3d80551e	0.06266235
144	0x3e1075bd	0.14107414
145	0xbdac4701	-0.084119804
146	0xbd730ad4	-0.0593365
147	0x3ab03cd7	0.0013445866
148	0xbe2dfcc1	-0.16990949
149	0x3ba02247	0.0048868987
150	0xbc3ab0cb	-0.01139469
151	0x3d7b7063	0.061386477
152	0x3de91c64	0.11382368
153	0x3e673e68	0.225824
154	0x3c06c300	0.008225203
155	0xbd9b15f1	-0.07572544
156	0xbb988e43	-0.004655631
157	0xbe4e7fa6	-0.20165882
158	0xbd081035	-0.03321858
159	0x3e086252	0.13318756
160	0x3d10b695	0.035330374
161	0xbcca7bab	-0.024717173
162	0xbe2a003d	-0.16601653
163	0x3d9b9b17	0.075979404
164	0xbd54e19d	-0.051972974
165	0x3c92bbfd	0.017911905
166	0x3d938e36	0.07204859
167	0xbe2c623b	-0.16834347
168	0x3e21c260	0.15796804
169	0xbda33b3e	-0.07970284
170	0x3d479fbd	0.048736323
171	0x3af5a0d8	0.0018739952
172	0xbd0ae453	-0.033909153
173	0xbca243cd	-0.01980772
174	0xbdfd3587	-0.12363725
175	0x3c87dc76	0.016584616
176	0x3dd861b9	0.10565514
177	0xbdeab5e4	-0.11460474
178	0xbe28330c	-0.16425723
179	0x3d4ef65b	0.05052791
180	0xbd6818e8	-0.056664377
181	0xbd01593a	-0.031579234
182	0xbdb34a15	-0.087543644
183	0xbdcf2a96	-0.101155445
184	0xbddb8383	-0.10718443
185	0xbd15e1c0	-0.036592245
186	0xbdeb3202	-0.114841476
187	0x3e005dd2	0.1253579
188	0xbdd82a06	-0.1055489
189	0xbcdb7367	-0.026788427
190	0xbded5eba	-0.11590333
191	0xbd646e2d	-0.055769134
192	0x3e66a86f	0.2252519
193	0xbdb2f2a8	-0.08737689
194	0xbda467ed	-0.08027635
195	0x3dc30dda	0.09524126
196	0xbd938db4	-0.07204762
197	0x3e38b01d	0.18035932
198	0xba6be203	-0.0008998217
199	0x3e0bcaaa	0.13651529
200	0x3c9e354e	0.019312527
201	0xbdc63a9b	-0.09679147
202	0xbd9370bc	-0.07199237
203	0x3c0888f2	0.008333432
204	0x3c7955f1	0.015218244
205	0x3dc6d4f5	0.09708587
206	0xbdf1ba1a	-0.11803074
207	0x3d2620bb	0.040558558
208	0xbcbdb340	-0.023156762
209	0xbd9d361b	-0.076763354
210	0xbe552086	-0.20813188
211	0x3d24f8a3	0.04027618
212	0x3e5ac65b	0.21364729
213	0x3d956486	0.07294564
214	0xbc19c2c5	-0.009384816
215	0x3e0be2b7	0.13660704
216	0x3d7ca524	0.061680928
217	0x3d32aa67	0.04361954
218	0x3c32eece	0.010921193
219	0x3d77b511	0.060475413
220	0xbd0d1d9b	-0.034452062
221	0xbc75a86c	-0.014993768
222	0xbe081346	-0.13288602
223	0x3d93a7cb	0.07209738
224	0x3e293b43	0.16526513
225	0xbce90edb	-0.028449466
226	0xbe078cff	-0.1323738
227	0xbb9a697a	-0.004712281
228	0xbd48df2c	-0.04904096
229	0xbdcbbddf	-0.099483244
230	0xbc847f7b	-0.016174069
231	0xbd30bc68	-0.04314843
232	0xbd111fc7	-0.035430696
233	0x3c8ea2dd	0.017411644
234	0xbbf2513b	-0.0073949373
235	0x3ccf2d9b	0.025290301
236	0x3db5ede9	0.088832684
237	0x3d8000ca	0.062501505
238	0xbdc3cea5	-0.09560899
239	0xbbe46687	-0.00697023
240	0xbdb28e24	-0.087185174
241	0x3da74115	0.0816671
242	0xbd8ef07f	-0.06979465
243	0xbc36444a	-0.01112468
244	0xbd82fa91	-0.06395448
245	0x3d6bca1a	0.057565786
246	0xbdc924cf	-0.09821474
247	0xbe2eab43	-0.17057519
248	0x3d70edcc	0.05882053
249	0x3d6d9d05	0.058011074
250	0xbd87a24b	-0.06622752
251	0xbe1bc476	-0.15211663
252	0x3df9297a	0.12166114
253	0xbde83ebf	-0.11340093
254	0xbde699b0	-0.11259782
255	0xbcddd146	-0.027077328

network_body._body_endoder.seq_layers.2.bias f4 [128]
0	0xbb4109d9	-0.0029455333
1	0x3b43154d	0.0029767335
2	0x3c85afb4	0.016319133
3	0x3d11b810	0.035575926
4	0x3cc50d17	0.024054093
5	0x3c908b3d	0.017644519
6	0x3d1aadde	0.03776347
7	0x3cc2d38b	0.023782512
8	0x3c2ee02f	0.010673567
9	0x3c6a60f7	0.014305345
10	0xbac3b9c8	-0.0014932686
11	0x3cef99d2	0.029248152
12	0xbb26c9ec	-0.0025449945
13	0xbc28a215	-0.01029255
14	0x3c3c2ee9	0.011485794
15	0x3ccf9efc	0.025344364
16	0x3ccd8607	0.025088323
17	0x3c34a9b2	0.011026787
18	0x3c26186a	0.010137657
19	0x3cd1251a	0.025530387
20	0x3d7b1889	0.061302695
21	0x3c7aabf2	0.015299784
22	0x3cf54b62	0.029943172
23	0x3cdfd341	0.027322413
24	0x3c1ed293	0.0096937595
25	0x3bd526c5	0.006504866
26	0x3cc9cc1f	0.024633465
27	0x3ccda5fc	0.025103562
28	0xbbbd8474	-0.005783612
29	0x3c4e0b6d	0.012575966
30	0x3d1f2b92	0.03885991
31	0xba067ba2	-0.0005130117
32	0x3c5c5478	0.013447873
33	0x3d1ca2b5	0.038241107
34	0x3c8c45c1	0.017123105
35	0x3c5ee02e	0.013603253
36	0x3cc8a9ac	0.024494968
37	0x3bc53dfe	0.006019353
38	0x3c5f4a92	0.013628619
39	0x3d098001	0.03356934
40	0x3c88c45c	0.016695194
41	0xbafb3de4	-0.0019168225
42	0x3cebec90	0.028799325
43	0x3c824f14	0.015906848
44	0x3cf6c24a	0.030121941
45	0xbb7ec6c3	-0.0038875795
46	0xbbc51881	-0.006014884
47	0x3d09797a	0.033563115
48	0xbbe41f1e	-0.0069617173
49	0x3cee43ee	0.029085126
50	0x3d00072e	0.031256847
51	0x3c812a7e	0.015767332
52	0xb9ec6c13	-0.0004509395
53	0x3ca852a2	0.020547215
54	0x3a3abb93	0.00071232877
55	0x3c752cf1	0.014964328
56	0x3cad808d	0.021179462
57	0x3c829fad	0.01594528
58	0x3c91ba8b	0.017789146
59	0x3c50e21f	0.012749224
60	0xbc5901cd	-0.013245058
61	0x3ca0e3bf	0.019639848
62	0x3c8b5e12	0.01701263
63	0x3cb61d66	0.022230815
64	0xbbdcb906	-0.0067359237
65	0x3d07cb2a	0.033152737
66	0x3ccf150c	0.02527859
67	0x3d06d969	0.032922182
68	0x3c62ff43	0.013854804
69	0x3bc39e6a	0.005969812
70	0x3d31ddaf	0.043424305
71	0x3cb352be	0.02189004
72	0x3c3179b8	0.010832243
73	0x3b8d5452	0.0043130303
74	0x3d52308f	0.05131584
75	0x3c848df4	0.01618097
76	0x3ce9576a	0.028484065
77	0xbc0ac57c	-0.0084699355
78	0x3ca1aa35	0.019734481
79	0x3cfa6f8c	0.030570768
80	0x3cc05fa2	0.023483101
81	0x3c9bd9d7	0.019024773
82	0x3cbbc2ce	0.022920039
83	0x3acd4687	0.0015661278
84	0x3d052076	0.03250166
85	0x3c3db717	0.011579297
86	0x3d04eefc	0.032454476
87	0x3bafbee5	0.0053633326
88	0x3ac37cec	0.0014914549
89	0x3d17e41d	0.03708278
90	0x3d8f330d	0.06992159
91	0x3d3113f7	0.04323193
92	0x3c9b3a78	0.018948779
93	0x3bf3ec14	0.007443914
94	0x3c0792c5	0.008274739
95	0x3d30168e	0.04299026
96	0x3c5d289c	0.013498452
97	0x3c975136	0.018471342
98	0x3c5b8cb6	0.013400247
99	0x3a297e56	0.0006465664
100	0x3cba81b3	0.022766924
101	0x3c8c32dc	0.017114095
102	0xbc071d94	-0.008246798
103	0x3c3b9ef3	0.011451471
104	0x3c05e077	0.008171192
105	0x3cfafab7	0.030637128
106	0x3cacccb8	0.021093711
107	0x3ccc16c2	0.024913196
108	0x3ceccb42	0.028905515
109	0x3d20f2ab	0.039293926
110	0x3c8519be	0.016247626
111	0x3b9f1999	0.0048553464
112	0x3c190634	0.009339858
113	0x3cbcbe59	0.023039984
114	0x3b15c5ad	0.002285342
115	0x3d3bb77c	0.04582928
116	0x3cf3ef77	0.029777272
117	0x3cf3736e	0.029718127
118	0x3c47acfb	0.012187238
119	0x3ccdfc54	0.025144733
120	0x3c0211a7	0.007938779
121	0xbb92f72a	-0.0044850307
122	0x3c96c9e4	0.018406816
123	0x3c35c664	0.011094663
124	0x3cd2edf0	0.025748223
125	0x3d830185	0.06396774
126	0x3ced1de8	0.028944924
127	0x3cf495e3	0.029856628

action_model._discrete_distribution.branches.0.weight f4 [5, 128]
0	0x3c531409	0.012883195
1	0x3ccc3abe	0.024930354
2	0x3b2d2b09	0.0026423356
3	0xbaf9cfff	-0.001905918
4	0x3b8e0278	0.0043337904
5	0xbbd91c88	-0.0066257156
6	0xbc35624a	-0.011070797
7	0xbc93fb82	-0.018064264
8	0xbb7f47a1	-0.0038952606
9	0xbc859edb	-0.0163111
10	0x3ccc4274	0.024934031
11	0xbc8ddece	-0.017318156
12	0x3bd3c366	0.0064625023
13	0x3d299860	0.04140508
14	0xbbc3a92b	-0.005971094
15	0xbd1f795c	-0.038934097
16	0x3b05e889	0.0020432791
17	0xbaf93cbe	-0.0019015295
18	0x3cc75d28	0.024336413
19	0x3c09362d	0.008374733
20	0xbd0fcac9	-0.0351055
21	0xbc24980c	-0.010046016
22	0xbca3d2a9	-0.019997912
23	0xbcc3dd09	-0.023909109
24	0x3cc18698	0.02362375
25	0x3ba2fcaf	0.00497397
26	0x3c4087fb	0.01175117
27	0x3bbd2adf	0.005772933
28	0x3b4c880a	0.0031209015
29	0xbbfb81b8	-0.007675376
30	0xbb111244	-0.0022136131
31	0x3ba83c33	0.0051341294
32	0x3b1ea776	0.0024208701
33	0xbcc9ab56	-0.024617832
34	0xbc18e398	-0.009331606
35	0x3c2147f8	0.009843819
36	0x3cbe6491	0.023241313
37	0x3ca4c120	0.02011162
38	0xbc2ef8e7	-0.01067946
39	0xbc1ceaa9	-0.009577432
40	0xbba0aa5a	-0.00490312
41	0x3af2d37b	0.0018526161
42	0xbc29e06a	-0.010368446
43	0xbbdb619b	-0.006694985
44	0xbcc9b655	-0.024623076
45	0x3bebb1c6	0.007192823
46	0x3c1184e1	0.008881778
47	0x3bee3adb	0.0072701997
48	0x3cd5e518	0.026110217
49	0xbd25b1e6	-0.04045286
50	0xbc82e3ca	-0.015977759
51	0x3c249d72	0.0100473035
52	0x3c826ac9	0.01592006
53	0x3b372619	0.0027946292
54	0x3c9cf98d	0.019161964
55	0x3b4aa828	0.0030922983
56	0xbce2fbdb	-0.027707985
57	0x3b1185c6	0.002220498
58	0x3cfd667a	0.030932654
59	0x3d109f61	0.035308246
60	0x3c8374a5	0.016046831
61	0xbba7b617	-0.0051181423
62	0x3c97c649	0.018527167
63	0xbc13880d	-0.009004605
64	0x3c6272f9	0.013821357
65	0xba9c1d24	-0.001191054
66	0x3c6239c0	0.013807714
67	0xbc4b06ef	-0.01239179
68	0x3cd09945	0.02546371
69	0x3bae76b9	0.0053242114
70	0xbca0e88d	-0.019642139
71	0xbc81cd50	-0.015844971
72	0x3b9fb958	0.0048743896
73	0xbc5df590	-0.013547316
74	0xbcad71c9	-0.021172421
75	0xbcc78c96	-0.024359029
76	0x3c624031	0.01380925
77	0x3ab866ce	0.0014068724
78	0xbb600f05	-0.003418864
79	0xbcf48b40	-0.029851556
80	0xbc80e2e6	-0.015733194
81	0xbca00b64	-0.019536681
82	0x3cbe7189	0.023247497
83	0x3cf5730f	0.02996209
84	0xbd3bf53b	-0.045888167
85	0x3c8ed9eb	0.017437896
86	0xbc05cd39	-0.008166605
87	0x3bbfd998	0.0058547966
88	0x3c679bdd	0.014136282
89	0xbceaf995	-0.028683463
90	0xbcf0de67	-0.029402925
91	0xbc93796f	-0.01800224
92	0xbbebad18	-0.0071922652
93	0xbc921f89	-0.017837303
94	0x3c65735e	0.014004556
95	0xbc56499a	-0.013079071
96	0x3c6b0910	0.014345422
97	0xbb0f9183	-0.00219068
98	0xbc477c9e	-0.012175707
99	0x3c899db6	0.016798835
100	0x3b039824	0.0020079697
101	0xbc1b01a4	-0.00946084
102	0x3cf9c232	0.030488107
103	0xbb9cbd54	-0.004783312
104	0x3cc54008	0.024078384
105	0x3c4f2791	0.012643711
106	0xbcee046b	-0.029054841
107	0xbc9e13d4	-0.019296564
108	0x3becf8ff	0.007231831
109	0xbc81cf12	-0.01584581
110	0xbc125a9b	-0.008932735
111	0xb9b851ae	-0.0003515607
112	0xbafa6200	-0.0019102693
113	0xbc4677d9	-0.012113535
114	0xba447678	-0.000749446
115	0xbd14c5f5	-0.0363216
116	0xbceed50f	-0.029154329
117	0x3c9af118	0.01891379
118	0x3c236889	0.009973654
119	0xbc0e6114	-0.008690137
120	0xbc2da95b	-0.0105994595
121	0x3caf556b	0.021403035
122	0x3c49a89d	0.012308267
123	0xbb618ce9	-0.0034416264
124	0xbb8fa848	-0.0043840744
125	0xbc913106	-0.017723572
126	0xbbe5b5f3	-0.0070102154
127	0xbc8a1bf9	-0.016859042
128	0x3cf5ed91	0.030020507
129	0xbcd8abe9	-0.02644916
130	0x3d0086ac	0.031378433
131	0x3cdf2392	0.027238641
132	0x3ceeb860	0.029140651
133	0x3c89f693	0.016841209
134	0xbd4e3c75	-0.050350625
135	0x3cce5dab	0.025191149
136	0xbd151644	-0.036398187
137	0x3d038ad2	0.03211481
138	0x3a3e012f	0.0007248101
139	0x3d436e2a	0.047712483
140	0x3bf2ca73	0.0074093877
141	0xbcf38ee6	-0.029731225
142	0xbca74581	-0.020418884
143	0x3b8d4942	0.0043117115
144	0x3d2e4160	0.042542815
145	0x3ca862bb	0.02055489
146	0x3bdd2b04	0.0067495126
147	0x3d8573d5	0.06516234
148	0xbdb3a45d	-0.08771584
149	0xbcdda73c	-0.027057283
150	0xbd5bee4d	-0.05369406
151	0xbce8dc37	-0.02842532
152	0x3bbe0e45	0.005800041
153	0x3c443f2f	0.011977955
154	0xbd25d017	-0.040481653
155	0xbb00c5fb	-0.0019649256
156	0x3cf37cfb	0.029722681
157	0x3b81be80	0.003959477
158	0xbd2c4761	-0.04206026
159	0x3cbb5e3e	0.022872087
160	0x3cbe5f12	0.023238692
161	0xbd5d9007	-0.054092433
162	0xbc7eeffc	-0.015560146
163	0xbc2cb111	-0.010540263
164	0xbce7eae5	-0.028310249
165	0xbbc6ab08	-0.006062869
166	0x3ca04379	0.019563423
167	0xbd6197b0	-0.0550763
168	0x3c9ae372	0.018907283
169	0x3c5f5b63	0.013632628
170	0x3cf7a3ad	0.030229414
171	0xbc77790a	-0.015104542
172	0x3d62589c	0.055260286
173	0x3c49f144	0.012325589
174	0x3b6af2d1	0.0035850296
175	0xbd726dad	-0.059186626
176	0xbcadd243	-0.021218425
177	0x3d2d8059	0.04235873
178	0xbd3052c4	-0.04304768
179	0xbd0ff68e	-0.035147242
180	0xbbe1e2f6	-0.006893511
181	0x3ccbcfdb	0.024879387
182	0xbba97961	-0.00517194
183	0x3ce841cf	0.028351692
184	0x3d518d30	0.051160038
185	0x3c878c03	0.016546255
186	0xbd14e386	-0.036349796
187	0xbbde059a	-0.00677557
188	0x3c1d5238	0.009602122
189	0x3a6b8532	0.0008984386
190	0xbd443105	-0.04789831
191	0x3b47317f	0.0030394492
192	0xbc3afbbd	-0.011412558
193	0xbd5c1ef2	-0.05374045
194	0xbd4a4f42	-0.049391992
195	0xbd7daa03	-0.061929714
196	0x3b23f5af	0.0025018265
197	0xbcbcf120	-0.023064196
198	0xbd9c40a2	-0.07629515
199	0x3d4f451c	0.050603017
200	0x3d0f400c	0.03497319
201	0x3cdbf573	0.026850438
202	0xbd5e2a55	-0.05423959
203	0x3d3e7ab2	0.04650373
204	0xbd1a7db1	-0.037717525
205	0x3b721406	0.0036938204
206	0x3caa231d	0.020768696
207	0x3ccd015a	0.025025059
208	0x3b07faad	0.002074878
209	0x3d0bc64a	0.03412465
210	0xbcc1d16c	-0.02365943
211	0xbd3073c0	-0.043079138
212	0x3c3ee6b2	0.011651682
213	0xbcd9f434	-0.026605703
214	0xbd70ec35	-0.058819015
215	0x3c196312	0.009361999
216	0x3cbcce5b	0.023047617
217	0xbd45101a	-0.04811106
218	0xbdaa27e4	-0.0830839
219	0xbd974602	-0.073864
220	0x3d2f40e8	0.04278651
221	0x3cffe416	0.03123669
222	0xbce926ff	-0.028460978
223	0xbd5f9720	-0.054587483
224	0x3c77d23b	0.015125806
225	0x3d179da7	0.037015583
226	0x3c2fb855	0.0107251005
227	0xbb5371b7	-0.0032263824
228	0x3d1d75c6	0.038442396
229	0xbca25794	-0.019817151
230	0x3b47112c	0.0030375225
231	0x3d16c850	0.036812127
232	0xbd43aeb4	-0.04777403
233	0xbd43dd56	-0.047818504
234	0x3d3d8256	0.046266876
235	0x3d389d6a	0.045071997
236	0xbcadad73	-0.021200871
237	0x3d21b451	0.039478604
238	0x3cb2690b	0.021778604
239	0x3c45698b	0.012049089
240	0xbd1c8cff	-0.0382204
241	0x3c01a4bd	0.007912812
242	0x3ceb0a38	0.028691396
243	0xbd2d4c02	-0.042308815
244	0x3d69fd90	0.05712658
245	0xbd5b8ff8	-0.053604096
246	0x3cb0ff35	0.021606067
247	0x3cc18514	0.023623027
248	0xbc8ef445	-0.017450461
249	0xbc88b356	-0.016687077
250	0x3cb4590a	0.022015113
251	0x3cb3dd1d	0.021956021
252	0xbd4279fa	-0.047479607
253	0xbd57f036	-0.052719317
254	0x3c9448b3	0.018101072
255	0xbd75ec21	-0.060039643

action_model._discrete_distribution.branches.0.bias f4 [5]
0	0xbc8e27b1	-0.01735291
1	0x3b01bca6	0.001979628
2	0x3b0fa6fb	0.0021919596
3	0x3bb5ef5b	0.005552215
4	0x3c069953	0.008215266

49 f4 [21]
0	0x3ec40568	0.38285375
1	0x3ec40ad1	0.38289502
2	0x3e96ac74	0.29428446
3	0x3ec6b4d7	0.38809845
4	0x3ec6ba16	0.38813847
5	0x3e9a8f1b	0.30187306
6	0x3ea1b8e6	0.3158638
7	0x3ea1c0cf	0.31592414
8	0x3e78c650	0.242944
9	0x3eb7fa26	0.35933036
10	0x3eb80061	0.3593779
11	0x3e90d1a1	0.28284934
12	0x3e8b8094	0.27246535
13	0x3e8b8a80	0.27254105
14	0x3e4f1f37	0.20226751
15	0x3ea285da	0.31742746
16	0x3ea28db6	0.31748742
17	0x3e78d8b3	0.24301414
18	0x3e6ed2fa	0.23322669
19	0x3e6eeb73	0.23332004
20	0x3e2d8389	0.16944708
