RollerBall/Assets/RollerBall.onnx (onnx, 72959 bytes, 9 tensors)

network_body.observation_encoder.processors.0.normalizer.running_mean f4 [6]
000000 bf be e0 bc 61 a1 74 3c 40 4a 65 3d bc 9c 38 3e
       -0.027434705 0.014931054 0.055979013 0.1802854
000010 bb 97 8e 3d 40 2f 50 3e
       0.06962534 0.20330524

network_body._body_endoder.seq_layers.0.weight f4 [128, 6]
000000 f5 48 fa be f8 5c 79 be c2 53 97 3e 6f d6 ba bd
       -0.48883787 -0.24351871 0.2955609 -0.09122931
000010 78 dd 87 3e 1c c3 53 bd dd 06 18 3d 46 af 77 be
       0.26536155 -0.051699743 0.03711592 -0.24187955
000020 22 63 95 3e ca a4 f9 3e 46 ed 85 be 31 37 bf 3c
       0.29177195 0.48758537 -0.26157588 0.023341747
000030 ab 07 d9 3d 60 28 1d 3f 86 52 3d bf 14 e8 4f 3f
       0.10597166 0.6138973 -0.73954046 0.812135
000040 24 42 08 3f 1f 27 59 bf 37 51 a7 bd 2d 96 85 3e
       0.5322592 -0.8482532 -0.081697874 0.26091138
000050 b0 57 92 be d0 8e 17 bf af d7 1d 3e 9e 6c c0 3d
       -0.28582525 -0.5920229 0.15414308 0.09395717
000060 84 4c b1 bc 27 27 f5 3e 5d 0b 09 be 41 08 fa 3e
       -0.02164293 0.47881433 -0.13383241 0.48834422
000070 30 33 29 bf 11 1d 1c 3b b2 00 77 3d f2 fb 4a 3e
       -0.6609373 0.0023821036 0.060303397 0.19822672
000080 72 b4 2b 3d 96 7e 45 3e 95 ef 52 3d bb 39 83 3d
       0.041920133 0.1928657 0.051498014 0.064074956
000090 ac 2b f2 3e 69 5f 0f bd 82 82 80 3f 4e 6a bd bd
       0.47298944 -0.0350031 1.0039828 -0.09248792
0000a0 13 9c 8d 3d a4 18 4a bf 83 5d bb 3e bb 25 f4 3c
       0.069145344 -0.7894385 0.3659478 0.029803148
0000b0 2e 26 01 bf 3a f4 e8 be 4d 4a 3e 3f ea cb 86 3e
       -0.5044888 -0.4549883 0.74332124 0.2632745
0000c0 70 e0 df bb af 98 34 3f 53 7f 51 3d c0 7b 59 3f
       -0.006832175 0.70545477 0.051146816 0.8495445
0000d0 fe 1d 70 3f 34 83 8f 3e da 63 98 be 60 c6 6d 3e
       0.93795764 0.28029788 -0.2976368 0.23220205
0000e0 b6 f4 05 3f 26 d0 a2 3e 46 8c ae 3e 16 ea 85 bf
       0.52326524 0.3179943 0.34091395 -1.0462062
0000f0 e7 8f 9c bd 46 b1 38 be 1d 44 2f 3f 1f 3f 6a bf
       -0.07644635 -0.18036374 0.6846331 -0.91502565
000100 a5 0d 23 bf 71 79 5e be 0b 40 6f 3d 3a ad b5 bd
       -0.63692695 -0.21726014 0.058410686 -0.08870931
000110 69 0d d6 3e ab bb 78 3f 8c 12 76 3e 43 28 0e bf
       0.41807106 0.9716136 0.24030513 -0.55530185
000120 5c 6d f5 3e 74 5c b3 3e a2 bc 11 be b2 a6 80 be
       0.47934997 0.35031474 -0.14232114 -0.25127178
000130 ff ec ce 3d 12 a3 b1 be 10 43 b0 be bb ed 52 3e
       0.10103797 -0.34694725 -0.34426165 0.205985
000140 16 40 12 3f cc 46 9b 3e 7b 4c dc bd ac 5d e0 3e
       0.5712904 0.3032745 -0.10756775 0.43821466
000150 e8 99 f8 3e 6f d9 2c 3d 6e 95 24 bf 0b 32 3b bd
       0.4855492 0.04219955 -0.6429051 -0.04570202
000160 9c 1b 5c be 06 06 0d bf 1b 96 2b 3e d3 78 cd bd
       -0.21494907 -0.55087316 0.1675648 -0.10032811
000170 bf 6f 4d bf 0b 9b f5 3e 98 45 90 be 89 79 b8 3d
       -0.80248636 0.4796985 -0.28178096 0.09007556
000180 ff ee a7 bd a3 bb d4 be 31 c7 be bd f8 d4 6f 3f
       -0.08199882 -0.41549405 -0.093153365 0.9368434
000190 47 1e a8 3e c1 9b 8e 3e 36 9b 40 be 42 48 b1 3e
       0.328356 0.27853206 -0.18809208 0.3462544
0001a0 cc 00 d5 3e 43 54 f5 3e ca 83 68 3e e8 9c 14 3e
       0.4160217 0.4791585 0.22706524 0.1451298
0001b0 3c 6a 9f 3e 45 a0 07 3f e4 cd 91 3c 3b 3f 0b 3e
       0.31135738 0.52978927 0.017798372 0.1359834
0001c0 c6 a4 62 bd 3a 92 9e be 12 5e 00 bf 65 f8 ba bd
       -0.05533292 -0.30970937 -0.5014354 -0.09129409
0001d0 37 f9 22 3f 24 89 b9 3e 16 4e 5b 3e 88 a5 a3 bf
       0.6366152 0.36237442 0.21416506 -1.2784891
0001e0 77 64 82 3e 21 36 84 3e 47 eb 44 bf 14 42 95 3d
       0.25467274 0.25822547 -0.76921505 0.07287994
0001f0 94 7a ea be 26 91 23 3f b3 f9 02 bf d1 b1 ad 3e
       -0.45796645 0.63893354 -0.5116226 0.33924726
000200 b8 d6 32 3d c9 7b 1f 3f 80 3f cb be f3 5c 6c 3e
       0.043661803 0.62298256 -0.39696884 0.23082332
000210 94 64 b6 3d 0c 63 c9 be fe 91 df 3d e1 28 40 be
       0.089059025 -0.3933338 0.10916518 -0.18765594
000220 d6 3d 01 3d 62 81 97 bc 54 67 69 bf 81 ee b0 3e
       0.031553112 -0.018494312 -0.9117329 0.34556964
000230 5a 50 0f 3f 4e 57 0c 3a dc a3 e5 3e fb b7 29 bf
       0.5598198 0.00053535856 0.44851577 -0.66296357
000240 da d3 00 bf 00 22 3b bd 1b 97 94 be b5 b6 03 bd
       -0.5032326 -0.04568672 -0.29021534 -0.032156665
000250 fe a2 60 bf 23 b7 b9 3e e0 38 5e be f1 96 0a 3f
       -0.87748706 0.36272535 -0.21701384 0.5413657
000260 c4 b4 81 3e ec d8 06 bf 9d a8 18 3e 01 10 ae 3d
       0.25333226 -0.52674747 0.14908071 0.08499146
000270 e1 5b 35 be 22 7a 04 be 9d c0 95 3e 6d 92 98 3d
       -0.1771083 -0.12937215 0.29248515 0.074498035
000280 86 b2 16 3e 9e 05 98 3e 40 8e dd 3d 22 ef f6 3e
       0.14716539 0.29691786 0.10818148 0.4822932
000290 64 6e fa bd 8d 5d 14 3e 35 1b c1 be cf 5f 86 3d
       -0.122280866 0.14488812 -0.3771607 0.06561243
0002a0 e4 a1 08 3f e9 08 3d 3f e6 61 e1 3d 30 96 81 3e
       0.53372025 0.7384172 0.11005001 0.25309896
0002b0 63 83 ef bd 64 56 4d 3e e0 9d 99 3e c5 33 18 3c
       -0.11694982 0.20052487 0.30003262 0.009289687
0002c0 9e 81 8a bf 45 8b fc bd 08 01 11 3f 6f 5c 0f be
       -1.0820806 -0.12331251 0.566422 -0.14000104
0002d0 8f b7 11 3e 6b 12 65 bf 59 7e 22 3f 46 9f 9e 3e
       0.14230178 -0.8948123 0.6347404 0.3098089
0002e0 49 e5 ae 3f 04 a1 aa bd ce 92 fa bd d7 d2 42 be
       1.3663722 -0.083314925 -0.12235032 -0.19025742
0002f0 f5 48 58 bf 98 bb 31 3e a1 f8 33 be 11 25 11 3e
       -0.84486324 0.17356718 -0.17575313 0.14174296
000300 62 03 a4 be 36 0e 09 3f 77 b8 a0 3e ca e3 b7 bd
       -0.3203383 0.5353731 0.31390736 -0.08978994
000310 89 85 b2 3e 81 ff bf 3c a8 dc ee 3e f9 0d 0d 3f
       0.34867504 0.023437263 0.46652722 0.55099446
000320 f7 c6 97 bf b1 de 81 3c 56 30 00 bf ce bf e8 be
       -1.1857594 0.015853258 -0.50073755 -0.45458835
000330 60 6c 9f be 31 ad 77 3e 13 54 dd 3e f0 f9 76 be
       -0.3113737 0.24187161 0.43228206 -0.24118781
000340 79 d5 14 bf 17 6a 45 3e f4 d6 c7 3e 3b 92 5e be
       -0.58138233 0.19278751 0.39031184 -0.2173547
000350 d5 45 e0 bd 09 a3 c5 be f7 d3 ee be 79 e8 d1 3e
       -0.109508194 -0.38600948 -0.4664609 0.40997675
000360 8c af c6 bd d5 33 ae bd 00 28 25 bf 18 3d ce 3e
       -0.09701452 -0.0850598 -0.6451416 0.40280986
000370 5b d4 72 be 49 4a 6c bf 16 5f 92 3f 44 0c d8 be
       -0.2371382 -0.9230085 1.1435268 -0.42196858
000380 95 4b 65 3f f6 5f 86 3f a5 5e 6d 3f 39 ee 16 bf
       0.89568454 1.0498035 0.9272254 -0.5895725
000390 40 28 20 bd 72 e2 cd be 13 66 60 bb 66 de a6 3f
       -0.039100885 -0.40211827 -0.0034240528 1.3036621
0003a0 a9 5c 81 3e 15 e5 4e 3d 72 5c 97 3e 6a 95 e7 3e
       0.25266007 0.05051144 0.29562718 0.4523118
0003b0 eb 80 e3 bd f5 0b 2c bd 8e 8f 2e 3d 14 d0 57 3d
       -0.111085735 -0.04200359 0.042617373 0.052688673
0003c0 50 a3 0a 3f 24 bc 21 3f 78 21 83 3e 05 35 0a 3e
       0.54155445 0.63177705 0.25611472 0.13496788
0003d0 1e c6 1b bf b2 45 60 3e d5 5d 04 bf c1 91 ca be
       -0.6084918 0.21901587 -0.51705676 -0.39564326
0003e0 e5 b4 ed be 40 1d f0 be 1d 89 c8 bd 3c 89 c2 3e
       -0.46427074 -0.46897316 -0.09791777 0.37995327
0003f0 f4 62 09 3f 69 0d 1d bf ea 49 02 bf 90 cf 28 bf
       0.53666615 -0.6134859 -0.50894034 -0.65941715

network_body._body_endoder.seq_layers.0.bias f4 [128]
000000 85 b9 f6 3c 02 1c ca 3c b5 15 07 bd c7 e6 97 3d
       0.03011776 0.024671558 -0.032979686 0.07417064
000010 f8 94 75 3d 48 28 bd bd 26 2f 3a bc 8a 88 a6 3d
       0.05995652 -0.09236199 -0.01136378 0.081315115
000020 dd 1a 0b be 32 59 a8 3c 84 b8 83 bd 28 d9 08 3d
       -0.13584466 0.020550344 -0.06431678 0.03341022
000030 65 91 80 3c c4 10 05 3d 21 74 09 3d 3e 57 0f 3d
       0.01569433 0.032486692 0.033558015 0.03499531
000040 42 6b 5f 3d 4b 13 4a bc 18 a6 19 3d f6 82 06 3d
       0.05454565 -0.012333701 0.037511915 0.032839738
000050 e4 7f 42 3d 04 c2 1d 3b c9 45 30 3d 02 1a 4c 3d
       0.047485247 0.002407194 0.043035302 0.04982949
000060 8d 34 0e bd 6f d6 21 ba 49 db 17 3d 06 2d 45 3b
       -0.034718085 -0.00061736157 0.03707436 0.003008665
000070 de ba ea 3c 76 4d e1 3c fe 3f bd bc 3a 7b 48 3b
       0.028653558 0.027502757 -0.023101803 0.0030591027
000080 38 bf 3a bb 86 37 c0 3d 7b 8a ef bb c7 3a 24 3d
       -0.0028495323 0.0938559 -0.0073102093 0.040095117
000090 a9 33 72 3d 0e 7a 22 3d 80 23 f1 bc 8d d3 9e 3c
       0.0591313 0.03966718 -0.029435873 0.019387985
0000a0 bd 87 6c 3d 6d a3 b1 bb 9d 8b 02 3d 54 81 2e 3c
       0.057746638 -0.005421093 0.031871427 0.010650951
0000b0 bf 3d 7b 3d e0 71 21 3d 89 1f 3e 3d 23 df 80 bc
       0.061338183 0.03941524 0.046416793 -0.0157314
0000c0 69 83 31 3d 5d e2 c3 3b f2 bf 5e 3d 18 7d c0 bc
       0.043338213 0.0059779123 0.054382272 -0.02349715
0000d0 08 e9 af 3c ea a1 99 3d c7 3d 20 3d 93 38 e3 3a
       0.021473423 0.07501586 0.039121415 0.0017335586
0000e0 8b 1c 5a 3c cc c0 14 3c d2 dd 8b 3c c4 ef 72 3d
       0.013312469 0.0090791695 0.017073546 0.05931069
0000f0 d6 ce 8f bd 18 d5 66 3d 2e 5e cc bb 2b b6 e4 3c
       -0.07021873 0.056355566 -0.006236813 0.027918896
000100 e3 b2 1b 3d 82 5a 76 3d d3 14 b6 bd bc c9 e6 3c
       0.038012397 0.06014491 -0.08890691 0.028172366
000110 20 c7 23 3d 76 5c 89 3d 58 69 2c 3d e1 9b 78 3d
       0.039984822 0.06707089 0.04209265 0.060695533
000120 da e8 37 3d ef 8c 44 bd b2 4b 85 bc e4 90 2c 3d
       0.0448998 -0.047985967 -0.016271446 0.042130366
000130 ed 6b de 3c 25 1e 61 3d 82 2a 24 bd 7e 29 e3 3b
       0.027151072 0.05496039 -0.0400796 0.0069324365
000140 65 ed c0 3d 05 6b 47 bd 14 36 3e 3d 97 b3 98 3d
       0.094202794 -0.048686046 0.04643829 0.07456129
000150 16 38 05 3d 4d 14 8c ba 97 41 0c 3d 3d 62 7d 3c
       0.03252419 -0.0010687202 0.03424224 0.015465316
000160 0b 41 24 3d 5b 9b d4 3c e4 c4 b0 ba e2 da d4 bc
       0.040101092 0.025952986 -0.0013486412 -0.025983278
000170 ac 34 7c bb 3c 29 91 3c bd 5f 9b bb ea 4e 4f bb
       -0.0038483543 0.017719857 -0.0047416375 -0.003163273
000180 34 36 cc 3d 08 64 35 3d 28 90 9c 3d 03 0a 51 3c
       0.09971276 0.04428485 0.07644683 0.012758735
000190 da f4 1d 3c 27 a1 29 3c 21 9a 4d 3c 3b 85 97 bc
       0.009640897 0.010353363 0.012548954 -0.018496146
0001a0 2d b4 41 bb d2 10 a8 3c 3c 5e db 3d 76 99 51 3d
       -0.0029556856 0.020515833 0.10711333 0.051171742
0001b0 14 b3 ab 3c 82 02 cd 3c eb 4f 10 3c 5e b9 d6 bb
       0.020959415 0.02502561 0.008808116 -0.006552859
0001c0 ff 00 15 3d 0d 85 0f 3c f9 38 46 bd 06 d4 1a bd
       0.036377903 0.008759749 -0.048394177 -0.037799858
0001d0 59 dd f8 ba db 89 24 bb 90 a5 9d bd 57 9e 37 3d
       -0.0018986865 -0.0025106582 -0.07697594 0.04482874
0001e0 a7 c3 a9 bc a9 43 76 3d 89 d3 08 bd dc e1 9c 3d
       -0.020723177 0.06012312 -0.03340486 0.07660267
0001f0 91 f8 3c 3d 60 78 10 3d 2f 86 c4 3c 67 62 36 3d
       0.04613549 0.03527105 0.023989765 0.044527438

network_body._body_endoder.seq_layers.2.weight f4 [128, 128]
000000 55 bd e9 bc e0 f8 6b bd db 54 19 3b 99 9d 72 bd
       -0.028532663 -0.057610393 0.0023396525 -0.059232328
000010 24 27 ef bd d6 82 ff 3d e4 89 ad bc 16 3c ef bc
       -0.11677387 0.12476127 -0.021183915 -0.029203456
000020 9e 30 03 bd 5f 41 1b 3d 63 c5 53 3e 73 84 d0 3c
       -0.032028787 0.03790414 0.20680766 0.025453782
000030 57 2e ea 3c 10 10 38 3e 6f 03 16 3d 3c 0a 9d bd
       0.02858655 0.17974877 0.03662437 -0.07667968
000040 f0 40 9a 3d 0e db b3 bd 26 93 6d bb 09 71 1d be
       0.07531917 -0.08782016 -0.0036251037 -0.1537515
000050 3f ff c5 bd 21 6b 01 3e d6 c0 b6 3d a7 76 76 3d
       -0.09667825 0.12638523 0.08923499 0.06017175
000060 12 97 20 3d 9d 0c 48 bd 7c ae 1e bd 91 af 40 3d
       0.039206572 -0.048840154 -0.03874062 0.047042433
000070 f7 6c 46 bd 12 31 08 bc 2d f0 9f bd 4c cd d2 3b
       -0.04844376 -0.0083124805 -0.07809482 0.0064331647
000080 26 eb b7 bd 42 5c d9 bb 79 76 97 bd 1f b0 64 3d
       -0.08980398 -0.0066333124 -0.07395644 0.055832025
000090 f5 68 a5 bd 52 be 11 be f2 71 cc 3d a8 e2 3f bd
       -0.080766596 -0.14232758 0.09982671 -0.046847016
0000a0 7f 3f 4c 3e 2a 7c 8e bd 6f 15 06 be af 0f 25 be
       0.19946097 -0.06957276 -0.13094114 -0.16119264
0000b0 d0 b1 c4 bd 3e bf 16 bd d7 c4 46 bd 20 30 a3 bd
       -0.096042275 -0.036803477 -0.048527565 -0.079681635
0000c0 73 f7 47 3d c3 a7 24 be 52 fa 8e 3d 44 fb c2 bd
       0.04881997 -0.16079621 0.069813386 -0.09520581
0000d0 ed bd f6 3c 2d 37 02 be 2b 84 bd 3c 77 5a 9b bd
       0.03011986 -0.1271636 0.023134312 -0.07585614
0000e0 43 54 0d 3d 48 f6 91 ba 8d 84 da 3d f2 62 19 3e
       0.034504186 -0.001113602 0.10669813 0.14979151
0000f0 9e 77 07 3e 1d 9a 1c be 7a 82 55 3a 5d 73 98 bb
       0.13229224 -0.15293165 0.00081447477 -0.0046524242
000100 83 f0 d6 3b a4 24 f7 3d 64 62 aa 3b e0 d7 16 3b
       0.006559433 0.120675355 0.0051997174 0.0023016855
000110 da 18 49 3e f4 8a 22 3d 7c c1 1a be ad a6 80 bb
       0.19638386 0.039683297 -0.15112871 -0.0039261193
000120 2b 2c b8 3c 00 8c d3 3d 12 29 04 3e 5f 08 19 3d
       0.022481998 0.10329437 0.12906292 0.0373615
000130 46 9c 8a 39 83 b5 83 bd 5c f6 0b bd 44 87 fd 3c
       0.00026437844 -0.06431105 -0.034170493 0.030948289
000140 c9 b0 87 3d a6 ad e1 bd 60 d6 0a 3e 67 61 a1 3d
       0.06625516 -0.11019449 0.1355834 0.07879906
000150 12 b6 f5 bd 53 8a a1 3d 0e c6 0a 3e 95 c8 2a bd
       -0.11997618 0.078877114 0.13552114 -0.041695196
000160 7e 1e 09 3d 73 65 af 3c a2 6d bc bd 6e 45 05 bd
       0.033476345 0.02141068 -0.09200598 -0.032536916
000170 94 c6 89 bd 82 1a 31 3d 78 50 c6 3c 3e dc 28 be
       -0.06727329 0.04323817 0.024208292 -0.16490266
000180 58 81 03 be 67 07 de bc c7 2c 15 be 43 87 55 bd
       -0.1284231 -0.02710314 -0.14567862 -0.05213095
000190 b9 e2 22 be eb 21 e1 3d 71 0b c9 bd d3 a6 13 3b
       -0.159068 0.109927975 -0.098166354 0.0022529855
0001a0 3f 53 c1 3d 94 64 8a bd 57 4a fb 3d 51 4e 02 3e
       0.09439706 -0.06757465 0.122700386 0.12725188
0001b0 51 74 55 3d 0e f0 57 3c 5c 99 0c 3c 08 70 15 bb
       0.05211288 0.013179792 0.008581486 -0.0022802372
0001c0 13 1e e0 3b f4 13 34 3d a4 ac e9 bd b2 73 26 3d
       0.0068395226 0.04396434 -0.11409882 0.04063768
0001d0 c8 46 e3 3c d2 fd f9 3c 7b 6b 06 3e 8a 69 4c be
       0.027743712 0.030516539 0.13126938 -0.19962135
0001e0 ba 9c 85 3d e9 c6 9f bd a5 33 d6 3d 8d 24 8a bd
       0.06524034 -0.07801611 0.10459069 -0.06745253
0001f0 cf 33 f8 3d df 3d b9 3c a0 ef 97 3d 8f cc e8 bd
       0.12119257 0.02261251 0.07418752 -0.113671415
000200 4b 8d 62 bd a0 b0 26 bd 10 b2 0f 3e d1 b7 05 3e
       -0.05531053 -0.040695786 0.14032769 0.13058402
000210 f8 73 ad 3d bf e9 8d bd e3 2c c5 3c c5 d5 69 3d
       0.08469385 -0.06929349 0.024069255 0.057088632
000220 ab c3 7c bd 2b 34 48 3d 1d 69 f9 bd 3f ff d9 bd
       -0.06171004 0.048877876 -0.12178252 -0.106443875
000230 9d a4 41 bc 7a 71 3e be 90 f1 74 3e 8f 72 f6 3d
       -0.011819032 -0.18597975 0.23920274 0.12033569
000240 76 f7 e1 bd 68 f6 3d be dd 9d 64 3d c1 7e 65 3c
       -0.110335276 -0.18551028 0.055814613 0.014007271
000250 24 b3 19 3e af 0e 02 3e 3a 5f 32 bc 9e 14 ed bd
       0.15009743 0.12700914 -0.010886962 -0.11576198
000260 ce 57 f4 bd 3c de d8 bd 23 04 7c be 43 4b b9 3d
       -0.1193081 -0.10589263 -0.24610953 0.09047558
000270 37 71 3c 3d b4 d5 44 3e 29 63 02 be 62 fa 83 bd
       0.046006408 0.19222146 -0.12733139 -0.06444241
000280 05 97 99 3c 32 50 2c 3e f3 96 81 3d 6e 30 20 3b
       0.01874877 0.16827467 0.063276194 0.002444293
000290 08 93 d5 bd ea d6 22 3d 5a 54 9e 3a 8e bd 8b 3d
       -0.104284346 0.03975574 0.0012079582 0.06823264
0002a0 d2 74 20 bc c7 f4 1e bd e8 b3 3a bd 23 27 85 3d
       -0.009793477 -0.038807657 -0.04558173 0.06501605
0002b0 f8 94 4a 3e fd 8d b6 3c dc 9b 19 3d 9d d2 db bd
       0.1978339 0.022284502 0.037502155 -0.10733531
0002c0 08 b3 0a 3d 49 3d 11 bd f1 db b1 3d 32 85 5e bd
       0.033862144 -0.035458837 0.086845286 -0.054326244
0002d0 0a 1c d1 bc 8e 62 d6 3c 5c 5f da bc ff 4b f4 3c
       -0.025526065 0.026170041 -0.026656799 0.029821394
0002e0 59 ba 44 bd 19 37 ba 3b a2 61 34 bd 40 c1 fe bc
       -0.048029277 0.0056828377 -0.044038422 -0.031098008
0002f0 1d 68 a3 bc 44 26 5e 3c de ee 44 3d fd 31 84 3d
       -0.019947106 0.013558928 0.048079364 0.06454847
000300 23 d3 87 bd ce 35 c3 3a b1 46 f9 3c 73 50 bd bd
       -0.06632068 0.0014893354 0.030429216 -0.0924386
000310 d6 d9 9c bc 7b 18 1b 3d 8c 61 36 bd 4f f1 f9 bb
       -0.019146841 0.037865143 -0.04452662 -0.007627643
000320 71 8c 6c 3d 23 a2 c8 3c d7 72 97 bd 52 0d b1 3d
       0.057751123 0.024491375 -0.07394951 0.08645119
000330 9a 61 27 bd df c6 0e be 02 d6 81 3d f2 a0 33 3b
       -0.040864564 -0.13943051 0.06339647 0.0027409163
000340 cf 4d 84 3d 6b 30 08 bc e6 80 ed 3c 21 d2 77 3d
       0.06460153 -0.008312325 0.028992128 0.06050313
000350 66 fb a9 bd 14 e9 e7 bd 42 96 ca 3d e6 84 c9 bd
       -0.082999036 -0.11323753 0.09891941 -0.098398015
000360 e1 96 26 be 9b fe c3 bd fc 9c 10 3d 14 43 cc bc
       -0.16268493 -0.095700465 0.035305962 -0.02493433
000370 4d 44 c9 3d 2d da 32 bd 10 b1 42 3e dc c4 a0 bc
       0.098274805 -0.0436651 0.19012856 -0.01962512
000380 2f fa 56 3e fa 2f 49 3c ba 72 2a 3e 9d d4 bd 3d
       0.20993875 0.012279505 0.16645327 0.092690684
000390 b7 49 07 bd b1 39 19 3e 01 87 34 bd 31 c8 9b bd
       -0.033029284 0.14963414 -0.044074062 -0.07606543
0003a0 bf db 87 3d 7f 90 b8 3d 14 c7 7c 3c 15 aa 4f 3d
       0.0663371 0.090119354 0.015428323 0.050699312
0003b0 0b b2 59 3e a5 09 71 be 2d d0 c4 bd 48 b5 b8 3a
       0.21259324 -0.23538835 -0.09610019 0.0014092112
0003c0 ee e8 50 3e 79 ff 30 be ff e0 00 be a1 f6 d8 bd
       0.20401356 -0.17284955 -0.12585829 -0.10593916
0003d0 33 e8 e9 3d 14 cd 24 3e d8 ec a7 3d b9 f5 56 3e
       0.114212416 0.16093856 0.08199471 0.20992173
0003e0 de fc a8 bd 9b 41 a6 38 de f1 c4 bb 5d a2 64 3c
       -0.082513556 7.927717e-05 -0.006010278 0.013954726
0003f0 58 63 11 bd 94 41 22 3e 47 14 50 3d 51 2e 0d 3e
       -0.035495132 0.15845329 0.050800588 0.137872

network_body._body_endoder.seq_layers.2.bias f4 [128]
000000 8c 92 91 bc 87 19 4b 3d eb 1e 39 3d 97 e2 40 3d
       -0.017770074 0.04958489 0.0451955 0.047091093
000010 16 53 92 3d b0 d7 7e 3c be dc 8e 3d 0c 5b 70 3c
       0.07144754 0.015554354 0.06975697 0.014670145
000020 8a 45 22 3c 7b 46 fa bb 76 aa e7 3b e1 14 81 3d
       0.009904275 -0.0076377965 0.007069881 0.063028105
000030 99 ce 37 3d 40 12 84 3c 3c 3a 41 3d 2d 6f 33 3c
       0.04487476 0.016121984 0.047174677 0.010951799
000040 2a 99 3a 3c 99 21 d6 3c ba ad ba 3c e4 87 ab 3c
       0.011389056 0.026139067 0.022787917 0.020938821
000050 9f c2 10 3d 92 d6 3a bc 94 71 38 3c 27 62 4a 3d
       0.035341855 -0.011403697 0.011257548 0.04941001
000060 a8 00 ec 3c 1c d9 aa 3d cc 05 e8 3c 57 00 a4 3c
       0.028808907 0.083421916 0.028323077 0.020019693
000070 37 36 1b 3d 63 4c 67 3d b7 0c 22 3b cc 8b b4 3b
       0.0378935 0.056469332 0.0024726817 0.005509829
000080 bd ef 1b 3d 8d 76 9a 3d 72 57 08 3d eb cb 2c 3d
       0.03807043 0.07542143 0.03328652 0.04218666
000090 10 80 34 3d 9e 66 1c 3c 39 bf 89 3b 36 a0 38 3d
       0.044067442 0.00954595 0.0042037037 0.045074664
0000a0 c2 34 05 bd ac e2 94 3d 0b 19 0c 3d b3 8b d4 3c
       -0.032521017 0.07269797 0.03420357 0.02594552
0000b0 7a 07 95 3d 90 9b ac 3d b6 ad ee 3c 2d 4e 9f 3c
       0.07276817 0.08428109 0.029135566 0.019446457
0000c0 36 92 03 bc 20 22 06 3d dc b4 04 3d fa b5 81 3c
       -0.008030465 0.032747388 0.032399043 0.015833843
0000d0 ab 7e 68 3c cb 4d ae bc 14 7a 97 3d c9 f5 5b 3b
       0.014190356 -0.021277329 0.073963314 0.0033563247
0000e0 3e d9 61 3d 3f 46 b4 bb e9 60 4c 3c 83 05 aa 3b
       0.05513882 -0.005501538 0.012474277 0.0051886453
0000f0 52 e6 ed 3c ad 8b 5d 3c 11 f1 cd 3c e8 35 10 3b
       0.02904049 0.013522071 0.025139363 0.0022004787
000100 9d 6c 2c 3d 82 10 02 3d b5 9b d5 3c 7a f3 b6 3d
       0.04209577 0.031754024 0.026075223 0.08933158
000110 b4 28 c1 3b bf b6 6f bc 3d 60 a8 3d c9 b3 ca bc
       0.005894745 -0.014630972 0.08221481 -0.024743931
000120 7b 5f a8 3c ad 5a 29 3d f1 73 89 3c 73 94 2e 3d
       0.020553341 0.04134624 0.016778918 0.04262204
000130 c1 d8 c8 3c 9a 07 11 ba c1 8c 09 3d 1c ab 57 3d
       0.024517419 -0.0005532444 0.0335815 0.052653417
000140 f3 83 d8 3c 4d b3 cc 3c 7d d3 fb 3c 8c fc 09 3d
       0.026430106 0.024987841 0.030740494 0.033688113
000150 56 31 cf 3c 79 06 43 3c 95 bc 61 3d b3 57 88 3d
       0.02529208 0.011903399 0.055111486 0.06657352
000160 3a 01 93 3c ea c6 ad 3c 71 c9 c0 3b ce 18 08 3d
       0.01794492 0.021213014 0.0058833887 0.03322678
000170 96 f0 f7 bb 57 48 19 3d 34 03 9f 3d 72 15 10 3d
       -0.007566522 0.037422504 0.07764283 0.0351767
000180 05 eb 80 3c 02 ad 99 3d 74 53 0b 3d 5b 0e 77 3d
       0.015737066 0.07503702 0.034015134 0.060316425
000190 ba 99 13 3d e7 ab 91 3c 3d f4 1f 3c e7 56 90 3d
       0.036035277 0.017782165 0.009762821 0.07047825
0001a0 2c d7 0f 3d 8b 50 d5 3c 71 ba 03 3d 55 de 4b 3d
       0.035117313 0.026039382 0.032160226 0.04977258
0001b0 06 c9 07 3d 1e 8a 9b 3c fe ac 2d 3d 9d 4f a4 3d
       0.033150695 0.018986758 0.042401306 0.080229975
0001c0 ea 6f 03 3d c7 f5 1d 3d 17 38 f5 3b ed 73 01 3d
       0.03208915 0.03856447 0.007483493 0.031604696
0001d0 97 84 c1 bc 09 31 34 3d df 9f 93 3c 3e 3d 72 3c
       -0.023622794 0.043992076 0.018020568 0.014785109
0001e0 85 90 7a 3d 4d ca 88 3d 84 c6 54 3d 34 32 9e 3d
       0.06117298 0.06679211 0.05194713 0.07724419
0001f0 7a d8 6a 3c 21 ed 21 3d d1 c0 cc 3b 00 a0 79 bb
       0.014333839 0.039532784 0.0062485714 -0.0038089752

action_model._continuous_distribution.log_sigma f4 [1, 2]
000000 fa e7 89 bd ca 6e 9f bd
       -0.06733699 -0.07784803

action_model._continuous_distribution.mu.weight f4 [2, 128]
000000 b7 cd 91 bc 4a 2f f2 3d 12 5c 0f 3e 10 bc b6 bd
       -0.017798288 0.11825426 0.13999966 -0.08922589
000010 1a a2 5b bd 27 7b 69 bd 8d 2c 96 3c 53 39 90 3d
       -0.05362139 -0.057002213 0.01833179 0.07042184
000020 45 53 c8 bc d0 80 2b 3c 45 7d 1b bc e1 61 00 3c
       -0.024453769 0.010467723 -0.009490316 0.007835836
000030 4d a1 ae bd e6 62 28 bd 7f f0 20 bc 69 46 af bc
       -0.085268594 -0.041109942 -0.009822964 -0.021395879
000040 68 08 91 bc 38 17 63 bd 07 89 eb bc 4b 4b 77 bd
       -0.017704204 -0.055442065 -0.028751863 -0.06037454
000050 b0 05 81 3d f0 1d 15 3c f9 4c 49 3c 3f 18 6d bd
       0.06299913 0.009101376 0.012286418 -0.05788445
000060 97 fb 05 3d 60 fe c9 bd 5a 4e 6e 3d ee 98 52 bd
       0.032710638 -0.09862971 0.05818019 -0.051415376
000070 41 6b 99 bd 1c 7c 0f bd c7 6d c3 bc 69 17 2f 3d
       -0.0749116 -0.03503047 -0.023856057 0.042746935
000080 25 bb 40 3c bf 48 24 3e b2 43 0e bd 0e 8d c0 bd
       0.011763369 0.16043375 -0.034732528 -0.09401904
000090 6f e9 65 3b 90 71 34 3d 05 98 d1 bc 28 83 1e 3d
       0.0035081764 0.044053614 -0.025585184 0.0386993
0000a0 74 5e fb 3a 4f 5c dd 3d 30 e1 b0 3d 53 23 1a bd
       0.001917793 0.10808622 0.08636701 -0.037631344
0000b0 e4 7d 8f 3d 51 a7 59 bd 7c 90 88 bd d0 08 b9 bd
       0.070064336 -0.05313808 -0.06668183 -0.09034884
0000c0 b5 62 00 bc f6 28 96 3d 2b b1 af 3c 8f 48 14 bd
       -0.007836034 0.073320314 0.021446785 -0.03620201
0000d0 de 5e 5d 3d 3e b8 a0 3c 63 23 2b 3e f8 21 0d 3d
       0.05404555 0.019619104 0.16712718 0.034456223
0000e0 66 da a4 bd c6 3c df bc 3f 4d 47 bd 18 4e ba bc
       -0.08049469 -0.027250659 -0.048657652 -0.022742316
0000f0 cd 26 90 3d a7 42 57 3d 39 66 66 bd be d1 24 3d
       0.07038651 0.0525538 -0.05624983 0.04023909
000100 b0 16 e7 bc b9 7b 73 bb 20 3b c9 bc 32 00 c1 bc
       -0.02820906 -0.0037152602 -0.024564326 -0.023559663
000110 77 85 3e bc b5 b3 1d 3d a5 05 eb 3d fb 11 1e bc
       -0.0116285 0.03850146 0.11475686 -0.009647842
000120 ef 77 b7 bc 01 67 b3 3d 0d a9 17 bd 8b d9 dd 3d
       -0.022396056 0.08759881 -0.037026454 0.10832509
000130 4b 00 5e bd b1 03 d7 bb 38 70 8a bd 75 1c b8 bd
       -0.0541995 -0.0065617193 -0.06759685 -0.08989803
000140 8c 82 5c bd 1f 15 54 bd 97 27 83 bd 01 f1 a2 3d
       -0.053835437 -0.051777955 -0.064040355 0.07956124
000150 d7 eb 17 bd 72 7e 60 bd 02 4b b0 3d 48 ef 29 3d
       -0.03709015 -0.054808088 0.086080566 0.041487962
000160 ba 20 7d 3c aa 80 df b9 66 e0 29 bd a4 90 a2 3d
       0.015449697 -0.00042629737 -0.04147377 0.07937744
000170 1b 69 08 bd ed 0c f6 bc cf cc b8 3d 00 85 94 bc
       -0.03330336 -0.03003546 0.09023439 -0.018129826
000180 b4 ba a1 bc 46 3f da 3d 65 2d 90 bc e0 19 a7 bd
       -0.019742347 0.106566 -0.01759977 -0.08159232
000190 b0 3f 49 bd b6 2e b7 3d cb ab 49 3c a0 d3 3d bd
       -0.049133003 0.08944456 0.012309025 -0.0463444
0001a0 b9 48 1c bd bf c6 b8 3d 1e b1 64 3c cf cb fd bc
       -0.03815529 0.09022283 0.013958244 -0.030980973
0001b0 da 30 00 bd 8a 0a 83 bd 4e 46 a4 3c 26 21 eb 3d
       -0.03129659 -0.063984945 0.020053055 0.11480932
0001c0 78 20 a7 bd ac c4 9c bd 17 1e b5 3c 4e 4e 34 bd
       -0.0816049 -0.076547 0.022109075 -0.04401999
0001d0 c3 56 ec 3c ac c2 33 bd c4 b3 0e 3d dc 49 7b b9
       0.028849965 -0.043886825 0.034839407 -0.0002396474
0001e0 7b 77 ab 3d f4 e7 66 bd 69 d4 99 bd a9 ed ac bd
       0.083723985 -0.05637355 -0.07511217 -0.084437676
0001f0 68 6d 74 3d 42 1e e7 3d a7 bd 3b 3d 63 f0 0c bd
       0.05967465 0.11285068 0.045835163 -0.03440894
000200 08 8a 92 3c bd 26 65 3d 0c b5 33 3d 89 6a 73 bc
       0.017888084 0.055945147 0.04387383 -0.014856943
000210 53 18 06 3e 83 d4 ca 3c cc 2a 29 3e 89 66 07 3a
       0.13095216 0.024759537 0.16520232 0.000516512
000220 36 52 5d 3d bb ad a9 3c 34 3a 42 bd 82 44 d2 3d
       0.05403348 0.020712724 -0.047418788 0.10266973
000230 a4 1e 13 3c 68 2d cd 3a 19 e8 aa 3d ba 9f 56 bd
       0.008979473 0.0015653791 0.0834505 -0.05239842
000240 0a f7 80 3d a5 9a 10 bd c8 02 95 3d 4a 4a bc bb
       0.06297119 -0.03530373 0.07275921 -0.0057461606
000250 f8 4e a8 3d 03 d4 b1 bc 1f a6 9b bd 79 fd da bd
       0.08218187 -0.02170754 -0.076000445 -0.10692877
000260 77 e5 bd 3d 79 4a c3 bd 21 73 d1 3d 80 20 22 3c
       0.092722826 -0.09535689 0.10227037 0.009895444
000270 24 71 7a 3d 89 2f a4 bd 85 39 3b 3d 7b 63 81 3d
       0.061143056 -0.08016879 0.04570915 0.063178025
000280 65 51 f9 bc 82 b1 02 bd 5f 6b cf bd dc 64 8f 3d
       -0.03043432 -0.031907566 -0.10127901 0.07001659
000290 a8 da c0 3d da e3 5a 3d fb 3e 83 bc ca fc c8 3d
       0.09416705 0.053439952 -0.016021242 0.09813841
0002a0 2b bd 62 bb 46 60 f6 3d 23 7b a2 bb 75 25 60 bd
       -0.0034597616 0.120300815 -0.0049585267 -0.05472322
0002b0 67 7d e3 3d a0 ac d2 bd 7a cd a1 3b df c2 5d 39
       0.11107903 -0.10286832 0.004937825 0.00021148798
0002c0 0f 21 e5 3c bc ec aa bc 99 2f 99 3d 53 3f 9f 3c
       0.027969865 -0.020864837 0.07479782 0.019439375
0002d0 4f 45 52 3d 49 b6 ec 3b 92 b8 3a bc 95 39 8a 3b
       0.05133563 0.0072238785 -0.011396544 0.00421829
0002e0 ba 19 f1 bc e2 fa 4f 3d a5 37 72 3b 28 d0 0c 3d
       -0.029431213 0.05077637 0.0036959436 0.0343782
0002f0 18 30 a5 bd 13 61 5f 3d 0a 77 73 3c 06 f1 0d 3c
       -0.08065814 0.054535937 0.014859924 0.0086634215
000300 94 3a 29 3d e6 1b 9c bd e0 9d 08 bd 08 63 eb bd
       0.04131563 -0.07622509 -0.033353686 -0.11493498
000310 f1 31 1c bd e6 78 be bc d6 9a 15 3d 08 0e 07 bb
       -0.038133565 -0.023251008 0.036524616 -0.0020607729
000320 ef 71 18 3d 90 44 c7 bc 8f f8 a3 3c fd 83 a2 3d
       0.03721803 -0.024324685 0.020015983 0.07935331
000330 49 03 47 3b e9 fa 40 bd 91 02 ba 3a 41 a3 11 bc
       0.0030366948 -0.047114287 0.0014191439 -0.00888902
000340 f0 75 5a 3c ef 0c de bc 84 0e 93 bc ad a8 8e bd
       0.013333783 -0.027105777 -0.017951258 -0.06965766
000350 59 34 c4 bc 1e 75 51 3d 55 88 f0 3b d6 8d e5 3d
       -0.023950743 0.051137082 0.007340471 0.11208694
000360 d5 7c 47 3d a3 5a ae 3d 30 c4 da 3c 72 2e f1 3c
       0.048703033 0.08513381 0.026704878 0.029441092
000370 05 ce d8 bc 33 1d 43 bd f5 75 a5 3d e4 61 dd 3d
       -0.026465425 -0.04763527 0.08079139 0.10809687
000380 86 89 86 3d 18 26 b7 bb 5f 2f cc 3d a1 86 af 3d
       0.06569199 -0.005589258 0.09969973 0.085706
000390 25 0e 54 3d 24 24 63 3d c5 85 32 3d 7a ac 01 be
       0.0517713 0.05545439 0.043584604 -0.12663451
0003a0 7b c4 27 bd 8d 72 03 3d a2 2c d4 bd 10 d0 67 bd
       -0.040958863 0.032091666 -0.103600755 -0.05659491
0003b0 77 5d 8f 3d 73 d7 f8 bc 9b 3d 93 bd 1c 64 af bc
       0.07000249 -0.030376172 -0.07189485 -0.02141004
0003c0 0e 97 f4 3c 1a 75 3a 3d 80 cc 92 bd 66 36 3e bd
       0.029857185 0.045521833 -0.071679115 -0.046438597
0003d0 79 35 c6 ba 29 fc 7b bd f5 26 a7 3a 48 1a a1 bd
       -0.0015122137 -0.061519776 0.0012752699 -0.07866341
0003e0 0a be b6 bd 58 99 5e 3c fe b5 aa bd 3a 25 f4 bd
       -0.08922966 0.013586365 -0.083354935 -0.11921163
0003f0 7a fe 14 3d 52 c5 91 3c 00 ee 60 3d f0 fb 9a 3c
       0.0363755 0.017794285 0.054914474 0.018918961

action_model._continuous_distribution.mu.bias f4 [2]
000000 b6 b9 b4 bb 7c 69 77 ba
       -0.0055153025 -0.00094380206

50 f4 [6]
000000 42 00 15 40 e8 22 17 40 3b 5a 15 40 81 0b 1a 40
       2.3281407 2.3615055 2.3336322 2.4069521
000010 b4 04 ee 3f b2 75 03 40
       1.8595185 2.0540586
