RollerBall/Assets/RollerBall.onnx (onnx, 72959 bytes, 9 tensors)

network_body.observation_encoder.processors.0.normalizer.running_mean f4 [6]
000000 8f 4e 3a 3d 08 67 83 3d 5b 2b af 3d de 22 cb 3d
       0.045485076 0.06416136 0.08553191 0.0991876
000010 44 ee ed 3c 1a ec b3 3c
       0.029044278 0.021963168

network_body._body_endoder.seq_layers.0.weight f4 [128, 6]
000000 8d fb cb 3e 50 57 cd be 46 7d 53 3d fe e4 95 be
       0.39840356 -0.40105677 0.051633142 -0.2927627
000010 eb 61 11 3f f0 68 03 3e b1 ab 2d bf 3c 56 fa 3e
       0.56790036 0.12832999 -0.67840105 0.48893917
000020 69 b7 ce be 25 a4 50 bd e4 54 44 bf e0 d2 1a 3f
       -0.40374306 -0.05093779 -0.7669203 0.6047802
000030 0a a6 5a 3f 2c 78 85 3e 6c 68 42 be a8 74 e2 3e
       0.85409606 0.26068246 -0.18985146 0.44229627
000040 eb cc 22 3f 20 10 6f be 32 dd a4 3d 94 e6 1a 3e
       0.6359393 -0.23345995 0.08050002 0.15127021
000050 75 36 2a bf 8d 6a 68 be 7d d0 a9 3c 34 cc 32 3d
       -0.66489345 -0.22696896 0.020729298 0.043651775
000060 4e a0 2d be 55 0e cb 3d f2 b4 cf be e8 19 3d be
       -0.16955683 0.09914843 -0.40567738 -0.18466914
000070 93 cd 28 bf 15 a5 e9 be 0e f3 9a be ee e8 82 be
       -0.6593868 -0.4563376 -0.3026356 -0.25568336
000080 19 71 ef bd b7 fe 09 3f 95 2f d0 3e 64 e6 81 bd
       -0.116914935 0.5390429 0.40661302 -0.06342772
000090 75 ce 86 be af 75 4d 3d 08 a0 a8 be 72 74 ef bc
       -0.2632939 0.05016106 -0.32934594 -0.02923033
0000a0 b1 1d c1 be 9d 10 e4 be 5f 2a 41 3f a8 1b 13 3f
       -0.37717965 -0.44543925 0.7545528 0.57464075
0000b0 ea 37 b3 3d ca e6 5b be 51 63 cf be 73 d7 c9 be
       0.08750899 -0.21474758 -0.4050546 -0.39422187
0000c0 dc 7b df be ee 79 cd bd 54 c2 b6 3e 65 16 98 bf
       -0.43649185 -0.10033022 0.35695136 -1.1881834
0000d0 ea 3e 81 3e 74 35 ba 3e 45 17 b4 3d ce 69 7b be
       0.25243312 0.36368906 0.08793501 -0.2455208
0000e0 03 9d 86 3e d0 92 f6 be f4 10 19 3f ab 28 eb 3b
       0.26291665 -0.48158884 0.59791493 0.007176479
0000f0 05 19 80 3e cd 65 06 3f ba db eb 3e ba 06 d5 3e
       0.25019088 0.52499086 0.46066076 0.41606694
000100 37 d7 b1 3e 99 7c 2b bf 05 0e fc 3e 80 cd a5 bd
       0.34734508 -0.66986996 0.49229446 -0.08095837
000110 0f 41 5d bd 0d bc 0c 3f 3b a7 bd 3e c5 40 8d 3d
       -0.054017123 0.5497444 0.3704165 0.068971194
000120 d7 a1 b4 be e0 1c 97 be f7 f1 20 3f 4d fd 86 3e
       -0.35279724 -0.29514217 0.6286921 0.26365128
000130 80 cc 32 3e cd 75 31 3d c3 08 f6 3d 3b b2 0c 3f
       0.17460823 0.043325234 0.1201339 0.5495946
000140 54 88 eb 3e 5d 44 bf 3d 19 08 ed 3e 2e 5e fa be
       0.46002448 0.09339211 0.4629524 -0.48899978
000150 8f 6c f0 3d 3a 3c d5 3e 4d 09 da 3e 46 d1 17 be
       0.11739456 0.41647512 0.4258522 -0.14825925
000160 c8 63 80 bd 6f c0 18 be cf 7c 2b 3f 57 45 4c 3d
       -0.06269032 -0.14917158 0.6698732 0.049870815
000170 ad 0a 93 bd f1 74 78 3d c6 57 08 bc 86 2f c0 be
       -0.071797706 0.0606584 -0.008321708 -0.37536258
000180 8a 41 24 be 5a eb 04 bf 91 11 3c be b1 4e 34 3e
       -0.16040626 -0.5192162 -0.18366076 0.17608143
000190 dd 53 c7 bd 15 7b 5e 3e 6f ee cf 3e 87 54 32 3f
       -0.097327925 0.2172664 0.40611598 0.6966023
0001a0 7b 88 fb be cd 64 9f 3e 97 3a bd be 60 bb 87 bd
       -0.49127564 0.31131592 -0.36958763 -0.06627536
0001b0 62 5b bf 3d 68 f9 61 3f de 6f 11 bd ce 45 b8 3d
       0.09343602 0.8827119 -0.035507075 0.08997689
0001c0 08 7b 28 3e 9f 73 b6 bd 4d 44 bc be 0b ea 6a 3f
       0.16453183 -0.08908772 -0.3677086 0.9176337
0001d0 49 e4 87 bd de 6a ca 3e bb 30 e5 3e 8a 67 74 bf
       -0.06635339 0.39534658 0.4476374 -0.9547049
0001e0 95 1e 4d 3f b1 b9 b0 3d 6b ce ac bd af d0 04 bf
       0.8012479 0.08629168 -0.084378086 -0.51880926
0001f0 a3 67 93 3d 5d 76 8a be ef d4 cc 3c 36 d7 96 3d
       0.071975015 -0.2704343 0.025003878 0.07365267
000200 b4 d2 89 be 02 03 02 bf 83 ac 81 be b3 61 b1 bd
       -0.26918566 -0.5078584 -0.25326928 -0.08661213
000210 7c fe d4 3e ec 88 91 3e bb c0 73 bd 86 b3 dc be
       0.41600406 0.28424776 -0.059509974 -0.43105716
000220 57 fd 7f bd 39 21 3c 3f ec c9 0f bf 96 c9 99 be
       -0.062497463 0.73488194 -0.56167483 -0.3003661
000230 8b 96 ca bd d2 cb 3f 3e 6a 89 38 3e 93 8c 11 be
       -0.09891995 0.18730095 0.1802117 -0.14213781
000240 c6 d1 bb be 77 6d 1c 3d 5a c4 79 be 9d 65 f1 bb
       -0.36683482 0.03819033 -0.24391308 -0.0073668496
000250 10 0d e1 3e a0 47 83 be f0 09 29 3f 35 e7 dc be
       0.43955278 -0.25640583 0.6603079 -0.43145147
000260 6f e7 08 bf fe 77 26 bd d9 8f 16 be d5 cb 8f 3c
       -0.5347814 -0.040641777 -0.14703311 0.01755325
000270 df 27 25 bf df 80 b9 be 52 65 01 3f 66 75 81 3c
       -0.64513963 -0.36231133 0.5054523 0.01580305
000280 91 3e 2a be 31 98 ac 3d a4 53 de be 57 79 ad 3e
       -0.1662543 0.08427466 -0.43423188 0.33881637
000290 78 81 83 bd 1c a0 c1 be 04 9a 07 3e 08 79 e8 bc
       -0.064211786 -0.37817466 0.13242346 -0.028378025
0002a0 a1 34 9c 3e b1 62 0b 3f b7 0e b7 3d 21 58 7d bf
       0.30508903 0.54447466 0.089383535 -0.989626
0002b0 70 3e d1 bc f0 96 18 bf 65 e2 0e bf 0a c1 05 be
       -0.025542468 -0.5960531 -0.558142 -0.1306192
0002c0 1b 69 0f 3b 64 87 ec 3e 2b 42 84 3e e9 de 9b 3e
       0.0021882716 0.46197045 0.25831732 0.30443504
0002d0 e5 e7 86 bb d7 54 4e 3e 35 fc 52 3d e4 c0 ce 3e
       -0.0041169995 0.20149551 0.051510055 0.4038154
0002e0 2d 88 f7 3e 6a f5 9f bd e3 13 49 3f 0c 30 f5 3e
       0.4834608 -0.07810481 0.7854597 0.4788822
0002f0 80 f8 18 bf b1 6a 24 be 26 57 29 3d 44 6e f6 be
       -0.5975418 -0.16056325 0.041342877 -0.48131
000300 c0 be 07 3f 8b 57 a7 3d 9c bf c9 be 64 6b 88 3e
       0.53025436 0.08170994 -0.39404 0.26644433
000310 a0 94 7c 3d d8 13 2c be e2 ff a3 3e 15 b5 2e ba
       0.061665177 -0.16804445 0.3203116 -0.00066645566
000320 1e 44 f9 3d 54 ae 17 bf 34 93 17 3f 9a 93 b7 bd
       0.121711954 -0.5925038 0.5920899 -0.089637
000330 e2 da 00 3e e1 d9 0a be 16 57 be be 6a 9b bc bd
       0.12583497 -0.13559677 -0.37175816 -0.092093304
000340 f9 e5 18 3f 63 0d 8f 3b b8 eb 37 3f 71 41 e7 3e
       0.5972591 0.0043656095 0.71844053 0.45167115
000350 b2 95 34 be 06 ce 1c bf 66 62 0e 3f 4c c2 21 3f
       -0.17635229 -0.61251867 0.55618894 0.631871
000360 09 f9 db be 5d 7a 00 3e 4e a4 10 3e 98 c6 a3 3e
       -0.42963436 0.12546678 0.14125177 0.31987453
000370 67 7a ce 3e a4 08 3d 3e d5 92 fc bd d0 74 4e 3f
       0.4032776 0.18460327 -0.123326935 0.8064699
000380 3c 33 36 3e c5 64 ae 3e ac 9a 48 bd c8 0e 96 3b
       0.17792982 0.34061256 -0.04897563 0.004579399
000390 a9 bd 80 3e 28 b9 26 bf 2a 95 25 bd 9b e9 4f bc
       0.251447 -0.65126276 -0.040425457 -0.012689973
0003a0 13 48 05 3e 00 d2 38 3f 33 b8 99 bc d1 74 f3 3d
       0.13015775 0.72195435 -0.01876459 0.11887515
0003b0 c6 10 d2 3b 2c fe 17 3f 4d 59 b5 be 61 cc 28 3e
       0.006410691 0.5937221 -0.35419694 0.16484214
0003c0 92 78 f6 be d9 2f b8 be 8b 68 35 bf b8 dd c6 bd
       -0.48138863 -0.35974005 -0.70862645 -0.09710258
0003d0 9c 54 c0 3c 5e a6 b8 3e d0 f7 22 3d a7 76 3c 3f
       0.023477845 0.36064428 0.039787114 0.7361855
0003e0 ec 52 3e be 7f b2 96 3d a9 b8 1e be 68 ae 96 3e
       -0.1858632 0.07358264 -0.1550013 0.29429936
0003f0 37 3f 9c 3d 99 e3 06 3e 28 01 f1 3e 47 19 66 be
       0.07629245 0.13172759 0.47071195 -0.2247058

network_body._body_endoder.seq_layers.0.bias f4 [128]
000000 60 2b 1f be 54 a0 14 be 6d 40 a2 3d 92 8c 4a bd
       -0.1554389 -0.14514285 0.079224445 -0.049450465
000010 b9 fb aa bc cc 43 22 3d ce 00 44 bd 89 f0 14 3e
       -0.020871984 0.039615437 -0.04785233 0.14544882
000020 25 a4 1a be dc 1d 40 be a0 e9 96 bc 61 e6 2d bd
       -0.15101679 -0.1876139 -0.018421948 -0.042456035
000030 16 73 a3 bc d6 ba 35 bd 26 13 93 3d d3 49 64 3d
       -0.019952338 -0.044367634 0.07181387 0.055734467
000040 d6 3c cf 3c a6 2e a1 3a 28 d0 45 bb 15 76 be bd
       0.025297564 0.0012297228 -0.0030183885 -0.09299866
000050 69 d2 5e 3c b2 63 97 bc 45 87 52 3d 9b 9c 22 bd
       0.01359997 -0.018480156 0.051398534 -0.039700132
000060 be 8c ce bd 2b 28 a6 3d 1f 81 89 3d 97 fb 8e bd
       -0.10085438 0.0811313 0.06714081 -0.06981581
000070 ad 07 12 3d c1 53 73 3d 17 87 29 bd 67 fb dd 3d
       0.03565185 0.059406046 -0.041388597 0.10838967
000080 90 d8 82 3c 76 ca 20 bd 8b d3 92 bd d9 d4 88 3d
       0.015972406 -0.03925558 -0.07169255 0.066812225
000090 fe 4c 48 bc 81 4a 01 be ad 1b 96 3d 6e 38 cb 3b
       -0.012225388 -0.12626077 0.073294975 0.0062017953
0000a0 c1 93 a2 bd 73 02 0f be b7 ab b5 bd 04 d3 67 bd
       -0.07938338 -0.13965778 -0.08870643 -0.056597725
0000b0 72 8f b1 3d a2 7c e1 bd 94 9c c5 bd ec f7 aa 3b
       0.08669938 -0.110101 -0.096490055 0.005217543
0000c0 5c 20 60 bd 06 08 24 3c b7 8a c6 3c f8 73 8b 3d
       -0.05471836 0.010011679 0.024236066 0.06809229
0000d0 14 a5 99 bd a6 7b 7c bd aa e3 a7 3d 0d 57 64 bd
       -0.07502189 -0.061641358 0.0819772 -0.05574708
0000e0 a9 3a 6d 3d 03 bc 05 bd 14 a6 6d bd 10 d3 99 3d
       0.05791727 -0.032650005 -0.058019713 0.0751096
0000f0 cb 34 95 3d 4b 7e b9 bd 1c 94 bd bd 8d 8e 66 bd
       0.0728546 -0.090572916 -0.09256765 -0.05628829
000100 31 c0 3b bd 0b 6a 0b be f2 cb b3 3d 96 5f 8e 3c
       -0.045837585 -0.13614671 0.08779134 0.017379563
000110 c8 72 9f 3d 42 db ca bd 65 81 c0 bd 01 94 84 3d
       0.07785565 -0.09905101 -0.0939968 0.06473542
000120 c1 3c 8d bd d2 84 15 3d 62 69 f1 bd 94 62 43 3d
       -0.068963535 0.03650362 -0.11787678 0.047701433
000130 06 01 05 bc 3b 4a 07 be c8 54 d1 3d 1b cf 17 bc
       -0.00811792 -0.1321191 0.10221249 -0.009265686
000140 2c 85 a3 3a 34 aa aa 3c 59 60 58 bd 5b 5c a6 3b
       0.0012475601 0.020833112 -0.05282626 0.0050769276
000150 48 ff 00 3c 9e be 71 bd 6f 98 76 3c fd e6 a7 3d
       0.007873364 -0.059019677 0.015050991 0.081983544
000160 3f 74 bb bc 98 fc 93 3d bb 24 92 bc ac 8b e9 bc
       -0.022882579 0.07225913 -0.01783978 -0.028508984
000170 1d 78 07 3c b7 5a 88 bd 7a 0e dd bc 50 11 3a bd
       0.008268383 -0.066579275 -0.026984442 -0.045426667
000180 4c d6 85 bc d3 8a be bd 61 ed ba bd 8d d0 e3 bd
       -0.016337536 -0.09303822 -0.09127308 -0.11123762
000190 bd 56 39 3c f7 8e b9 bb 8f 9f 56 3c 5e ca 02 bd
       0.011312184 -0.0056627947 0.013099565 -0.031931274
0001a0 dd 13 04 3d d8 74 29 be cc a2 12 3d 60 58 a5 bd
       0.032245506 -0.16548479 0.035799786 -0.08073497
0001b0 d3 27 08 be 22 1d a4 3c 93 da 49 bd 36 f5 19 bc
       -0.13296442 0.020033423 -0.049280714 -0.009396842
0001c0 91 c0 d2 bd 42 49 d5 3b 96 bc 21 3b e5 3f a4 3c
       -0.102906354 0.006508977 0.0024679056 0.020049999
0001d0 1a 51 a0 bc e5 77 28 3d e2 07 95 3b 63 ce a1 bc
       -0.019569922 0.041129965 0.004548059 -0.019751733
0001e0 dd 8d b4 3c 59 16 a0 bd 4d bd ba bc fb 79 c9 bd
       0.022040302 -0.078167625 -0.022795344 -0.09837719
0001f0 a8 79 97 bc 35 61 e2 bc 75 cb 55 3d 8e 50 c7 bb
       -0.018490627 -0.027634243 0.052195985 -0.006082601

network_body._body_endoder.seq_layers.2.weight f4 [128, 128]
000000 06 c0 af bc 5b 8b 8a 3d f9 ef 68 3b e3 0c b1 bd
       -0.021453869 0.06764861 0.0035543425 -0.08645036
000010 54 6a 9e bc ca 6d e2 bc f9 15 3b be f0 6e 7c 3c
       -0.01933781 -0.027640242 -0.182701 0.015407309
000020 ca 53 88 3d a1 98 d2 3d f5 29 e2 bd 74 9b 0d 3d
       0.066566065 0.10283018 -0.11043159 0.03457208
000030 81 42 10 be 53 74 40 bd ce 00 fd 3c cc 2b 02 3e
       -0.14087869 -0.046985935 0.030884173 0.1271202
000040 04 a9 80 bd 7f d2 b3 3d b2 dc 0a bc 89 ef 5c be
       -0.06282237 0.08780383 -0.008475469 -0.2157575
000050 a7 83 56 3c b9 87 ae bd 3d cb 21 3d ae 32 87 bd
       0.013092912 -0.08521981 0.039500464 -0.06601463
000060 08 03 1a be a8 0d 4a 3e e7 c9 33 3d 28 b5 08 bd
       -0.15040219 0.19731772 0.04389372 -0.03337589
000070 8e b3 39 3e f7 24 b8 bd 28 9e fd bc 10 c2 9b 3d
       0.18134901 -0.089914255 -0.030959204 0.07605374
000080 79 0c 95 3c 48 2f b6 3d e3 87 07 3e 7d 21 c3 bc
       0.018194424 0.08895737 0.1323543 -0.02381968
000090 1e 8e 1b be c4 d3 ae 3d 44 af 0f bd 52 e9 72 3d
       -0.15190932 0.08536485 -0.035079256 0.059304543
0000a0 52 f6 17 bd de a8 dd bc 71 e2 c4 bd 7c e4 d1 3d
       -0.037100144 -0.027058061 -0.09613503 0.10248658
0000b0 cb 48 72 3d 39 3d 2a bd b9 62 00 3e 69 16 8f 3d
       0.059151452 -0.041562293 0.1253766 0.06986696
0000c0 3e c2 26 3d 8d 1d bd bb d1 34 84 3e bf 6b 27 bd
       0.040712588 -0.005771345 0.25821546 -0.04087424
0000d0 88 43 a9 bc ea 40 ce 3d 4a f9 0f be 52 83 1e 3d
       -0.020662084 0.10070975 -0.1405994 0.038699456
0000e0 c6 05 02 3e 62 b8 06 3d 8b 74 82 bd be f6 9c 3d
       0.12697515 0.032890685 -0.06369885 0.0766425
0000f0 48 db ca 3d 43 48 e4 bc 12 78 94 bd 3e 0b 57 3e
       0.09905106 -0.027866488 -0.07249464 0.21000382
000100 be dd 08 3d a5 d1 ab bc 5f 48 0d 3c 9f 4c e9 bd
       0.033414595 -0.02097399 0.008623212 -0.113915674
000110 13 b6 ed ba d8 d9 e1 bd 73 97 25 bd 35 27 f6 3c
       -0.0018135927 -0.110278785 -0.040427636 0.030047992
000120 d8 43 94 bd 40 8e 7d bc 9b bd 44 bd ca 8d fc 3d
       -0.07239503 -0.01547581 -0.048032384 0.123317316
000130 28 a7 3f 3c f2 17 25 3d f3 07 34 be 2e 22 3c bd
       0.011697568 0.04030604 -0.17581157 -0.045931034
000140 4a d9 90 bd 9a a0 ca 3c b9 dd 95 bd 32 93 3c 3e
       -0.070726946 0.024734784 -0.07317681 0.18415526
000150 eb b0 4a bd d1 b6 b4 bd 18 18 60 be fd 41 c9 3d
       -0.04948513 -0.08823932 -0.21884191 0.098270394
000160 a3 02 34 3d b5 ff b2 bd c9 85 93 bd 47 15 0d bd
       0.043947827 -0.087401785 -0.07203252 -0.03444412
000170 58 76 30 bd 7f 92 b5 3b e7 68 67 bd b6 86 7d bb
       -0.04308161 0.0055411453 -0.056496527 -0.003868503
000180 43 fa a5 ba 94 d7 58 bd 42 fe 60 3d 39 43 43 be
       -0.0012663085 -0.052939966 0.05492998 -0.19068612
000190 87 8c 3b 3e df 1a 0b ba ae 3e aa bd 08 44 f2 bc
       0.18315326 -0.00053064333 -0.083127365 -0.029573455
0001a0 ca 19 2c bc f2 59 fa 3c fb 86 53 bd af 42 4a 3d
       -0.0105041955 0.030560467 -0.0516424 0.04938
0001b0 53 9c 96 3c 47 46 2b ba d1 86 15 3e c8 c1 a0 be
       0.018385088 -0.00065336045 0.1460221 -0.31397843
0001c0 72 20 6e bc dc 6d 75 3d e4 b2 23 3d bd 64 81 3d
       -0.014534103 0.059919223 0.039965525 0.063180424
0001d0 90 12 bf bc f5 1e c9 bd 5a af a7 3d e7 7c 6c bd
       -0.023324281 -0.09820358 0.081877425 -0.057736304
0001e0 73 9f 27 be 1a 0f 5e 3d 01 ef 07 be 3e 7f 84 bd
       -0.16369419 0.05421362 -0.13274767 -0.06469582
0001f0 a0 91 20 bc fc 38 fe 3d b9 9e 39 3e d7 a0 19 be
       -0.009800345 0.12413213 0.18126954 -0.15002762
000200 8f 98 81 bd 38 1d 02 bd 88 41 d4 bd 30 91 66 bd
       -0.06327926 -0.031766146 -0.103640616 -0.056290805
000210 54 67 32 bd 2b 18 0f bd dc e9 17 3d 7c 93 19 bd
       -0.043555573 -0.034935158 0.03708826 -0.037494168
000220 6f f4 e6 bd d6 d0 27 be b8 f0 54 bc 51 e0 17 bb
       -0.11277091 -0.16388258 -0.012996845 -0.0023174474
000230 c0 d6 6c bd 09 76 bf bc ea f1 e4 bd 6a dc 49 3e
       -0.05782199 -0.023371713 -0.11178954 0.19712988
000240 c0 dd 94 3c 76 88 cc 3d 72 38 8e bd be f1 54 be
       0.018172145 0.09986965 -0.0694436 -0.20795342
000250 ad e4 c1 3d 9f ef c0 bc 4f 1d 3f 3c 99 e9 05 3e
       0.094674446 -0.02355176 0.011664703 0.13077392
000260 dd 45 12 3e c3 09 84 bd 3d a6 42 be 6e 5f e8 bd
       0.14284463 -0.064471744 -0.19008727 -0.11346327
000270 4d 9e 5d be 56 c0 39 3e 73 69 f9 bc 0e 41 4c be
       -0.21642418 0.18139777 -0.03044579 -0.19946691
000280 ad 83 f4 bc 2a 4a e3 bd 62 fe 73 3d 33 82 50 bd
       -0.029847944 -0.1109813 0.05956877 -0.050905418
000290 00 c7 c4 3d 1e e8 9d bd 21 2c f0 ba 43 4f e4 3d
       0.09608269 -0.077102885 -0.0018323698 0.111479305
0002a0 78 50 8c 3d 3c 0c 93 3d b5 49 90 bd 20 ed 41 bd
       0.06851286 0.07180068 -0.070453085 -0.04734528
0002b0 2b eb 62 bd 9f b0 06 3d c3 e9 06 3e ff b8 0f 3e
       -0.055400055 0.032883283 0.1317511 0.14035414
0002c0 21 cf 4e 3d ee 5e c2 3d 19 eb cc bb 5d 16 d6 bd
       0.050490502 0.09490763 -0.0062536118 -0.10453484
0002d0 d7 3c 4a bd 93 bf b8 3c c8 9f 45 3d a3 78 61 bd
       -0.049374428 0.022552287 0.048248082 -0.05504669
0002e0 f4 1e 2a bd 38 05 ca bc 57 94 9c bc 9d 36 77 3c
       -0.041533425 -0.024660692 -0.019113703 0.015088704
0002f0 c4 ee f1 3d de 23 eb 3d 3f a2 46 3c 83 55 82 3d
       0.11813119 0.114814505 0.012123643 0.06363966
000300 93 9e 3c 3e 33 9e 12 bd 30 1a 4c be c9 92 8a be
       0.18419866 -0.0357954 -0.19931865 -0.27065113
000310 6b 23 e5 3d af b7 f2 bc ac 67 13 3d dd 67 26 3e
       0.11188396 -0.029628603 0.03598754 0.16250558
000320 85 7b c2 bd 66 96 a8 bd 5f ec 85 3d 72 a8 50 bd
       -0.09496216 -0.08231811 0.06539225 -0.050941892
000330 b3 28 cc 3b 9e 8d 1d be 9b f1 5a 3d ad 8f 28 3d
       0.0062304377 -0.15386054 0.05345307 0.041152645
000340 bc d9 15 3e db 91 29 be 26 8d 17 bd 32 83 3e 3e
       0.1463384 -0.16559546 -0.036999844 0.18604735
000350 fa 5a 68 3d 22 a1 54 3d 1d bb 3e 3d 81 f9 b2 3d
       0.056727387 0.05191148 0.046565164 0.08738995
000360 7f 77 10 b8 60 c4 86 bd 33 6b 32 be b5 f9 6a bd
       -3.4443565e-05 -0.06580424 -0.17423706 -0.057367045
000370 25 aa 3b bd de 36 b0 3d ac 53 cb 3d d6 3d 35 bd
       -0.04581656 0.08604215 0.099280685 -0.044248424
000380 68 b8 43 bd c0 4e fc bc 8b 78 ee bc 0e fb 19 be
       -0.047783285 -0.03079927 -0.029110214 -0.15037176
000390 86 60 87 3d 1d 6e 9b 3c 7f c1 ff 3d 00 04 15 3e
       0.06610207 0.018973405 0.12488078 0.14552307
0003a0 e9 f9 ab bc ba f7 09 be 6d 5a 45 bd 90 6d 46 bc
       -0.02099319 -0.13473406 -0.04818194 -0.012111083
0003b0 07 e0 10 be d7 cf 6a bd 80 b6 71 3d e0 ba 1f be
       -0.1414796 -0.057327118 0.059011936 -0.15598631
0003c0 5f fe 90 3d 82 e4 44 bd 56 ce bc 3a 4d d7 bf bd
       0.070797674 -0.048069485 0.0014404755 -0.09367237
0003d0 6f 5b 81 bc 0c 7f 2d 3d 2b 3a e5 3d 33 64 32 bc
       -0.01579067 0.04235749 0.11192735 -0.010888147
0003e0 5c 70 b1 bc 7e 03 31 bc 1c 40 a5 3d 87 a5 b0 bd
       -0.021660022 -0.010804055 0.080688685 -0.08625322
0003f0 1d 0d e8 3d a8 51 85 3d 3f 72 a9 3d 26 01 c2 3d
       0.11330626 0.06509715 0.08273744 0.09472875

network_body._body_endoder.seq_layers.2.bias f4 [128]
000000 04 11 a4 3c 34 e0 2a bc 6c 86 b0 bd 7d 65 63 bd
       0.020027645 -0.010429431 -0.08619389 -0.05551671
000010 7f fa ca bc a6 fc 95 bb 26 e2 89 bd 8f 67 fe bc
       -0.024777649 -0.004577237 -0.067325875 -0.03105524
000020 d4 4f 83 bd 5b 46 65 bd d9 47 9e 3c 47 8c 9b 3d
       -0.064117104 -0.0559753 0.019321369 0.07595115
000030 e1 aa 81 bc 85 b2 dd bc 52 33 28 be d0 74 b9 bd
       -0.015828552 -0.027062664 -0.16425827 -0.09055483
000040 8e b2 2d 3d f9 99 85 3d 57 64 3d 3d d4 7c d3 3c
       0.04240661 0.065235086 0.04623827 0.025816359
000050 e2 98 52 bd 2e 75 68 3c 58 a1 ba 3c 24 57 8f 3c
       -0.05141533 0.014188094 0.022782013 0.017497607
000060 7c 8b ee 3b 17 fb 9b 3d 64 a9 8a 3c a1 8a 0e 3e
       0.0072798114 0.07616251 0.016926475 0.1392007
000070 bb 7e 24 bd 73 67 a6 3c b5 12 96 3b 17 90 7c bc
       -0.040159922 0.020313 0.004579867 -0.015415213
000080 37 82 6e bb 68 c1 ab bd 9b 5c b1 bc ed a8 1a 3e
       -0.0036393532 -0.08386499 -0.021650603 0.15103503
000090 12 d0 3a 3d d7 13 3e 3a c3 29 4d 3c 42 4f 5e bd
       0.045608588 0.0007250881 0.012522164 -0.054274805
0000a0 87 d1 7b bd 12 35 08 bc 6f 19 75 3d 05 6a 32 bc
       -0.061479118 -0.008313434 0.05983871 -0.010889535
0000b0 61 e5 d5 bc 93 26 7c 3c 95 20 03 be 35 60 c8 3a
       -0.026110353 0.015390056 -0.12805398 0.0015287461
0000c0 ae 67 81 bd 02 35 d2 3c ec 75 be 3d a8 a9 c8 bd
       -0.063186035 0.025660042 0.092998356 -0.09797984
0000d0 2b 8a 91 3d 17 20 cb 3d 0e ee 2c bd 89 52 76 3c
       0.071064316 0.0991823 -0.042219214 0.015034326
0000e0 a3 52 4b 3d 67 c0 6b bd 7e 31 24 3d f0 b0 0b 3e
       0.049639355 -0.057556536 0.040086262 0.13641715
0000f0 b8 56 d4 bd e8 0e c4 3c c2 2a 9b 3d 56 81 e8 3b
       -0.10368103 0.02393289 0.07576515 0.007095496
000100 b2 49 38 3d 59 23 3c 3c 0e 71 30 3c 35 74 1c 3d
       0.044992156 0.011483037 0.010769142 0.03819676
000110 ea e6 97 3d 53 39 72 3c 41 75 d8 3d bb 17 9f 3c
       0.0741709 0.014784175 0.105692394 0.019420495
000120 1e ed 50 3b 19 2c 9b bc 4b c3 03 be 7b 72 d7 3c
       0.0031879614 -0.018941926 -0.12867467 0.026299706
000130 7e 8e b7 3c ab c9 ab bd 90 44 6b 3c 53 5c ac 3b
       0.022406813 -0.083880745 0.014359608 0.0052600293
000140 39 35 35 3c 30 e7 ff bd ee 3c 83 bc 97 b0 96 bc
       0.011060053 -0.124952674 -0.016020264 -0.018394751
000150 81 36 1c bc 5c ba 3e 3d a0 1c 1d 3d 80 c8 3f 3c
       -0.009534479 0.046564445 0.038357377 0.011705518
000160 87 8f 08 bd 5e 57 8b 3c ea 96 a5 bc 6b d8 83 bd
       -0.033340003 0.017009433 -0.020213563 -0.06437763
000170 46 d9 65 3d 2d 3c c7 bd 1e 73 ca 3b 4f 48 0e bd
       0.05611541 -0.097282745 0.006178274 -0.034736928
000180 67 29 39 3d 1f 26 e1 bc 7c 66 20 3d f7 c7 08 bd
       0.0452055 -0.027483998 0.039160237 -0.033393826
000190 4b de 63 3d 89 41 9c bc 7e 9f 00 bd 83 07 f7 bb
       0.055631917 -0.019074218 -0.031402104 -0.0075387373
0001a0 e1 f0 26 bd 4f ab ea 3d ab 8e 83 3c d1 36 66 bd
       -0.040757064 0.11458456 0.01605924 -0.05620462
0001b0 ff 06 f8 bc 21 45 0e bd 52 61 23 bd 40 f2 c0 3c
       -0.030276773 -0.034733895 -0.039887734 0.023553014
0001c0 4d e1 f6 bb 52 e4 e7 bd 76 8f 57 3b ef 3d 45 bb
       -0.007534182 -0.113228455 0.0032891906 -0.003009673
0001d0 68 f3 a9 3d 08 ce 91 3d 97 53 ba 3c 4e 00 61 3b
       0.08298379 0.071193755 0.022744937 0.0034332457
0001e0 0e 0a 6b 3d db 3c 22 3d aa 4f 86 3d 38 a5 2c bd
       0.057382636 0.039608818 0.065581635 -0.042149752
0001f0 0a ae 95 ba 4e 7e 17 3d 05 7e a5 bc 8f d2 ac 3d
       -0.0011419666 0.036985688 -0.020201692 0.08438598

action_model._continuous_distribution.log_sigma f4 [1, 2]
000000 f3 27 27 be 68 e8 24 be
       -0.16323833 -0.16104281

action_model._continuous_distribution.mu.weight f4 [2, 128]
000000 a7 0c 76 3d 10 ea 86 3b 37 32 f8 bc 57 ae 7a bd
       0.06007066 0.004117258 -0.030297382 -0.06120142
000010 c5 7d 0e 3d c7 2a 72 bd e2 7e 0d bd 32 e5 bd bb
       0.034787912 -0.059122827 -0.034544833 -0.0057951445
000020 93 58 b4 3c e0 5d 9b bc 02 f7 32 bd e1 15 26 bd
       0.022014892 -0.018965662 -0.043692596 -0.04054821
000030 b9 f0 14 3d 77 04 75 bd 00 f3 8e bc b8 1a 48 bd
       0.036362384 -0.05981871 -0.017449856 -0.048853606
000040 40 81 0d be 3a 43 d7 3d 5a 6a 82 3c 80 a0 36 3d
       -0.13818836 0.10510869 0.015919853 0.04458666
000050 4f 75 56 bc 6e ef 11 be b6 82 8c 3d 46 3b 15 be
       -0.013089492 -0.14251491 0.06860869 -0.14573392
000060 bc 50 46 3a 88 10 16 be 5f c8 f3 3b 75 af e4 3d
       0.0007565131 -0.14654744 0.0074396576 0.11166278
000070 4c 03 44 bd 22 9e 1f be 46 97 33 3d 66 44 43 bd
       -0.047854707 -0.15587667 0.043845437 -0.04767265
000080 e5 c0 e3 bc b7 9b 17 bc 7e b4 88 bd e0 ab 8f 3d
       -0.02780194 -0.009253434 -0.06675051 0.070152044
000090 a2 21 05 bc da 75 72 3c a2 d6 ab bd 5a 60 25 bc
       -0.0081256945 0.014798606 -0.08390547 -0.010093773
0000a0 24 6f 4d bd a2 b6 69 bd 0f cf f5 bd d7 1a 88 3d
       -0.05015482 -0.057058938 -0.12002384 0.06645744
0000b0 55 a4 f4 bc 19 b9 f9 3c 88 22 63 bd da 4d bc bd
       -0.029863516 0.03048377 -0.055452853 -0.091945365
0000c0 fc 1b f3 bc 28 30 0b 3d 92 0e 9a 3d fc 92 01 bd
       -0.02967643 0.033981472 0.0752231 -0.031634316
0000d0 5b f3 41 bc e1 1e af 3d ee 90 1e bd 38 0e 20 be
       -0.011837806 0.085508116 -0.038712434 -0.15630424
0000e0 76 f3 6a 3d 9d a6 d5 3b 62 15 0f 3c d6 23 39 3d
       0.05736109 0.006520106 0.008733125 0.04520019
0000f0 bc eb 71 bd 13 da 92 bd f8 71 0d be 03 cf 0d be
       -0.059062704 -0.071705006 -0.13813007 -0.138485
000100 95 7e 1c be 47 7e 40 bd 83 ba 7c bc 3f 2a b2 bd
       -0.15282662 -0.046995427 -0.015425327 -0.08699464
000110 ef b4 53 3b 82 8c 14 bd a1 5e d6 3d 8b 1f 44 bd
       0.003230389 -0.03626681 0.10467268 -0.047881644
000120 96 51 96 bb dd e0 bd 3c fb 94 f8 bb 4c f2 4a 3b
       -0.0045873625 0.023178512 -0.007586119 0.0030967174
000130 f2 10 3f 3d 8b 41 57 bc 52 11 95 3d 82 17 e7 3c
       0.04664702 -0.013138185 0.07278694 0.028209452
000140 26 7d 18 be 23 06 ff bc 1c dd 8e 3d a7 1f 2c 3d
       -0.1489149 -0.031130856 0.06975767 0.042022374
000150 64 5c a5 bd 2c 5e 10 be 95 eb f2 bb 14 90 1c 3d
       -0.08074263 -0.14098424 -0.0074133375 0.03822334
000160 88 c3 fb bc 53 8e 25 be 0e e0 b5 bb b3 e6 9f bb
       -0.030732885 -0.16167574 -0.005550391 -0.0048797964
000170 7a 2a df bd 9e 79 ce 3b 02 b6 7a bd f1 8d 85 3c
       -0.10896774 0.006301119 -0.061208732 0.016303034
000180 76 f6 02 3d a8 83 83 bd 4d d0 1c be f4 c7 9d bd
       0.031973325 -0.06421596 -0.15313835 -0.07704154
000190 d9 4e 7a bd 69 f7 83 3c d7 9a 34 3d 22 06 3a 3c
       -0.06111035 0.016109185 0.04409298 0.011354001
0001a0 88 44 38 bc 98 2b bd 3c 48 7c bb bd 29 7c 80 bc
       -0.011246808 0.023092076 -0.09154564 -0.015684204
0001b0 12 c2 81 bd 23 2f 33 bc f6 dc 9f 3c 08 5a c6 bd
       -0.06335844 -0.010936531 0.019514542 -0.09685141
0001c0 4a 0a 1f 3c 49 5e 00 bd 77 c1 99 3c 6e fa af bd
       0.009707043 -0.031339917 0.018769009 -0.085926875
0001d0 19 d1 a9 3d 55 9d 23 be 1d 46 03 3d c0 fd 2b bd
       0.08291835 -0.15977986 0.032049287 -0.04199004
0001e0 d3 98 56 bc 19 67 13 3d 6d 4c 48 bd 30 ab 30 3c
       -0.01309796 0.035986993 -0.04890101 0.010783002
0001f0 9c 34 81 3d 3e 79 85 bd cb 62 a8 bc b6 68 55 3d
       0.063088626 -0.06517266 -0.02055492 0.052101813
000200 68 d5 86 bc f0 e4 d4 bc d9 2f 1b 3d c8 85 d7 3c
       -0.016459182 -0.025988072 0.037887428 0.026308909
000210 03 ed 4d 3d 27 74 40 bd 12 cb 08 ba 67 c8 3f 3d
       0.05027486 -0.04698577 -0.0005218248 0.046821978
000220 3d fb 99 3b f1 ad 48 3d 09 0b db 3d aa e4 0c 3e
       0.0046991394 0.04899401 0.10695464 0.13759103
000230 b8 41 45 3d 29 3c 4b bb 0c 0a 2e 39 8f 0a 2c 3d
       0.048158377 -0.00310112 0.00016597676 0.042002257
000240 37 f7 6e bd 7a 11 8c 3d 9e c8 1e 3e c6 4d 95 3d
       -0.05834123 0.06839271 0.15506217 0.07290225
000250 90 ec a6 bb 88 e5 07 3d b0 74 d1 3d c5 9a d3 3c
       -0.0050941184 0.033177882 0.102273345 0.025830636
000260 52 a5 ca bd 6e e1 72 3c b5 30 c9 ba 81 08 17 3e
       -0.098948136 0.014824254 -0.0015349599 0.14749338
000270 20 3c 33 bc 34 fc 70 bc a1 6c fd 3c ee 7f 73 3d
       -0.010939628 -0.014708567 0.030935587 0.059448175
000280 c4 3c 0b bd 53 85 9b 3d f9 9f 14 bd 7f f5 0a be
       -0.033993497 0.07593789 -0.036285374 -0.13570212
000290 37 62 30 3e ac 2e 7c bc e8 a7 5e bd af c9 39 bc
       0.17224966 -0.015391987 -0.054359347 -0.011339589
0002a0 3b b7 40 3d c8 a5 a8 3c db cf 02 bd 1b 57 c9 3c
       0.047049742 0.020586863 -0.031936508 0.024577668
0002b0 5d 93 8d bd e0 91 1b 3d 4e 03 c2 3c 50 66 8c bd
       -0.06912873 0.037980914 0.023683216 -0.06855452
0002c0 d6 8d f1 bc a5 4a 86 bd ac 02 e4 bd 9e 58 e1 3c
       -0.029486578 -0.06557206 -0.11133322 0.027508076
0002d0 22 2d ad bd 93 1a 21 be db d0 b0 3c 54 7e 54 3d
       -0.08455874 -0.15732794 0.021583965 0.05187829
0002e0 49 23 ae 3d 06 58 54 3d 1e 3b 51 bd cd 56 0f be
       0.08502824 0.05184176 -0.05108177 -0.13997956
0002f0 24 65 33 3d e3 3f c2 bd bd 03 db bb c3 bb d4 3c
       0.043797627 -0.09484842 -0.0066837952 0.025968438
000300 f8 aa 22 3d 5f 6d e4 3d 05 1e c8 3d 79 fe 8d bd
       0.03971383 0.111536734 0.09771351 -0.069333024
000310 b3 5d 24 3e fa d3 c0 3d 78 07 00 be cc 09 99 bd
       0.16051368 0.09415431 -0.12502849 -0.07472572
000320 61 21 58 3c 3c 0c 98 3d d9 2d 35 3d 24 90 6d bd
       0.013191552 0.074242085 0.044233177 -0.05799879
000330 b7 0b f2 3a 2f b5 ce 3b d1 a0 a6 3c c2 8f 03 3e
       0.0018466626 0.00630822 0.020340355 0.12847808
000340 d0 96 99 bc 5b e2 c2 3c 75 e0 99 3c c1 f5 5e bb
       -0.01874867 0.023789575 0.018783787 -0.0034020992
000350 81 6a 5b bd d1 41 9c bc 6c 88 2b bd e3 9d a4 bd
       -0.053568367 -0.019074352 -0.04187815 -0.08037927
000360 9c 18 a4 3d 2d 17 e4 3c 8a ba 8d bc b3 a1 82 3c
       0.08012506 0.027843082 -0.017300863 0.015946245
000370 9d 16 94 3d 9e 20 2c 3d 1d 1a aa bd 6c 72 02 3c
       0.07230876 0.042023294 -0.08305762 0.007961851
000380 91 ba 15 bd b0 fa df 3c 3b d5 1e 3d c8 9c d2 bb
       -0.036554877 0.027341217 0.03877757 -0.006427381
000390 ec b3 c2 3d 15 1f 17 bc 19 16 3e 3d 57 30 fa 3b
       0.095069736 -0.009223719 0.046407793 0.007635157
0003a0 59 fb 53 bd ba 87 1c be a0 ea 76 3d 1a 15 6a 3d
       -0.051753376 -0.1528615 0.06028235 0.05714903
0003b0 5c 6d 6c 3d b4 d0 b5 3d 41 f7 f2 bb 68 20 9b bd
       0.05772148 0.088776976 -0.007414729 -0.075745404
0003c0 76 67 95 bd 09 fe aa 3b 1a 9f 90 3d e5 2d d9 bc
       -0.07295124 0.0052182716 0.07061596 -0.026511142
0003d0 4f 05 ae 3d 4b 0c ba bd 14 6e b8 3d 9e d8 dc bd
       0.08497106 -0.09084376 0.09005371 -0.10783504
0003e0 04 c9 11 3e 14 5c 1b 3e 76 1c 17 3e 63 3f 15 3d
       0.14236838 0.15171844 0.1475695 0.036437403
0003f0 45 84 35 3d ca 2b c7 3d 64 ef 4a bd 0d 1c d6 bd
       0.044315595 0.09725149 -0.049544707 -0.10454569

action_model._continuous_distribution.mu.bias f4 [2]
000000 19 4f e3 3c ca 33 37 3b
       0.027747678 0.0027954453

50 f4 [6]
000000 0b 95 15 40 ff 0d 15 40 01 1f 06 40 df d4 00 40
       2.3372219 2.3289793 2.0956423 2.0129926
000010 e5 aa 40 3f ae d5 2a 3f
       0.75260764 0.667323
