RollerBall/Assets/SelfPlayEx.onnx (onnx, 75710 bytes, 8 tensors)

network_body.observation_encoder.processors.0.normalizer.running_mean f4 [10]
0.08986651 -0.2476122 0.0041697896 0.25173545 0.0061686756 0.0905419 -0.22085862 0.0077732527
0.28622037 0.0041186227
00000000: ef0b b83d 0d8e 7dbe bba2 883b 78e3 803e
00000010: 9a22 ca3b 086e b93d c328 62be c5b6 fe3b
00000020: 7a8b 923e 83f5 863b

network_body._body_endoder.seq_layers.0.weight f4 [128, 10]
-0.18497683 -0.25030413 -0.09612665 -0.45001683 -0.15904757 0.31062004 -0.04145916 0.073626556
-0.09658643 -0.56982654 -0.36037233 0.20714493 0.16172391 0.23311633 0.55082136 -0.24103023
0.21056896 0.058845356 0.8077241 -0.14189525 -0.37197784 0.15003009 0.99922854 0.058196947
0.080654375 -0.42284587 0.22671 -0.25243357 -0.16804866 0.63757175 0.07099917 -0.021674184
0.46225458 -0.060313404 -0.24832767 -0.09222964 0.43036252 0.6667265 -0.2834838 -0.11566342
0.1798942 0.44385955 0.3615017 0.35702342 -0.06974996 0.16520448 -0.2061914 -0.078304045
0.08098423 0.33385098 -0.1463965 -0.3315523 -0.048953976 0.4091235 -0.07887684 0.06517653
0.3846274 -0.6618285 -0.40697613 -0.04411837 -0.15047371 0.118583776 0.1143783 -0.16108838
-0.7234281 -0.07875882 -0.06871783 0.19528043 -0.07269279 -0.03663209 -0.60199153 -0.6590938
0.12460685 -0.26028112 0.40185094 -0.32345977 0.18377405 -0.055559743 0.51511085 0.40060535
-0.1634001 -0.22240043 0.28490996 -0.18143104 -0.21948473 0.4573707 -0.42728922 0.3165416
-0.29017222 0.2426468 -0.17738056 -0.10925891 -0.15017812 0.5073756 0.22450224 -0.1477815
-0.570041 0.09801237 -0.17391732 0.8975435 0.34119648 0.11758498 -0.20004632 0.5761996
0.21246031 -0.092826925 0.08399469 -0.44610658 -0.0058314144 -0.0145089645 0.013131033 -0.69665545
0.210023 -0.3088404 0.1637482 0.28192717 -0.23545915 -0.46588898 -0.26377487 -0.08267649
-0.0037654154 -0.64045465 -0.27920127 0.4282916 0.13860211 0.46218985 -0.364838 -0.33432648
-0.31575572 -0.2601737 0.22534195 0.0132820895 -0.6907905 -0.15161726 0.52947015 0.1287768
-0.07094541 0.113240376 0.08459208 -0.5806446 0.023623649 -0.07371965 -0.13875891 -0.47453633
-0.41951138 0.06801972 0.33207762 -0.19555631 -0.2513379 -0.45118728 -0.37705413 0.60128975
-0.0963283 0.17841896 0.11416564 -0.26324433 -0.15073085 0.4156248 -0.20274699 -0.40714002
-0.16829641 -0.21577722 -0.09578582 -0.027630128 0.5609036 0.39926556 -0.084354125 -0.1744687
-0.25193357 0.55926365 0.16044948 0.071855426 0.2176459 -0.40440235 0.68406856 -0.28062955
0.008791176 -0.43732417 0.20468678 0.027950216 -0.14878806 -0.7926057 0.38747567 0.16391398
-0.6799115 0.4871519 -0.018209748 0.14509745 -0.66312206 -0.03300241 0.16026239 0.074820295
-0.37499806 0.5791581 -0.10002229 0.029402198 -0.6269987 -0.009576423 0.14890847 -0.018972097
-0.13385493 -0.3734396 -0.27195162 -0.1385489 -0.75159675 -0.27500603 -0.023155564 -0.055204168
0.39054632 0.04314821 -0.19536419 -0.19061941 -0.3673615 -0.10627941 0.30155686 0.14498864
-0.019860616 0.57041395 -0.5830091 0.43124458 0.52900296 -0.037955754 -0.25250483 0.09053249
-0.23690575 0.18304263 -0.1808329 -0.2131233 -0.22062586 0.1422978 0.7400899 -0.0027570468
0.42909056 0.42254266 0.017907651 -0.46979842 0.65891385 0.17406106 0.34669206 -0.25734642
0.24821319 0.411971 0.13350894 0.09182836 -0.15724795 0.69050694 0.35137424 0.093870096
-0.2707916 -0.068235256 0.6781918 -0.10193878 0.40769127 -0.21284446 -0.231162 0.069004856
00000000: 916a 3dbe dd27 80be 0dde c4bd 9b68 e6be
00000010: 5edd 22be 9709 9f3e 15d1 29bd 85c9 963d
00000020: 1bcf c5bd 27e0 11bf b982 b8be cd1d 543e
00000030: f49a 253e 0cb6 6e3e a102 0d3f a1d0 76be
00000040: 649f 573e d407 713d 02c7 4e3f fd4c 11be
00000050: e173 bebe 7da1 193e 71cd 7f3f ec5f 6e3d
00000060: 1f2e a53d 417f d8be ab26 683e f93e 81be
00000070: f314 2cbe e737 233f 0368 913d 0f8e b1bc
00000080: a2ac ec3e 300b 77bd 9c49 7ebe e5e2 bcbd
00000090: 7a58 dc3e 97ae 2a3f ca24 91be f1e0 ecbd
000000a0: 2f36 383e 8f41 e33e c016 b93e c6cb b63e
000000b0: 11d9 8ebd 5d2b 293e d723 53be df5d a0bd
000000c0: 0fdb a53d 84ee aa3e f7e8 15be 39c1 a9be
000000d0: f783 48bd a378 d13e 2e8a a1bd 467b 853d
000000e0: e2ed c43e 986d 29bf 2d5f d0be 77b5 34bd
000000f0: c815 1abe 0ddc f23d 2c3f ea3d 5af4 24be
00000100: 9532 39bf 4e4c a1bd efbb 8cbd 98f7 473e
00000110: f5df 94bd 880b 16bd 1e1c 1abf 5fba 28bf
00000120: e031 ff3d 9143 85be 68bf cd3e 859c a5be
00000130: 442f 3c3e 9d92 63bd 4ede 033f 251c cd3e
00000140: 5b52 27be f0bc 63be b8df 913e 0fc9 39be
00000150: 9bc0 60be 7e2c ea3e a7c5 dabe be11 a23e
00000160: 7491 94be 6778 783e 40a3 35be 23c3 dfbd
00000170: 4bc8 19be 5ee3 013f eae3 653e 0954 17be
00000180: 35ee 11bf b6ba c83d 6217 32be 69c5 653f
00000190: 4eb1 ae3e 65d0 f03d f1d8 4cbe d181 133f
000001a0: 328f 593e 0b1c bebd 6805 ac3d 1568 e4be
000001b0: 7315 bfbb 02b7 6dbc 8b23 573c 0358 32bf
000001c0: 4510 573e 5420 9ebe 9cad 273e c258 903e
000001d0: 341c 71be 0089 eebe 800d 87be 4b52 a9bd
000001e0: 30c5 76bb d6f4 23bf 78f3 8ebe 0949 db3e
000001f0: b6ed 0d3e 26a4 ec3e 0ccc babe d72c abbe
00000200: bcaa a1be 7d35 85be 0ac0 663e 1f9d 593c
00000210: a5d7 30bf 8e41 1bbe 5b8b 073f 11de 033e
00000220: d44b 91bd 92ea e73d 9d3e ad3d 20a5 14bf
00000230: 6286 c13c 54fa 96bd d116 0ebe 6df6 f2be
00000240: 32ca d6be ec4d 8b3d 1406 aa3e ea3f 48be
00000250: 5caf 80be 0502 e7be 3d0d c1be 20ee 193f
00000260: c647 c5bd 76b3 363e adcf e93d f6c7 86be
00000270: 3059 1abe c6cc d43e e89c 4fbe a874 d0be
00000280: e555 2cbe b4f4 5cbe 5b2b c4bd 9458 e2bc
00000290: 6197 0f3f 896c cc3e dbc1 acbd eca7 32be
000002a0: 70fd 80be e72b 0f3f de4c 243e f028 933d
000002b0: 91de 5e3e d30d cfbe 1e1f 2f3f adae 8fbe
000002c0: dd08 103c f4e8 dfbe 6999 513e daf7 e43c
000002d0: e65b 18be 35e8 4abf 3663 c63e 11d9 273e
000002e0: ae0e 2ebf f96b f93e 9c2c 95bc 6d94 143e
000002f0: 5ec2 29bf 892d 07bd d31b 243e 623b 993d
00000300: bfff bfbe b543 143f 7dd8 ccbd e1dc f03c
00000310: fd82 20bf 6ee6 1cbc 767b 183e 5f6b 9bbc
00000320: 4411 09be 7a33 bfbe 3e3d 8bbe c3df 0dbe
00000330: a568 40bf 97cd 8cbe bdb0 bdbc c41d 62bd
00000340: b0f5 c73e 2dbc 303d 8d0d 48be bc31 43be
00000350: ce16 bcbe 05a9 d9bd a965 9a3e e777 143e
00000360: bbb2 a2bc a606 123f 1640 15bf 17cc dc3e
00000370: bd6c 073f 7e77 1bbd 5048 81be 1969 b93d
00000380: 6c97 72be 876f 3b3e 422c 39be ff3c 5abe
00000390: bfeb 61be 84b6 113e 8876 3d3f 92af 34bb
000003a0: c2b1 db3e 8357 d83e 11b3 923c 6b89 f0be
000003b0: 94ae 283f 103d 323e 9f81 b13e e9c2 83be
000003c0: 992b 7e3e dded d23e 91b6 083e 8210 bc3d
000003d0: 9b05 21be 10c5 303f 53e7 b33e f73e c03d
000003e0: 32a5 8abe edbe 8bbd fa9d 2d3f 47c5 d0bd
000003f0: e9bc d03e e6f3 59be bbb5 6cbe 6b52 8d3d

network_body._body_endoder.seq_layers.0.bias f4 [128]
0.03153723 0.019558815 0.046301913 0.01717533 0.00087808707 0.024384895 -0.00048043914 0.06815616
-0.001596595 0.05546597 0.024279464 0.051827215 -0.011760537 0.0052960548 0.01660004 -0.019897645
0.02609002 0.024634663 0.02437106 -0.031680357 0.017863013 0.04136393 0.039735075 0.0019055607
0.024118902 0.061669033 -0.011880443 0.034050804 0.0225476 0.00018039235 0.024335532 0.0009926566
0.022679556 0.0138604585 -0.010817741 0.039697994 0.014651717 0.010532726 0.010448029 0.025684198
0.019044353 -0.017676082 0.01671374 0.0016138342 0.018129574 0.0073065725 0.06269882 0.021753142
-0.015123128 0.0022333388 0.041644085 0.02075777 -0.0057815146 -0.013203429 0.029355494 0.006260069
0.02535681 0.031152504 0.00064358325 -0.008569648 -0.010467656 0.014019473 0.023995377 0.018046357
0.019769834 -0.008677788 0.009494442 0.025710285 0.04007192 0.05281035 0.019917592 -0.020318521
0.00064092176 0.039016414 0.0054438435 -0.00880961 -0.003225461 0.028347341 0.05354185 -0.029441195
0.05016675 0.04620257 0.02683631 -0.007924224 0.017755166 0.009988964 0.016471034 0.04360798
0.038018696 -0.024911452 0.0055980496 -0.020469327 -0.005197336 0.023919493 0.006755856 0.014511498
0.016732985 0.021805532 -0.020161573 -0.0048925662 0.04129967 0.031650268 0.04022001 0.020787697
0.020525424 0.039743632 0.042871155 0.03700788 0.053485658 0.07546026 0.027425703 0.013461657
0.05679706 0.0026899355 0.023207957 0.015237173 0.010019243 0.0030018582 0.010933724 0.047923017
0.0003581453 0.013466622 0.018074268 0.015287601 0.037447464 0.046188556 0.051576592 0.02171932
00000000: 2f2d 013d cf39 a03c 13a7 3d3d 47b3 8c3c
00000010: 6d2f 663a d5c2 c73c 73e3 fbb9 7595 8b3d
00000020: d744 d1ba 4930 633d bae5 c63c c648 543d
00000030: 44af 40bc 878a ad3b cffc 873c 6300 a3bc
00000040: bdba d53c a2ce c93c d1a5 c73c 43c3 01bd
00000050: 7455 923c 396d 293d 3fc1 223d 02c4 f93a
00000060: 0195 c53c ab98 7c3d 31a6 42bc db78 0b3d
00000070: bfb5 b83c b427 3d39 4f5b c73c 071c 823a
00000080: 7aca b93c fa16 633c e53c 31bc 5d9a 223d
00000090: c10d 703c 7491 2c3c 362e 2b3c ab67 d23c
000000a0: e702 9c3c 6ecd 90bc 41eb 883c 4a87 d33a
000000b0: 7984 943c f96b ef3b 3d68 803d a533 b23c
000000c0: ffc6 77bc 355d 123b fd92 2a3d 330c aa3c
000000d0: dc72 bdbb 3253 58bc ef7a f03c 4421 cd3b
000000e0: 16b9 cf3c 8933 ff3c 24b6 283a b567 0cbc
000000f0: 8880 2bbc efb1 653c f491 c43c f4d5 933c
00000100: 59f4 a13c 482d 0ebc 938e 1b3c 609e d23c
00000110: 7422 243d aa4f 583d 382a a33c 0773 a6bc
00000120: 8803 283a adcf 1f3d 4562 b23b 2f56 10bc
00000130: 4262 53bb af38 e83c b34e 5b3d a92e f1bc
00000140: a67b 4d3d e83e 3d3d d2d7 db3c 9bd4 01bc
00000150: 4873 913c c0a8 233c 43ee 863c 489e 323d
00000160: 7eb9 1b3d 1a13 ccbc d86f b73b 4aaf a7bc
00000170: 6a4e aabb d0f2 c33c 3a60 dd3b a2c1 6d3c
00000180: 9d13 893c 84a1 b23c e229 a5bc d251 a0bb
00000190: d829 293d b6a3 013d bdbd 243d f64a aa3c
000001a0: ef24 a83c 38ca 223d aa99 2f3d 9395 173d
000001b0: c713 5b3d e98a 9a3d deab e03c 488e 5c3c
000001c0: 09a4 683d a149 303b 9d1e be3c 56a5 793c
000001d0: c027 243c d3ba 443b 5d23 333c ed4a 443d
000001e0: 73c5 bb39 1ba3 5c3c 7d10 943c d978 7a3c
000001f0: 8362 193d 3630 3d3d fa41 533d b7ec b13c

network_body._body_endoder.seq_layers.2.weight f4 [128, 128]
-0.020285154 0.090220295 0.15354906 0.046095338 -0.15407981 -0.023387374 0.033488594 0.033780407
-0.12746824 0.045903552 -0.04276834 0.03177396 -0.043681394 0.15506455 0.1528955 -0.041842718
0.120729215 0.023732578 0.042750385 0.13194734 -0.028642954 -0.17805198 0.21473058 0.04429992
0.09101089 -0.0054415385 0.040290825 -0.062810354 0.06533197 0.040792186 -0.21745968 -0.099608265
-0.14052774 -0.0748456 -0.062477645 0.1486434 0.04946928 0.11413841 0.16430312 0.0381973
0.1616975 -0.042884957 0.02058785 0.04144037 -0.001982947 -0.047414973 -0.02172524 0.088907294
-0.11465828 0.102340184 -0.09897164 0.123326175 0.044601005 -0.103570595 -0.015682928 0.077670686
0.039525237 -0.009722641 -0.049088825 -0.061938718 -0.076129235 0.07886336 0.2989215 0.060886215
-0.010874416 0.015380397 -0.22102359 0.022486152 -0.025967866 0.026579248 -0.0098123355 -0.19011132
0.026225198 -0.094929576 0.07450781 0.16067767 0.073613584 -0.04906377 -0.19590865 -0.08662476
-0.14164178 0.083302416 -0.11424865 0.010387406 -0.027707579 -0.15339692 -0.13738102 0.11175287
0.13527413 0.22092558 0.14637698 0.10501644 -0.048078224 -0.07662118 -0.050147288 -0.017059645
0.045308456 -0.14727573 -0.044022493 -0.056980327 0.019287923 0.11425298 -0.025444148 -0.07584961
0.043574866 0.21753442 0.04129017 -0.023103235 0.11845691 0.12854317 0.00944678 -0.13027282
0.0031820536 -0.029115137 0.15780227 -0.0029654712 0.12694906 -0.14241359 -0.022015948 -0.010486985
-0.07694589 -0.01310453 -0.21146217 0.06605368 0.09873549 0.025863366 -0.023674574 -0.18479292
-0.033645783 0.02263396 -0.020618008 0.032736044 -0.05511008 0.01433505 0.05154222 -0.005239389
0.08594425 -0.108572364 0.03581498 -0.018095748 -0.06400493 0.0569405 0.035318214 -0.039029125
0.0837043 0.00760649 -0.09131157 -0.026649194 -0.035230555 -0.11787849 0.05610875 0.06365897
-0.14019871 0.057859663 -0.1758036 -0.10843558 -0.10746699 0.01937906 -0.1468922 -0.10586923
0.014244954 0.08998865 0.056740858 -0.039406702 0.04611496 -0.10372389 -0.03335931 0.04060448
0.09721009 -0.038555678 0.044352368 0.048170645 0.07467389 0.0071759787 -0.06151371 -0.012542858
-0.043935027 0.07339929 0.0142620625 0.098922126 -0.05772716 0.058654178 -0.026737733 -0.12673865
-0.020289337 0.11538959 0.09466223 0.031476367 0.012337332 -0.05049206 -0.07184319 -0.08194235
-0.09216455 -0.10672685 0.15894127 -0.16581014 -0.08259924 0.046829607 0.116740026 -0.06763651
0.17558232 0.025967732 -0.052877836 0.017944148 0.022845978 -0.03029735 0.03219012 -0.10389507
-0.15108958 -0.039250623 -0.17578848 -0.15569292 -0.04680227 -0.1280585 -0.13001236 -0.010409899
-0.16420558 -0.11223059 0.05888554 0.0452172 -0.014549003 0.030199235 0.027072059 0.07574903
0.16610041 -0.003384789 -0.029079895 -0.15780388 0.1479171 -0.1149848 0.037753787 -0.07463078
-0.13338253 -0.04838643 0.024442786 0.075784214 -0.09386373 0.14309156 0.017577035 -0.15707308
0.00800575 0.07780891 0.043180607 0.06396772 -0.16296482 -0.05158211 -0.02743302 -0.07647657
0.070351414 -0.10609206 0.13600956 -0.040588643 0.029676517 -0.06172087 -0.17432208 0.08213975
00000000: 0d2d a6bc 6bc5 b83d f73b 1d3e 77ce 3c3d
00000010: 19c7 1dbe e196 bfbc 562b 093d 535d 0a3d
00000020: 0987 02be 5d05 3c3d db2d 2fbd 6925 023d
00000030: 43eb 32bd 3ec9 1e3e a390 1c3e 4563 2bbd
00000040: e140 f73d d36a c23c 071b 2f3d 341d 073e
00000050: a1a4 eabc 4253 36be 55e2 5b3e d573 353d
00000060: eb63 ba3d ef4e b2bb fe07 253d b7a2 80bd
00000070: c5cc 853d b515 273d c0ad 5ebe 6bff cbbd
00000080: 81e6 0fbe a648 99bd 8fe8 7fbd fa35 183e
00000090: 4da0 4a3d 66c1 e93d 143f 283e c674 1c3d
000000a0: 0894 253e 23a8 2fbd daa7 a83c 61bd 293d
000000b0: 55f4 01bb 3436 42bd 21f9 b1bc 0715 b63d
000000c0: f6d1 eabd bb97 d13d a5b1 cabd 6f92 fc3d
000000d0: 8baf 363d d21c d4bd 7c79 80bc cf11 9f3d
000000e0: 37e5 213d b64b 1fbc 5d11 49bd 74b3 7dbd
000000f0: a5e9 9bbd 1d83 a13d 3d0c 993e d363 793d
00000100: 9b2a 32bc 10fe 7b3c 0254 62be e134 b83c
00000110: 90ba d4bc b9bc d93c ebc3 20bc 8bac 42be
00000120: 3ad6 d63c 706a c2bd 8d97 983d b088 243e
00000130: b8c2 963d 17f7 48bd 479c 48be 5268 b1bd
00000140: 8b0a 11be 759a aa3d 32fb e9bd f02f 2a3c
00000150: 01fb e2bc 1514 1dbe 9cad 0cbe b0de e43d
00000160: 4d85 0a3e 513a 623e d9e3 153e dc12 d73d
00000170: aced 44bd 91eb 9cbd 3e67 4dbd abc0 8bbc
00000180: 5c95 393d 73cf 16be ee50 34bd 3464 69bd
00000190: b501 9e3c 77fd e93d 3f70 d0bc 0a57 9bbd
000001a0: 8f7b 323d 58c1 5e3e e21f 293d ff42 bdbc
000001b0: 8999 f23d d2a0 033e abc6 1a3c 3d66 05be
000001c0: 008a 503b de82 eebc eb96 213e 5a58 42bb
000001d0: effe 013e ded4 11be ca5a b4bc 9ad1 2bbc
000001e0: cf95 9dbd 62b4 56bc 8a89 58be 2747 873d
000001f0: d535 ca3d 69df d33c 2ef1 c1bc 5b3a 3dbe
00000200: 29d0 09bd db6a b93c 19e7 a8bc 3b16 063d
00000210: 1bbb 61bd 8fdd 6a3c ef1d 533d 2eaf abbb
00000220: 8a03 b03d 305b debd bab2 123d 893d 94bc
00000230: 0415 83bd 713a 693d d5a9 103d 01dd 1fbd
00000240: 296d ab3d dd3f f93b 8f01 bbbd 694f dabc
00000250: ea4d 10bd 476a f1bd 4ad2 653d a25f 823d
00000260: 4090 0fbe 41fe 6c3d dc05 34be 7913 debd
00000270: a717 dcbd d6c0 9e3c e96a 16be f8d1 d8bd
00000280: ab63 693c f84b b83d 1a69 683d ec68 21bd
00000290: 0ae3 3c3d 316d d4bd c6a3 08bd e250 263d
000002a0: 1516 c73d 8fec 1dbd d4aa 353d 954e 453d
000002b0: a0ee 983d 7924 eb3b cdf5 7bbd 8f80 4dbc
000002c0: 37f5 33bd 5e52 963d 6dab 693c af97 ca3d
000002d0: 5173 6cbd 5d3f 703d 1709 dbbc c7c7 01be
000002e0: d335 a6bc 6151 ec3d 45de c13d 5ded 003d
000002f0: 8522 4a3c c3d0 4ebd 8622 93bd 64d1 a7bd
00000300: c5c0 bcbd 9b93 dabd 80c1 223e 22ca 29be
00000310: ca29 a9bd 67d0 3f3d 6515 ef3d 0385 8abd
00000320: dacb 333e 48ba d43c 6e96 58bd 9bff 923c
00000330: 7d27 bb3c 2632 f8bc cad9 033d f0c6 d4bd
00000340: 3ab7 1abe 43c5 20bd e501 34be f76d 1fbe
00000350: bdb3 3fbd c421 03be f621 05be 488e 2abc
00000360: 8225 28be 27d9 e5bd f731 713d ac35 393d
00000370: f15e 6ebc 6364 f73c 39c6 dd3c 4f22 9b3d
00000380: 3a16 2a3e 56d3 5dbb f638 eebc 5797 21be
00000390: 9577 173e 277d ebbd b7a3 1a3d 06d8 98bd
000003a0: 6e95 08be d930 46bd 3d3c c83c c134 9b3d
000003b0: a13b c0bd 9886 123e b7fd 8f3c c4d7 20be
000003c0: 8d2a 033c 475a 9f3d 26de 303d 8201 833d
000003d0: 40e0 26be c347 53bd 36bb e0bc bf9f 9cbd
000003e0: 6714 903d cb46 d9bd 1746 0b3e 4740 26bd
000003f0: 2b1c f33c 06cf 7cbd 7d81 32be e338 a83d

network_body._body_endoder.seq_layers.2.bias f4 [128]
0.02566263 0.0011336686 0.012143859 0.004071541 -0.004704932 0.009494455 -0.018840088 0.042775467
0.0015018765 0.031104228 0.023652881 0.011828861 0.0011780823 0.004422826 0.03658862 0.027453216
0.010775086 0.009714414 0.024057288 0.007569431 0.029440794 0.0240792 0.007378992 0.029991617
-0.010647071 0.0094780745 0.018493256 0.005190558 0.0114459805 0.020444835 0.012486165 -0.002680764
0.025237376 0.002512446 0.023468716 0.004235345 0.0060913013 0.025091998 0.0360324 0.054212436
0.029185139 0.033952937 0.013824856 0.012738069 0.021734964 0.011954674 -0.01266179 0.020287612
0.019972146 0.01169802 0.035305183 -0.007834972 0.041673087 0.004540805 0.020723768 0.021002179
0.016950069 0.019286787 0.014588114 0.0057268585 0.015099905 -0.005083151 0.019077998 0.01421601
0.0053864126 0.034546148 0.007895401 0.060185347 0.027471023 0.0050418912 0.030997433 0.043021377
0.04641329 -0.0001828679 0.027333668 0.016401099 0.011885471 0.0015813566 0.03600833 0.023576513
0.021688351 0.032801233 0.014310087 0.0041639134 -0.00037677135 0.004260603 0.0059145796 0.001952595
0.0182792 0.011322253 0.017312342 0.014097849 0.014870984 -0.0012960451 -0.006470074 0.049613375
0.026330587 0.017064445 -0.0016031913 -0.0070643425 0.033694994 0.0050127897 0.022952281 0.036698304
0.0326887 0.01933822 0.0087699555 0.0054259035 0.00086027296 -0.00917476 0.012165319 0.0007248551
0.008629633 0.039549876 0.0030718697 0.031413794 0.019443048 0.024209162 0.015758928 -0.0057003805
0.020039897 0.029688824 0.009842215 0.0022532481 0.035914678 0.0036720128 -0.009238766 -0.0033795093
00000000: 703a d23c 9b97 943a 09f7 463c 906a 853b
00000010: d52b 9abb a18e 1b3c 8756 9abc 5435 2f3d
00000020: 9dda c43a 4bce fe3c b0c3 c13c d7cd 413c
00000030: e269 9a3a 5bed 903b f3dd 153d 91e5 e03c
00000040: fc89 303c 3529 1f3c ca13 c53c fd08 f83b
00000050: d22d f13c be41 c53c 79cb f13b fbb0 f53c
00000060: 0d71 2ebc ed49 1b3c 2b7f 973c 8e15 aa3b
00000070: ec87 3b3c ed7b a73c c692 4c3c c2af 2fbb
00000080: 9dbe ce3c d9a7 243b 7741 c03c a6c8 8a3b
00000090: 8a99 c73b bc8d cd3c b696 133d dc0d 5e3d
000000a0: ac15 ef3c 3c12 0b3d a681 623c 55b3 503c
000000b0: 860d b23c 89dd 433c 6573 4fbc 3532 a63c
000000c0: a09c a33c 0da9 3f3c 2b9c 103d 415e 00bc
000000d0: 66b1 2a3d 08cb 943b e4c4 a93c c30c ac3c
000000e0: dfda 8a3c 53ff 9d3c fc02 6f3c 5fa8 bb3b
000000f0: 9865 773c 9090 a6bb 7649 9c3c 45ea 683c
00000100: 8180 b03b 4380 0d3d b65b 013c e984 763d
00000110: e90a e13c 7336 a53b 54ee fd3c 2f37 303d
00000120: dd1b 3e3d 3ac0 3fb9 dbea df3c 995b 863c
00000130: 47bb 423c 8645 cf3a 787d 133d 8823 c13c
00000140: c5ab b13c 965a 063d db74 6a3c 7071 883b
00000150: 6589 c5b9 879c 8b3b 17cf c13b 37ee ff3a
00000160: 43be 953c f980 393c 9dd2 8d3c aafa 663c
00000170: 6da5 733c 0fe0 a9ba ea02 d4bb 6537 4b3d
00000180: 3eb3 d73c bcca 8b3c 2c22 d2ba 007c e7bb
00000190: c303 0a3d 5442 a43b 6c06 bc3c f650 163d
000001a0: 96e4 053d 306b 9e3c dcaf 0f3c c7cb b13b
000001b0: f183 613a bc51 16bc 0c51 473c 3404 3e3a
000001c0: 4e63 0d3c 0dff 213d 6c51 493b c0ab 003d
000001d0: 0747 9f3c 4b52 c63c de18 813c 42ca babb
000001e0: b62a a43c fa35 f33c 3e41 213c 3bab 133b
000001f0: 451b 133d 27a6 703b 315e 17bc c27a 5dbb

action_model._discrete_distribution.branches.0.weight f4 [3, 128]
-0.0025903536 -0.0006061237 -0.005802023 0.007831977 0.011587657 -0.0111101 -0.010980915 -0.0033380087
-0.006401786 -0.010965659 0.0111102685 -0.00018433214 0.00067260116 0.019031307 -0.0006415208 0.00488499
0.0027904087 0.007700274 -0.017309349 -0.0014801999 0.005600082 0.001706309 0.006942696 -0.016404223
0.014590599 -0.018955536 0.008605788 -0.020962005 -0.0022298007 -0.0051251627 0.0054994547 -0.0050123967
0.01248995 0.027456526 0.0031075138 0.005141137 -0.008524086 0.004066124 0.008475777 -0.0015057463
-0.0054028532 -0.0050957096 -0.019597897 -0.011754602 -0.009503706 0.0018772524 -0.008862366 0.015651243
0.009293029 0.0010956964 -0.0037984147 0.022347122 0.003377883 0.002897491 0.009862247 0.016273046
0.009263437 0.012666051 0.0056689675 0.0021849647 0.015362158 -0.01100636 -0.0014299486 -0.0034506128
-0.0015072137 0.0040514683 0.0022868407 0.013037449 -0.009819437 -0.01524449 0.006990664 0.012009274
0.0039080484 0.0052748234 0.0020632697 -0.014317114 0.009242502 0.0080280425 -0.00376604 -0.013125325
0.0009351122 0.012167189 -0.0024539442 0.0011510939 0.008498386 -0.0034798456 0.0020014853 0.0015141937
-0.0010848475 -0.002627028 -0.0116322525 -0.0023894552 -0.007522402 0.001025249 0.0060223537 -0.00096700015
-0.0058298996 -0.007943321 -0.013133934 0.0046003484 0.0072976816 -0.022400467 0.0032919853 -0.005897193
-0.015417846 -0.021496298 -0.011781073 -0.009498752 -0.0033225808 0.02231852 -0.00774936 0.021189062
-0.010615815 0.013792075 0.0030520968 -0.005713561 0.0008227923 0.0076403054 0.0057151774 0.010351312
-0.006624751 -0.005064613 -0.008624845 0.015365902 0.027662752 -0.00030768482 0.001847621 0.006748824
0.052890796 -0.020441253 -0.05435377 -0.05815373 -0.0102449795 0.0124907 -0.003919648 0.071334206
-0.037720773 0.054565527 -0.085446015 -0.0045403084 -0.043808073 -0.009119382 0.058368675 -0.07598538
-0.056195587 -0.068982214 0.05307909 -0.06418719 0.05136466 -0.050622385 -0.049133103 0.04895735
0.0055976184 -0.050048884 0.040008552 -0.018673507 -0.054513942 -0.059928354 -0.032467283 0.020480685
0.019936638 -0.02624803 0.04966027 -0.036465246 0.0046480447 0.040112875 0.046301033 0.06698985
0.0451196 0.03915011 -0.034261797 -0.05860893 0.019009572 0.036975365 0.0023901102 0.037167203
0.008013461 -0.047776714 0.041013144 -0.026058907 0.066865034 -0.041002765 -0.039925396 -0.034721542
0.03377174 -0.052392896 -0.07789567 -0.017176613 -0.058832023 0.012817388 -0.052480627 0.022650763
-0.09339358 0.03658516 0.00835637 0.06626402 -0.06650433 -0.001339437 0.016951444 0.046948005
0.056513242 -0.008658861 0.05460972 0.022694929 0.018870698 -0.040641792 0.056218226 -0.037847415
0.03002403 0.046670027 -0.06801191 -0.024696046 -0.048911836 -0.07715084 -0.031631917 0.0056422357
-0.070377015 -0.080660194 0.029015597 0.01683781 -0.031069912 -0.032161016 0.0063843206 0.07102238
0.035900254 -0.041451596 0.0075325407 -0.011341686 0.07904198 0.018946555 0.038338467 0.0551524
0.044221643 0.023491599 -0.030865531 -0.033935435 -0.059402432 -0.010292576 -0.03567646 -0.008633795
-0.05734799 0.05912231 0.019592121 0.0400181 0.03617015 0.012278075 -0.082302876 -0.056368873
0.018746797 0.049875785 -0.056135304 0.012311466 0.03507705 -0.07892405 -0.052154653 -0.012816451
00000000: ecc2 29bb 46e4 1eba e61e bebb b151 003c
00000010: 28da 3d3c 2307 36bc 4ce9 33bc 7ec2 5abb
00000020: 13c6 d1bb 4fa9 33bc d807 363c 4849 41b9
00000030: 8051 303a 8be7 9b3c bb2b 28ba 4412 a03b
00000040: 4adf 363b 9552 fc3b 56cc 8dbc 4403 c2ba
00000050: e580 b73b 3ba6 df3a 8e7f e33b 2662 86bc
00000060: 680d 6f3c a448 9bbc 4bff 0c3c 83b8 abbc
00000070: d921 12bb fbf0 a7bb c534 b43b 083f a4bb
00000080: a6a2 4c3c 82ec e03c 6ea7 4b3b fc76 a83b
00000090: 9ca8 0bbc 1f3d 853b fcdd 0a3c 765c c5ba
000000a0: 6b0a b1bb e9f9 a6bb c58b a0bc 6096 40bc
000000b0: 6fb5 1bbc 230e f63a 7533 11bc 0937 803c
000000c0: ca41 183c 789d 8f3a d3ee 78bb 5011 b73c
000000d0: 795f 5d3b d5e3 3d3b 4395 213c 0d4f 853c
000000e0: acc5 173c 4585 4f3c bfc2 b93b a031 0f3b
000000f0: 90b1 7b3c 0554 34bc 1d6d bbba ad23 62bb
00000100: b38d c5ba 2ec2 843b d2de 153b 069b 553c
00000110: b4e1 20bc 06c4 79bc f111 e53b 8cc2 443c
00000120: 160f 803b 6dd8 ac3b ec37 073b 5492 6abc
00000130: dd6d 173c 0d88 033c abcf 76bb 9a0b 57bc
00000140: 5122 753a e458 473c 5ad2 20bb 4de0 963a
00000150: d03c 0b3c 1f0e 64bb 5a2b 033b e977 c63a
00000160: 7131 8eba 372a 2cbb 3495 3ebc 6898 1cbb
00000170: 7b7e f6bb a661 863a 2a57 c53b 487e 7dba
00000180: be08 bfbb b424 02bc b62f 57bc 85be 963b
00000190: 6421 ef3b 2f81 b7bc 59be 573b 3e3d c1bb
000001a0: 229b 7cbc 0119 b0bc 6705 41bc a7a0 1bbc
000001b0: a8bf 59bb 54d5 b63c 58ee fdbb af94 ad3c
000001c0: f5ed 2dbc 28f8 613c b005 483b d338 bbbb
000001d0: a8b0 573a 875b fa3b 6246 bb3b 8d98 293c
000001e0: 7014 d9bb 0ef5 a5bb 394f 0dbc 44c1 7b3c
000001f0: ff9c e23c c250 a1b9 e02b f23a 3d25 dd3b
00000200: 05a4 583d 6a74 a7bc 0fa2 5ebd 9b32 6ebd
00000210: 8fda 27bc cba5 4c3c 6470 80bb ab17 923d
00000220: 1981 1abd 1a80 5f3d 52fe aebd dec6 94bb
00000230: 1870 33bd 7669 15bc fe13 6f3d 399e 9bbd
00000240: 582d 66bd 8c46 8dbd 7669 593d 9374 83bd
00000250: c063 523d 6b59 4fbd cb3f 49bd 8187 483d
00000260: 3a6c b73b 0f00 4dbd 02e0 233d 2ff9 98bc
00000270: 034a 5fbd 6f77 75bd 6afc 04bd 1cc7 a73c
00000280: 2952 a33c 1c06 d7bc 9168 4b3d 955c 15bd
00000290: a04e 983b 664d 243d 27a6 3d3d f931 893d
000002a0: 54cf 383d de5b 203d 1956 0cbd eb0f 70bd
000002b0: f6b9 9b3c 7b73 173d 65a3 1c3b a33c 183d
000002c0: e44a 033c 84b1 43bd 66fd 273d 7d79 d5bc
000002d0: 89f0 883d 84f2 27bd d088 23bd 2d38 0ebd
000002e0: 3c54 0a3d ef99 56bd c487 9fbd f8b5 8cbc
000002f0: d9f9 70bd 0600 523c edf5 56bd 188e b93c
00000300: 2245 bfbd 52da 153d 28e9 083c 6eb5 873d
00000310: 6c33 88bd 0c90 afba c1dd 8a3c 8d4c 403d
00000320: 6e7a 673d e5dd 0dbc 71ae 5f3d b7ea b93c
00000330: b996 9a3c 0278 26bd 1545 663d e405 1bbd
00000340: f4f4 f53c 1229 3f3d d449 8bbd 5d4f cabc
00000350: c757 48bd 4201 9ebd 7890 01bd 81e2 b83b
00000360: d321 90bd 2c31 a5bd 1eb2 ed3c 72ef 893c
00000370: 5486 febc 45bb 03bd 9033 d13b 2e74 913d
00000380: 250c 133d 26c9 29bd 88d3 f63b 7bd2 39bc
00000390: c3e0 a13d ce35 9b3c cc08 1d3d 7ce7 613d
000003a0: c121 353d 7471 c03c b6d9 fcbc e2ff 0abd
000003b0: f74f 73bd 31a2 28bc 7b21 12bd c374 0dbc
000003c0: bae5 6abd 3c2a 723d a87f a03c 05ea 233d
000003d0: 2727 143d fb29 493c 698e a8bd 0ce3 66bd
000003e0: e292 993c 8d4a 4c3d 22ee 65bd 08b6 493c
000003f0: f4ac 0f3d efa2 a1bd 1ea0 55bd 17fc 51bc

action_model._discrete_distribution.branches.0.bias f4 [3]
-0.0044021322 0.012688995 -0.011268252
00000000: c33f 90bb 81e5 4f3c 799e 38bc

49 f4 [10]
2.934432 4.226367 6.338287 7.1469655 2.5609012 2.9630673 4.3336864 6.375044
7.2593164 2.5835283
00000000: bccd 3b40 663e 8740 3fd3 ca40 f1b3 e440
00000010: cee5 2340 e5a2 3d40 8fad 8a40 5c00 cc40
00000020: 524c e840 8758 2540
